ddpg-tennis/best_checkpoint_actor.pth (torch_old, 159146 bytes, 6 tensors)

fc1.weight f4 [256, 24]
0.21445781 -0.013063252 -0.021121047 0.1267366 -0.1510144 -0.12689148 -0.016576618 0.20374617
0.1755433 0.110765025 -0.00999902 0.12651113 0.09424557 -0.07099727 0.05205627 0.1797097
0.155663 0.06845535 -0.01628147 0.13414146 0.23092635 0.056196786 0.049122162 0.08897359
0.05001977 0.055149976 -0.023616156 -0.034972887 0.09772561 -0.15661992 -0.015098736 -0.12772852
0.052769244 -0.05675696 0.06295329 -0.013091002 -0.028700879 -0.014680383 0.0155320065 -0.0030298997
0.039865803 -0.050867964 -0.038592286 0.106722035 0.058743663 0.3634128 0.00662234 0.068406165
-0.025060212 -0.27977967 0.002400979 0.07092186 -0.012161978 -0.12548417 -0.08036344 0.016964179
0.0749905 -0.20959698 -0.06448539 0.054898158 -0.034228604 -0.15458463 -0.04530209 0.07473505
0.064314365 -0.24364212 -0.04487989 0.03949954 -0.06141813 -0.067646965 0.0014994683 0.11462204
-0.04645678 0.028046047 -0.00853252 0.0032553312 -0.17231727 -0.14310141 0.015287517 -0.0037050194
-0.048608717 0.025285074 -0.011094925 -0.044719707 0.11069528 -0.080463685 0.02735353 0.027126202
0.0317873 0.05886773 -0.04912784 0.055636283 0.36651984 0.2819088 0.047354504 0.085193366
0.04646905 -0.11454827 0.05553163 0.057633724 0.3473718 -0.034013208 -0.0502112 -0.014601065
-0.021718273 -0.17326371 -0.0028635152 -0.018249154 0.13917242 0.031016111 0.019119287 0.04906036
0.0069763036 -0.14411706 -0.021032065 0.050253984 -0.19909842 0.032863203 0.017611016 0.11850817
0.01679585 0.22893676 -0.035962243 -0.04587984 -0.00065412524 0.05719454 0.04225136 -0.02765088
0.0039028411 0.24155097 -0.042249445 -0.092945546 -0.12645109 -0.029867178 0.025344953 -0.066970676
0.027102634 0.059161033 -0.006427599 -0.10055485 -0.09038772 0.004656916 0.0018139442 -0.12675062
-0.08259207 0.016332401 0.00062792405 -0.046491664 0.30779874 0.05552814 0.028074916 0.04304507
0.036867704 0.021177625 -0.015429759 -0.02249056 0.049101453 0.070605636 -0.036674056 -0.014254823
-0.05156192 0.0056649055 0.01835901 -0.021349093 -0.05771611 -0.19750936 0.01630566 0.009416394
0.0008916197 -0.04232856 -0.041606702 -0.016814994 0.01466599 -0.3008837 -0.013696881 -0.06262811
-0.031915773 -0.058548708 -0.0471965 -0.076265 -0.019378379 -0.026215056 -0.03378447 -0.06875793
0.017928038 -0.11621855 -0.020596582 -0.043891456 0.016680475 0.27516085 0.055951767 -0.06337959
-0.059607375 0.23125772 0.007430273 0.012089782 -0.077969134 -0.023099747 0.009884175 -0.013274214
-0.0059748385 0.17887977 -0.0035058057 -0.16412014 0.035464533 -0.0034891665 0.016707534 -0.13937753
0.06552494 0.12742601 0.04797618 -0.07753829 0.06960856 -0.024684375 -0.029705482 -0.1438124
-0.010977618 0.03939576 -0.002490893 -0.020208146 0.05579039 0.1645215 -0.010665797 -0.0026182758
-0.06880185 -0.0109574 0.03452268 0.03659074 -0.046300795 0.14713396 -0.010745646 -0.033708014
0.041681796 -0.054028627 -0.04950492 0.012798362 -0.12881681 -0.032607608 0.047448598 -0.013323453
0.04907336 -0.06848114 0.03270668 -0.028294142 -0.14608315 0.092822485 -0.0096709505 0.027476126
0.08375605 -0.07919666 0.009459872 0.014265517 0.108036704 0.022874972 -0.031904858 0.035748605
00000000: d49a 5b3e 4007 56bc 0c06 adbc 3dc7 013e
00000010: 85a3 1abe d7ef 01be b0cb 87bc d6a2 503e
00000020: 9fc1 333e c6d8 e23d eed2 23bc 228c 013e
00000030: d203 c13d 0467 91bd f538 553d d205 383e
00000040: 1f66 1f3e 5232 8c3d b860 85bc 615c 093e
00000050: f577 6c3e 9a2e 663d 5234 493d c937 b63d
00000060: 88e1 4c3d f1e4 613d ab76 c1bc bb3f 0fbd
00000070: 5d24 c83d f960 20be b060 77bc 44cb 02be
00000080: 9024 583d fc79 68bd a8ed 803d a47b 56bc
00000090: 1b1e ebbc fd85 70bc f579 7e3c 4891 46bb
000000a0: 534a 233d ed5a 50bd f212 1ebd 1591 da3d
000000b0: 329d 703d 3e11 ba3e 3700 d93b 8818 8c3d
000000c0: 134b cdbc 483f 8fbe be59 1d3b 7b3f 913d
000000d0: 0843 47bc ec7e 00be 9695 a4bd 76f8 8a3c
000000e0: 9f94 993d 97a0 56be eb10 84bd e4dc 603d
000000f0: 4b33 0cbd 6f4b 1ebe af8e 39bd b10e 993d
00000100: 40b7 833d 527d 79be fad3 37bd 45ca 213d
00000110: 9491 7bbd 7e8a 8abd cf89 c43a f6be ea3d
00000120: 7749 3ebd d3c0 e53c fccb 0bbc 6557 553b
00000130: f073 30be 2d89 12be 7e78 7a3c e9cf 72bb
00000140: ef19 47bd a522 cf3c 7dc7 35bc 032c 37bd
00000150: 35b4 e23d 25ca a4bd 8314 e03c c537 de3c
00000160: 6633 023d 4a1f 713d 463a 49bd dfe2 633d
00000170: 7da8 bb3e 5a56 903e ccf6 413d dc79 ae3d
00000180: 5556 3e3d 4998 eabd 2275 633d 5711 6c3d
00000190: b7da b13e 6f51 0bbd 42aa 4dbd 4e39 6fbc
000001a0: 85ea b1bc 0b6c 31be d0a9 3bbb 407f 95bc
000001b0: 3783 0e3e 8015 fe3c 0da0 9c3c 84f3 483d
000001c0: 7a99 e43b 6c93 13be 704b acbc 1fd7 4d3d
000001d0: 75e0 4bbe 919b 063d fa44 903c 69b4 f23d
000001e0: 7397 893c 666e 6a3e 254d 13bd 80ec 3bbd
000001f0: 9a79 2bba d244 6a3d c30f 2d3d 1984 e2bc
00000200: cfc6 7f3b 2359 773e c10d 2dbd 3c5a bebd
00000210: 657c 01be 03ac f4bc 38a0 cf3c ec27 89bd
00000220: 5806 de3c d752 723d 9c9e d2bb b4ef cdbd
00000230: 321d b9bd 0b99 983b dec1 ed3a eaca 01be
00000240: 0826 a9bd 87cb 853c 459b 243a 0b6e 3ebd
00000250: cc97 9d3e 7a71 633d 5efd e53c 0750 303d
00000260: 9702 173d b37c ad3c 1acd 7cbc 1f3e b8bc
00000270: 9b1e 493d b099 903d 8937 16bd 108d 69bc
00000280: 9832 53bd aca0 b93b a265 963c 4be4 aebc
00000290: ba67 6cbd e53f 4abe 7393 853c 3847 1a3c
000002a0: 96bb 693a b660 2dbd ca6b 2abd 99bf 89bc
000002b0: 9f49 703c 6e0d 9abe e268 60bc 2b43 80bd
000002c0: 1dba 02bd c5d0 6fbd 1e51 41bd d330 9cbd
000002d0: 68bf 9ebc f5c0 d6bc 9661 0abd f5d0 8cbd
000002e0: d2dd 923c fe03 eebd 2aba a8bc 87c7 33bd
000002f0: 7ea5 883c e2e1 8c3e ae2d 653d 29cd 81bd
00000300: dd26 74bd d3ce 6c3e a679 f33b 3914 463c
00000310: 48ae 9fbd ae3b bdbc 3cf1 213c 177c 59bc
00000320: 94c8 c3bb 422c 373e a9c1 65bb 1c0f 28be
00000330: 4243 113d 80aa 64bb 3dde 883c fcb8 0ebe
00000340: f131 863d f77b 023e ac82 443d 65cc 9ebd
00000350: ef8e 8e3d e336 cabc e958 f3bc 8f43 13be
00000360: 78db 33bc 735d 213d 403e 23bb 8e8b a5bc
00000370: 7784 643d 5378 283e 98bf 2ebc 6197 2bbb
00000380: fce7 8cbd ab86 33bc a767 0d3d 2ce0 153d
00000390: e7a5 3dbd 49aa 163e 820e 30bc 6a11 0abd
000003a0: 88ba 2a3d 1f4d 5dbd acc5 4abd 39b0 513c
000003b0: 8ee8 03be 8e8f 05bd 7659 423d 9d4a 5abc
000003c0: 2601 493d d73f 8cbd 71f7 053d 1ec9 e7bc
000003d0: d296 15be b719 be3d e872 1ebc 9d15 e13c
000003e0: 4b88 ab3d dc31 a2bd 94fd 1a3c eab9 693c
000003f0: 5942 dd3d 4b64 bb3c abae 02bd 216d 123d

fc1.bias f4 [256]
-0.08808179 0.09177727 0.0014242908 0.109650336 -0.05816417 -0.15606323 -0.1913415 -0.16090946
-0.21988873 -0.25546116 0.123653926 -0.12031241 0.12905152 -0.22514635 -0.051775668 0.1675108
-0.004925456 -0.08428015 -0.19909918 -0.19573474 0.13429908 -0.106345795 -0.013130259 -0.21363379
0.19313332 -0.14550094 0.21754558 0.11911229 -0.1777869 0.0014274941 -0.12554651 -0.12134213
-0.21779402 0.121221446 -0.042808205 7.1804854e-05 -0.18954314 0.2059847 -0.018525127 0.041639432
-0.16394259 -0.15781695 0.016152512 -0.19252947 -0.18802959 -0.008955177 0.10319591 -0.031116385
0.29528764 0.23799959 -0.0846166 0.14625813 -0.11904023 -0.2105179 0.12934335 -0.079579756
-0.0038867113 -0.1584647 -0.36704084 0.11522498 -0.11362526 0.067823865 -0.10292237 -0.12422729
0.07591327 0.15324357 -0.20417304 0.1132541 -0.09128853 -0.022374306 0.04289005 -0.1965031
-0.14508641 -0.045531992 -0.2516856 0.38501665 0.079711154 0.3306919 0.059120204 0.17996709
-0.28458372 0.008961717 -0.34239036 -0.24358228 0.026954092 -0.124824904 -0.25153548 -0.10056237
-0.42747313 0.011796133 0.103920385 0.023918962 -0.11062521 0.13176186 -0.19518429 -0.24272192
0.044304065 -0.102666825 0.23798513 0.0769757 -0.026038961 0.039879344 -0.026757974 0.022468906
-0.06697465 0.23379602 0.070120364 0.16840059 0.18282177 0.025080008 -0.060899552 -0.023442874
-0.17250104 -0.26732653 -0.03389881 0.3188959 -0.053764805 -0.18566811 -0.1773961 0.15996043
-0.07831801 -0.058762923 0.12511763 0.28196323 0.089946 0.067092896 -0.06298463 0.04123701
0.1625176 -0.20981175 -0.1810962 0.20380744 -0.18390091 0.25437102 0.2501372 0.28020486
-0.19605033 0.19412516 0.11599294 0.2046039 0.19664405 -0.0864477 0.24508703 0.09403027
0.17129788 -0.1819212 -0.25976053 -0.26675457 -0.07165632 0.15015519 0.16558096 0.098893516
0.055232946 -0.17054504 0.09455128 -0.089685984 0.16966477 -0.026278619 0.033505507 0.11934204
-0.2339543 0.016307857 0.07885617 0.15838674 0.0060073254 0.1342634 -0.11134043 0.15744571
0.0031679955 0.2037882 -0.055196173 -0.3370188 -0.16903514 -0.10631556 -0.24456567 -0.13584633
-0.031434618 0.13590682 -0.041522678 0.23170638 -0.015685523 0.24969392 0.27001813 0.06584363
0.2305724 -0.28988948 0.18916725 -0.032168765 0.15583585 -0.1123061 0.08614571 -0.04708354
0.06559958 -0.014541021 0.28079152 -0.10490491 -0.3282947 0.016285446 0.26779935 0.20233941
0.15868181 -0.055595912 -0.045224667 -0.17298663 0.16538003 0.22335191 -0.20323144 0.05828468
-0.094500184 -0.21575257 0.019466609 -0.15912652 0.19872196 0.13552132 0.14621395 -0.2897545
0.10695555 0.29431292 0.08659767 0.09290823 -0.13568506 -0.09279498 0.29487717 -0.14350173
0.038006783 -0.1141823 0.07929729 -0.11110277 -0.021612793 -0.0733533 0.28817287 0.0125063555
0.08013039 -0.08751711 -0.019389395 -0.11952491 0.05689438 0.11863331 -0.16349377 0.27074322
-0.20266531 -0.18069589 0.045486115 -0.048246164 -0.009473877 0.012279174 -0.1877424 -0.25852352
-0.14606717 -0.15096185 -0.20944515 -0.0851088 0.25784287 0.30470842 -0.008261101 0.29772514
00000000: 3a64 b4bd b9f5 bb3d 45af ba3a 5b90 e03d
00000010: 8d3d 6ebd 0acf 1fbe 07ef 43be 73c5 24be
00000020: 832a 61be cecb 82be 453e fd3d 5a66 f6bd
00000030: 1526 043e c48c 66be b912 54bd f387 2b3e
00000040: b865 a1bb 129b acbd a8e0 4bbe b06e 48be
00000050: b385 093e d3cb d9bd 4c20 57bc d1c2 5abe
00000060: bec4 453e 33fe 14be 45c4 5e3e 25f1 f33d
00000070: c50d 36be c11a bb3a 448f 00be 3982 f8bd
00000080: 6505 5fbe f342 f83d a857 2fbd f095 9638
00000090: 9917 42be a7ed 523e 02c2 97bc 1c8e 2a3d
000000a0: 91e0 27be c49a 21be 4652 843c 7226 45be
000000b0: d48a 40be bcb8 12bc 6158 d33d cae7 febc
000000c0: f12f 973e 2ab6 733e 784b adbd b1c4 153e
000000d0: 5dcb f3bd 0192 57be 9572 043e b6fa a2bd
000000e0: 32b8 7ebb 9244 22be c7ec bbbe 13fb eb3d
000000f0: 5cb4 e8bd 3de7 8a3d f7c8 d2bd e16a febd
00000100: 6b78 9b3d e2eb 1c3e bd12 51be c4f1 e73d
00000110: 7bf5 babd 524a b7bc 7aad 2f3d 1c38 49be
00000120: 8891 14be c17f 3abd efdc 80be e720 c53e
00000130: 9a3f a33d 7350 a93e 0728 723d 4b49 383e
00000140: f5b4 91be 2ad4 123c ca4d afbe a26d 79be
00000150: d4ce dc3c 33a4 ffbd 42c9 80be a5f3 cdbd
00000160: c2dd dabe 9144 413c 36d4 d43d b3f1 c33c
00000170: 788f e2bd 95ec 063e 64de 47be 188c 78be
00000180: 2e78 353d fc42 d2bd 60b2 733e 70a5 9d3d
00000190: a94f d5bc 8658 233d 8a33 dbbc b610 b83c
000001a0: 012a 89bd 3968 6f3e 449b 8f3d 3471 2c3e
000001b0: a135 3b3e 9774 cd3c cf71 79bd 450b c0bc
000001c0: 1da4 30be 06df 88be 7bd9 0abd 5346 a33e
000001d0: 7c38 5cbd c81f 3ebe 53a7 35be abcc 233e
000001e0: 3165 a0bd 64b1 70bd d61e 003e 7c5d 903e
000001f0: 9c35 b83d 0068 893d 16fe 80bd 24e8 283d
00000200: 046b 263e e4d8 56be 4871 39be e6b2 503e
00000210: 8550 3cbe eb3c 823e fc11 803e 0377 8f3e
00000220: 6bc1 48be bfc8 463e b58d ed3d af83 513e
00000230: 0f5d 493e 7e0b b1bd 18f8 7a3e f192 c03d
00000240: b668 2f3e 8d49 3abe 55ff 84be 0e94 88be
00000250: 8cc0 92bd 48c2 193e 0e8e 293e af88 ca3d
00000260: f13b 623d 5ca3 2ebe 1aa4 c13d 49ad b7bd
00000270: 9abc 2d3e 4246 d7bc 123d 093d 9969 f43d
00000280: b791 6fbe 0e98 853c 587f a13d 2230 223e
00000290: 19d9 c43b 587c 093e 7406 e4bd 7339 213e
000002a0: 259e 4f3b dbad 503e 6215 62bd ba8d acbe
000002b0: 8c17 2dbe f9bb d9bd 6c6f 7abe 4d1b 0bbe
000002c0: 96c1 00bd 282b 0b3e af13 2abd 7044 6d3e
000002d0: ed7e 80bc c3af 7f3e d13f 8a3e 06d9 863d
000002e0: 2c1b 6c3e 656c 94be 0fb5 413e 65c3 03bd
000002f0: 6f93 1f3e be00 e6bd 296d b03d acda 40bd
00000300: 1359 863d 763d 6ebc e8c3 8f3e 63d8 d6bd
00000310: 3e16 a8be 0e69 853c ff1c 893e 1032 4f3e
00000320: 7c7d 223e 8ab8 63bd 803d 39bd 6823 31be
00000330: 6259 293e 5db6 643e e71b 50be ebbb 6e3d
00000340: 5089 c1bd 3eee 5cbe 7078 9f3c 10f2 22be
00000350: c57d 4b3e 1ac6 0a3e 1cb9 153e b45a 94be
00000360: 830b db3d 2fb0 963e 1f5a b13d ac46 be3d
00000370: 06f1 0abe 4b0b bebd 24fa 963e 1ef2 12be
00000380: 00ad 1b3d 69d8 e9bd 9e66 a23d d989 e3bd
00000390: 500d b1bc 413a 96bd 658b 933e 75e7 4c3c
000003a0: 671b a43d 2c3c b3bd 82d6 9ebc 7ac9 f4bd
000003b0: 150a 693d 05f6 f23d e96a 27be db9e 8a3e
000003c0: 7f87 4fbe 5808 39be a64f 3a3d c59d 45bd
000003d0: 5238 1bbc 972e 493c 8b3f 40be 325d 84be
000003e0: a292 15be be95 1abe ca78 56be 864d aebd
000003f0: fb03 843e be02 9c3e 9259 07bc 6e6f 983e

fc2.weight f4 [128, 256]
-0.10273692 -0.18090348 3.0886167e-07 -0.15960321 0.061311737 0.026284672 0.03321943 -0.0013648787
-0.0008077943 0.18684748 -0.03653451 -0.09822066 -0.16974486 -0.10805573 0.027061418 0.19496565
0.039121617 0.018110435 -0.036243994 0.08648057 0.038423564 0.050827045 -0.032082863 -0.09690967
0.20354864 -0.12682292 0.029598376 -0.062071 -0.049082752 -0.021370219 0.11611504 -0.0537575
-0.016764203 0.06027941 0.0009675115 0.14291051 0.13698891 -0.03806649 0.3199788 0.13406184
-0.056455187 0.03466237 0.0298722 -0.1863823 0.043305293 0.14408065 0.10376939 0.11269788
-0.028335229 0.089948684 -0.18721649 -0.18093705 -0.14433584 -0.064237826 -0.017715778 0.08743725
0.09051744 -0.1061643 -0.20375712 -0.07315117 -0.020175925 0.07005107 -0.088196024 0.22420928
-0.12178399 0.054023348 -0.21981859 0.112840734 -0.06985795 0.028101642 0.060854755 -0.05485052
-0.045116663 -0.024941873 -0.027743045 -0.07194713 -0.18287891 0.0049670893 -0.01258713 -0.10923918
-0.033196665 -0.00013531673 -0.41211596 0.010923922 -0.011116476 -0.11310398 0.040608443 0.085291944
-0.07146307 -0.05870465 0.10245302 -0.007144108 -0.14940053 -0.011868662 -0.064087555 -0.026757874
0.12231096 -0.09819412 0.01932217 0.018579194 0.16886386 0.09019626 0.123854585 0.12423396
0.1619553 -0.027584061 -0.24456672 0.05456071 -0.0004028961 0.11116901 0.08759028 -0.19206062
-0.15907627 -0.054541066 -0.051911704 -0.00017147457 0.17414571 0.11155412 -0.07059847 -0.045622047
0.1017144 -0.06315259 -0.07802754 0.017914107 -0.083890006 0.2941852 -0.11685671 0.017832281
0.098564215 0.15970746 -0.07203139 0.15755704 -0.21052805 0.039207164 0.16640133 -0.027106702
-0.04398653 0.11113346 -0.15694739 0.03258824 -0.112293825 0.05915324 0.20942008 -0.019816494
0.020097462 0.14978744 -0.07685521 -0.061244763 -0.14106818 -0.010822805 0.12617214 -0.17619896
-0.11671961 -0.07253073 0.06677866 0.03192317 -0.049740106 0.02351062 -0.058656845 0.08810281
0.11728732 -0.115509234 0.030934295 -0.07811571 0.09511317 -0.021904154 -0.06375016 0.066092424
-0.0025040114 -0.035935577 -0.032968704 -0.26112393 -0.24243756 -0.047381625 -0.15331307 -0.12535736
0.08368442 -0.20655891 0.046923995 0.04244155 -0.026795099 -0.013952832 0.0059684096 -0.024768328
0.1361899 0.06256998 0.049946036 0.00085537735 0.25940025 0.010129277 -0.2265861 -0.07991645
-0.07119942 -0.0038569635 -0.14871709 0.025932292 -0.20427038 -0.029599702 0.04793688 -0.014071827
0.17482284 -0.088987805 0.08811002 0.077054285 0.09067857 -0.053732194 -0.12819898 0.04507339
0.02491877 0.17968838 -0.05241435 0.0035350423 0.023001807 -0.09505659 0.09251239 -0.119359896
0.119474135 0.045722615 -0.13621552 0.16820104 0.089751154 -0.111120425 0.015156485 -0.14384164
-0.11238896 -0.0076452466 0.02806954 0.026326586 -0.2997832 -0.048809316 -0.011792862 0.03316109
-0.027264467 -0.074189104 -0.06869676 -0.09258971 0.04624077 0.11902068 -0.23006268 -0.14950259
-0.23468162 -0.066232115 -0.007020003 -0.076704666 -0.06745071 -0.02534871 0.07035561 -0.028924996
-0.08838893 0.030143915 -0.037959065 -0.022079969 -0.11469591 0.020226201 0.014314731 0.0039978926
00000000: bc67 d2bd c33e 39be a0d1 a534 066f 23be
00000010: 0422 7b3d f452 d73c 1911 083d bbe5 b2ba
00000020: 28c2 53ba f254 3f3e 36a5 15bd ea27 c9bd
00000030: 99d1 2dbe 534c ddbd e8af dd3c 13a5 473e
00000040: fd3d 203d 565c 943c 9574 14bd ba1c b13d
00000050: 0762 1d3d 0530 503d 5269 03bd 9478 c6bd
00000060: 0e6f 503e dedd 01be 4b78 f23c 293e 7ebd
00000070: ff0a 49bd 9910 afbc b9cd ed3d d330 5cbd
00000080: 1555 89bc 8be7 763d 99a0 7d3a 2257 123e
00000090: d246 0c3e 9ceb 1bbd 43d4 a33e 8247 093e
000000a0: 8e3d 67bd 21fa 0d3d 8bb6 f43c 00db 3ebe
000000b0: e460 313d e189 133e 0c85 d43d 25ce e63d
000000c0: 481f e8bc 0437 b83d aeb5 3fbe 9047 39be
000000d0: c6cc 13be 1f8f 83bd ae20 91bc 4d12 b33d
000000e0: 3561 b93d ab6c d9bd b5a5 50be 48d0 95bd
000000f0: fb47 a5bc ef76 8f3d 1ea0 b4bd 1e97 653e
00000100: e269 f9bd 9647 5d3d 2018 61be 0b19 e73d
00000110: af11 8fbd 6a35 e63c d642 793d f0aa 60bd
00000120: 40cc 38bd e652 ccbc 6245 e3bc 0459 93bd
00000130: 9c44 3bbe f7c2 a23b 403a 4ebc cbb8 dfbd
00000140: 3af9 07bd cfe3 0db9 dd00 d3be 40fa 323c
00000150: e121 36bc 0fa3 e7bd 0a55 263d 8bad ae3d
00000160: 3b5b 92bd 4974 70bd e4d2 d13d 1f19 eabb
00000170: 74fc 18be c774 42bc 5640 83bd 5433 dbbc
00000180: 2b7e fa3d 001a c9bd 8749 9e3c 6533 983c
00000190: a6ea 2c3e d1b8 b83d 79a7 fd3d 606e fe3d
000001a0: 9cd7 253e f8f7 e1bc b36f 7abe 0d7b 5f3d
000001b0: cd3b d3b9 94ac e33d 8862 b33d 8aab 44be
000001c0: e4e4 22be 7466 5fbd 5ea1 54bd dbcd 33b9
000001d0: 4153 323e 7d76 e43d ee95 90bd 2fde 3abd
000001e0: a44f d03d 2556 81bd e7cc 9fbd 9bc0 923c
000001f0: 86ce abbd 719f 963e 9252 efbd 0115 923c
00000200: 09dc c93d 5a8a 233e 3285 93bd a256 213e
00000210: aa94 57be b197 203d 1c65 2a3e e00e debc
00000220: 382b 34bd f199 e33d d1b6 20be 3f7b 053d
00000230: 4efa e5bd ab4a 723d 3872 563e 3356 a2bc
00000240: 6fa3 a43c e161 193e 4466 9dbd cadb 7abd
00000250: 2d74 10be 2252 31bc 4533 013e 806d 34be
00000260: b10a efbd fe8a 94bd 40c3 883d dfc1 023d
00000270: 48bc 4bbd 5899 c03c 2942 70bd 3f6f b43d
00000280: 5634 f03d 1b90 ecbd eb69 fd3c 21fb 9fbd
00000290: b2ca c23d 5770 b3bc 728f 82bd 775b 873d
000002a0: 571a 24bb 2f31 13bd 310a 07bd 09b2 85be
000002b0: 8d41 78be 3c13 42bd 1afe 1cbe ae5d 00be
000002c0: bd62 ab3d 2e84 53be 6033 403d 31d7 2d3d
000002d0: 6581 dbbc 6b9a 64bc a692 c33b f3e6 cabc
000002e0: 5d75 0b3e b124 803d 3794 4c3d 673b 603a
000002f0: 1cd0 843e 44f5 253c 3006 68be 3cab a3bd
00000300: 00d1 91bd 1cc5 7cbb 4b49 18be f56f d43c
00000310: 412c 51be 137b f2bc 7659 443d 858d 66bc
00000320: c204 333e 3d3f b6bd 0773 b43d a3ce 9d3d
00000330: b0b5 b93d 4a16 5cbd 9846 03be e09e 383d
00000340: 7322 cc3c 3b00 383e 6eb0 56bd 2bac 673b
00000350: 496e bc3c 08ad c2bd 2377 bd3d f672 f4bd
00000360: dbae f43d a347 3b3d 157c 0bbe e53c 2c3e
00000370: 74cf b73d 1b93 e3bd e852 783c 394b 13be
00000380: 2f2c e6bd fa84 fabb 18f2 e53c daaa d73c
00000390: 2f7d 99be 47ec 47bd d936 41bc ecd3 073d
000003a0: bb59 dfbc 75f0 97bd e3b0 8cbd ad9f bdbd
000003b0: f666 3d3d 1dc1 f33d 8d95 6bbe 3517 19be
000003c0: 6150 70be b4a4 87bd 0e08 e6bb 5617 9dbd
000003d0: 9923 8abd 19a8 cfbc 9a16 903d 1df4 ecbc
000003e0: 4105 b5bd 5ff0 f63c f77a 1bbd 0de1 b4bc
000003f0: b0e5 eabd 6bb1 a53c 5588 6a3c c100 833b

fc2.bias f4 [128]
0.07622103 -0.094395354 -0.05326495 0.080934465 0.06578286 0.107226394 0.06726848 -0.10736252
-0.018327642 0.06184205 0.0478056 0.1188835 -0.026725711 -0.011436419 -0.036986098 -0.114934854
-0.0725842 0.009621235 -0.08355963 0.09242197 -0.18006332 -0.04405313 0.03979211 0.0294908
0.10536037 0.031642873 0.045494184 0.059053507 -0.0076441173 0.10985963 0.10449329 -0.100273855
-0.04291115 -0.037450224 -0.07575637 0.070859306 0.07775076 -0.010022273 -0.027604727 -0.13440211
-0.011984609 0.0031404719 0.085649155 -0.013161143 0.23205605 0.014864196 -0.06932233 0.046492413
-0.06855294 0.021043561 -0.0713729 0.07905707 0.019967245 0.0877107 -0.02213476 0.12053239
0.0035090928 -0.03432488 -0.14555304 0.06947063 -0.09000176 0.1542727 -0.08503119 0.009177807
-0.003168808 0.0011096154 -0.060920574 -0.014029639 -0.04394697 0.04177775 -0.03138542 -0.08079239
0.03288658 -0.039523948 0.0068491916 0.022890221 -0.08185865 0.0033163843 -0.06500138 -0.037534073
-0.04987699 0.039982736 -0.013828545 -0.071787514 0.053349126 0.06293159 0.06161718 -0.10759194
0.010375612 -0.028681844 0.121379495 0.15772331 0.004903622 -0.11097915 -0.0023520798 -0.08088663
0.057781726 0.017638493 0.084367245 -0.051323865 -0.0039049601 0.080496214 -0.06308413 0.034612305
0.12877329 0.038966756 -0.050254982 -0.029121049 -0.09217115 0.12051949 0.13439934 -0.059180852
-0.07698741 0.07235605 -0.050798807 0.0029406976 -0.03218993 -0.108975165 0.065450214 -0.052969933
0.012376039 0.097557 0.02467718 -0.051953305 0.0421929 0.018498976 0.15334366 0.07731799
00000000: c519 9c3d 5a52 c1bd 592c 5abd f8c0 a53d
00000010: 2ab9 863d 8399 db3d 0fc4 893d e2e0 dbbd
00000020: da23 96bc 174e 7d3d cecf 433d 3179 f33d
00000030: e1ef dabc d15f 3bbc bc7e 17bd f762 ebbd
00000040: 06a7 94bd 62a2 1d3c 5021 abbd bb47 bd3d
00000050: 8562 38be 0e71 34bd 0dfd 223d b196 f13c
00000060: 2dc7 d73d f59b 013d 1c58 3a3d 17e2 713d
00000070: 817b fabb 16fe e03d 9400 d63d 615c cdbd
00000080: 9ac3 2fbd 6865 19bd 2826 9bbd af1e 913d
00000090: ca3b 9f3d 7634 24bc 4f23 e2bc b5a0 09be
000000a0: 185b 44bc 60d0 4d3b d368 af3d d6a1 57bc
000000b0: 1aa0 6d3e f588 733c def8 8dbd d46e 3e3d
000000c0: 7c65 8cbd 8c63 ac3c f42b 92bd ace8 a13d
000000d0: 5992 a33c aba1 b33d f553 b5bc b0d9 f63d
000000e0: cff8 653b 3f98 0cbd db0b 15be 9e46 8e3d
000000f0: d852 b8bd aaf9 1d3e d524 aebd 835e 163c
00000100: c7ab 4fbb 8470 913a da87 79bd 92dc 65bc
00000110: bd01 34bd 251f 2b3d 008e 00bd 7b76 a5bd
00000120: 14b4 063d dde3 21bd 2f6f e03b 4684 bb3c
00000130: 82a5 a7bd b257 593b 721f 85bd 54bd 19bd
00000140: d14b 4cbd f0c4 233d 1f91 62bc 5505 93bd
00000150: 9d84 5a3d 47e2 803d 4c62 7c3d 2a59 dcbd
00000160: 79fe 293c 30f6 eabc d095 f83d 3882 213e
00000170: 90ae a03b 0949 e3bd 5a25 1abb e4a7 a5bd
00000180: 88ac 6c3d 9a7e 903c bcc8 ac3d f938 52bd
00000190: 5cea 7fbb 33db a43d 4132 81bd a2c5 0d3d
000001a0: 25dd 033e 9b9b 1f3d 2bd8 4dbd 448f eebc
000001b0: 3ac4 bcbd ecd2 f63d fb9f 093e 9f67 72bd
000001c0: 93ab 9dbd 692f 943d 6912 50bd b8b8 403b
000001d0: 97d9 03bd 5f2e dfbd c30a 863d 00f7 58bd
000001e0: dfc4 4a3c f7cb c73d cc27 ca3c fdcc 54bd
000001f0: 76d2 2c3d 2a8b 973c 1f06 1d3e e558 9e3d

fc3.weight f4 [2, 128]
0.18980753 -0.3577151 -0.047927797 -0.0021415502 -0.13284256 0.0006287712 0.10598708 -0.32911974
-0.18549128 0.072567545 -0.03957123 -0.0034686276 -0.063948326 -0.07481255 0.20080271 0.0070638414
0.028332088 -0.10742587 -0.054741304 0.15234506 0.23224582 -0.03964133 -0.06031206 0.09268009
0.05007034 -0.1592959 -0.23568675 -0.17345174 -0.10330653 0.019316277 -0.016807914 -0.54775316
-0.015345814 -0.09157929 -0.0120253 0.05152034 0.092159785 -0.027011476 -0.036733285 -0.01722174
-0.22149056 0.0036626838 -0.045262806 -0.15875371 0.053101603 0.035490345 -0.10320906 -0.13393877
-0.065377906 0.055430964 0.114813335 0.23460765 0.03997285 0.069010936 -0.15291882 -0.010656014
-0.0019954664 0.5460047 -0.41902038 -0.12408455 0.03767235 0.2998699 0.048457842 -0.08103488
-0.09769398 -0.072838046 -0.12743306 -0.10909856 -0.055000532 0.058186144 -0.19598444 -0.18850647
0.13829832 -0.28288004 -0.07280446 -0.106801026 -0.12899584 -0.06347817 -0.0055261147 0.013305848
-0.01933338 -0.037762426 0.14207831 0.09146877 -0.0333467 -0.0043349387 0.08518867 -0.031014964
0.020961318 0.072674684 -0.0063314107 0.032232206 -0.002783439 -0.18347116 -0.10920128 0.13683635
0.0056193005 0.10393243 0.023602888 0.13335422 0.18497163 0.11308813 -0.03699775 0.0013361883
0.1439452 0.00023897487 -0.17159866 -0.07877457 -0.07567906 0.06318744 0.16969945 -0.05930521
-0.1970827 -0.19543663 -0.07231578 -0.103785396 0.010292447 -0.2204421 -0.080257826 -0.04960825
-0.092402086 0.0817383 -0.26090688 -0.039789785 -0.05698558 -0.024554254 0.043757025 -0.007946111
0.19910851 0.0063666417 -0.2125668 -0.13457458 -0.26274326 -0.053480748 0.11429364 -0.01419412
-0.07105291 0.06455209 0.013064783 -0.0787978 -0.15994653 -0.047952473 -0.270264 0.84954363
0.10552589 0.047135673 0.30381733 -0.036707826 0.53711677 0.2920708 -0.34392613 -0.044202175
0.013972072 -0.6193497 0.20335943 -0.012377252 0.48759964 -0.10972216 -0.056531806 -0.22906186
0.4838587 0.27275106 -0.012688481 -0.07241717 0.5906453 0.56060654 0.17037494 0.29913217
-0.031225255 0.13484421 -0.40273649 0.25733578 -0.29251105 0.008349787 -0.13261719 0.23868628
-0.07616776 -0.062463373 0.10460053 -0.13443998 -0.013331892 0.00071688445 -0.044234466 -0.05873469
0.1443016 -0.5597529 0.39209637 0.14389807 0.42721358 -0.6299605 0.5181101 -0.03960615
0.21097346 0.36006096 -0.5075613 0.009467663 -0.014959519 0.24307701 0.7678321 -0.16151239
0.8031216 -0.031754423 0.051383138 0.07236127 -0.00019316883 0.0006151672 0.15264152 0.15870103
0.25478977 -0.34391427 -0.20628138 0.034858566 -0.023607098 -0.09545455 -0.008363215 0.05702169
0.15480426 -0.2873345 -0.11788113 -0.11605037 0.006631016 -0.06047094 0.1751362 0.3440469
0.2857925 -0.029373664 -0.024876948 0.05084343 -0.34090802 0.15846464 0.019423962 0.21768565
-0.14840059 -0.08740342 0.34121272 0.13184842 0.6983602 -0.020008836 -0.2781502 -0.1030451
-0.08614888 -0.23490073 0.49803773 0.19567126 0.3600297 -0.051065903 -0.28007773 0.2871487
-0.24577215 -0.1459623 -0.14200875 -0.38205492 0.023139669 0.031306103 -0.1158187 -0.10331103
00000000: e85c 423e 6f26 b7be f04f 44bd 4059 0cbb
00000010: e107 08be 1fd4 243a c10f d93d 6282 a8be
00000020: 6df1 3dbe 4b9e 943d 7115 22bd ea51 63bb
00000030: 57f7 82bd 5237 99bd 3a9f 4d3e cc77 e73b
00000040: b218 e83c 1802 dcbd 6b38 60bd 5800 1c3e
00000050: d9d1 6d3e f25e 22bd c709 77bd 0fcf bd3d
00000060: 8f16 4d3d 771e 23be de57 71be 559d 31be
00000070: 6092 d3bd 2b3d 9e3c c0b0 89bc 8d39 0cbf
00000080: 026d 7bbc ec8d bbbd c405 45bc fe06 533d
00000090: 45be bc3d 2c47 ddbc a475 16bd 9b14 8dbc
000000a0: 6cce 62be a309 703b 7e65 39bd 5590 22be
000000b0: 1181 593d 535e 113d 465f d3bd 3f27 09be
000000c0: dae4 85bd 940b 633d 4123 eb3d fd3c 703e
000000d0: 92ba 233d 9b55 8d3d c096 1cbe 9096 2ebc
000000e0: 5fc6 02bb f7c6 0b3f d789 d6be 0a20 febd
000000f0: 524e 1a3d 8c88 993e bb7b 463d 9df5 a5bd
00000100: c813 c8bd 1d2c 95bd d07d 02be 116f dfbd
00000110: 3d48 61bd 9854 6e3d 25b0 48be d707 41be
00000120: 139e 0d3e a7d5 90be 811a 95bd 7fba dabd
00000130: 7c17 04be d800 82bd 6914 b5bb c600 5a3c
00000140: 0961 9ebc c6ac 1abd fa7c 113e fa53 bb3d
00000150: 8d96 08bd 1a0c 8ebb 6677 ae3d 1813 febc
00000160: 12b7 ab3c 77d6 943d b977 cfbb eb05 043d
00000170: 5b6a 36bb dddf 3bbe eca4 dfbd d41e 0c3e
00000180: 1c22 b83b 87da d43d d85a c13c 028e 083e
00000190: 3469 3d3e c09a e73d f48a 17bd 0a23 af3a
000001a0: 5f66 133e 5495 7a39 8fb7 2fbe 9054 a1bd
000001b0: 9ffd 9abd 6b68 813d b1c5 2d3e 05ea 72bd
000001c0: 0cd0 49be 8a20 48be 4c1a 94bd 708d d4bd
000001d0: a7a1 283c 93bb 61be 375e a4bd 0532 4bbd
000001e0: 4e3d bdbd 6966 a73d 9695 85be 9dfa 22bd
000001f0: b669 69bd 0126 c9bc 913a 333d 6830 02bc
00000200: 1ae3 4b3e 439f d03b 1cab 59be ebcd 09be
00000210: 4986 86be a10e 5bbd c912 ea3d 748e 68bc
00000220: 3084 91bd e333 843d ac0d 563c be60 a1bd
00000230: 06c9 23be d069 44bd 0b60 8abe b17b 593f
00000240: f51d d83d 5611 413d f28d 9b3e f25a 16bd
00000250: 7c80 093f 4e8a 953e 1617 b0be 570d 35bd
00000260: 1eeb 643c b48d 1ebf 743d 503e f5c9 4abc
00000270: a9a6 f93e 03b6 e0bd e58d 67bd 318f 6abe
00000280: 54bc f73e 07a6 8b3e 59e3 4fbc 744f 94bd
00000290: 8834 173f e983 0f3f c576 2e3e da27 993e
000002a0: 1bcc ffbc 9a14 0a3e 7a33 cebe 84c1 833e
000002b0: 02c4 95be 8ccd 083c cdcc 07be 2d6a 743e
000002c0: d8fd 9bbd 98d9 7fbd cd38 d63d a2aa 09be
000002d0: 026e 5abc 4ded 3b3a 332f 35bd c993 70bd
000002e0: ccc3 133e f74b 0fbf dbc0 c83e 045a 133e
000002f0: bdbb da3e 1745 21bf dda2 043f 0f3a 22bd
00000300: 6d09 583e e959 b83e 8aef 01bf 421e 1b3c
00000310: c518 75bc 2ee9 783e a590 443f 8163 25be
00000320: 6199 4d3f ed10 02bd 2077 523d 2532 943d
00000330: 5d8d 4ab9 2c43 213a 0f4e 1c3e 8682 223e
00000340: ce73 823e 8815 b0be 6d3b 53be dbc7 0e3d
00000350: ac63 c1bc ad7d c3bd de05 09bc 938f 693d
00000360: 0285 1e3e 821d 93be a96b f1bd d1ab edbd
00000370: fe48 d93b 60b0 77bd e756 333e ea26 b03e
00000380: 6553 923e 0aa1 f0bc beca cbbc 3341 503d
00000390: 7f8b aebe 8e44 223e 001f 9f3c fde8 5e3e
000003a0: 53f6 17be 9000 b3bd 6fb3 ae3e 4603 073e
000003b0: bcc7 323f 92e9 a3bc b469 8ebe 4f09 d3bd
000003c0: d36e b0bd d189 70be cdfe fe3e 0c5e 483e
000003d0: d055 b83e 7b2a 51bd 5966 8fbe 2805 933e
000003e0: b2ab 7bbe 2477 15be be6a 11be b49c c3be
000003f0: 678f bd3c d43a 003d 5b32 edbd bc94 d3bd

fc3.bias f4 [2]
0.0452924 -0.069539316
00000000: 8684 393d a16a 8ebd
