ddpg-tennis/best_checkpoint_critic.pth (torch_old, 159678 bytes, 5 tensors)

fcs1.weight f4 [256, 24]
00000000: 8a50 4c3b c16e 50bb b1da f23c 9528 24bd
00000010: 5746 c0bd e8a4 24bd b576 94bc 9f6b e13c
00000020: 9430 c1bc ef44 36bb dd3a 5ebd 9d1f 0a3d
00000030: 41ca 1b3d 349f c8ba 57b6 3a3d a9e1 2b3d
00000040: 5a7c e6bc 39bc 89bd 7624 473d 7429 0d3c
00000050: 5427 553d e109 6f3d 9c5a 3fbd 44b6 133d
00000060: e6ee 8e3d e163 2c3d 631b a6bc 0f53 6b3c
00000070: 9b34 73bd 0445 f5bd 3de5 c73c 307b e1bb
00000080: 4495 7fbb 2cd2 523d 4536 aa3c 5e63 063e
00000090: 4c16 17bd 6c3d 9fbd cf20 7abc fc48 043e
000000a0: 2018 3d3d d16a 7c3d 95ac 1abd f3f3 3dbe
000000b0: 5557 3b3d ce4f 90bd 1983 983b ff5e 21be
000000c0: fc22 4b3c 6e76 34be a9c8 1dbc 2096 87bc
000000d0: 3384 e0bd d811 e8bd c747 3f3c fdb2 4dbb
000000e0: 3b0f 8c3b bdec 0ebe 28e7 95ba 76bb 1dbd
000000f0: 46f7 8ebc 59bb 2dbe f750 583c 08ce 1b3d
00000100: 72ce e43c 0fe0 2fbe b0cd 083d 3407 863d
00000110: 65bb 523d a8a9 a23c aace d3bc 200e 8b3d
00000120: 8643 cf3c 327b a4bd 32f8 b5bb 4618 45bc
00000130: f4b9 6dbd a965 b53d 762d b53b 3617 063c
00000140: e57e 74bc 6b94 15bc 2711 08bd ed82 163d
00000150: 1098 e5bc dc19 b73b 02db fb3c 47ac 27bd
00000160: 5c62 82bd da7c d23c 8194 8abb 750c b6bb
00000170: 1fb5 0b3e aeb1 17be ecf8 303c 7af3 60bc
00000180: 8b65 c43c 2b01 87bd 4194 d5bc 1d1b 0f3d
00000190: 4b5c 703d 32ab 143d 82d0 0d3d 6343 29bc
000001a0: 6f14 6ebd c8f0 b83c 5ba0 e3ba 5289 acbd
000001b0: d844 fb3d 5b5c dcba 5eef c0bc ee2c 503c
000001c0: 7b81 063d 4d26 bebb e979 3dbc 430b b43a
000001d0: f066 cdbd 0b4e 9abd 721a f43c 14f4 27bd
000001e0: fa6c 883d 6fc3 66bc d0d0 aa3c 80d6 4c3c
000001f0: 5736 3d3e 6c34 533d fcbd a3bc 346f ecbc
00000200: 378f ed3c 23d9 dabd b2b6 a83c 400c 433c
00000210: a35b 7f3c 9497 d23d 32a9 87bb 8862 3fbc
00000220: 5790 453b 6894 afbd 46b1 08bb fe1f 033d
00000230: 6fd2 13be 07f5 12bd 04ab 5d3c 34fb 27bd
00000240: a914 583d 7f4b aa3d 9d45 5ebd 5f6d e63a
00000250: 9b27 b2bc db10 fd3d 956a 5fbc 4c5e 623d
00000260: 0314 363d 8e76 d93c 063f eb3c 6e48 8dbc
00000270: 5330 d9bb eda5 413c 6858 58bd e335 83bd
00000280: a187 723d 6b1d 2b3d 64cc edba b697 abba
00000290: a7c6 913d 8fd5 05be 864d 91bb 23d8 233d
000002a0: 52de 03bc 0615 b3bc cbc0 a7bc 85d6 6bbb
000002b0: 286e 85bd c36e 96bd c05c 5b3c b2e7 9b3c
000002c0: 6626 2f3d cf8d b03c aded 13bd 696d f4bc
000002d0: 041a edbd 9c41 90bd 6735 113d 91aa 233d
000002e0: 1e27 77bb b78f a2bd 6e09 09bc 1016 a73c
000002f0: f2cd 23bc 37a9 343e 6220 593c 0944 78bc
00000300: 1efc 643c 5469 4d3d 188d 5abc 6400 b03c
00000310: 9b1b b13c 769b c8bc f9d6 fe3b 100c 35bb
00000320: c147 50bd 9606 aa3d 6e63 1e3d 848c 183d
00000330: 0572 db3c 2f57 7e3d 0c86 38bd 52f8 29bd
00000340: 7054 cdbc 7b6d 443b 14c3 84bb 7318 d73c
00000350: ff93 9dbc 028e a43e 6fca 0cbb f0b7 e83a
00000360: 2413 86bc 345a d53c 813d f6bc 8e34 133c
00000370: dabe bbbd a3ad 3ebd 9045 1b3d 36f1 843a
00000380: fd17 673d f944 cdbc 7e40 213d 6125 0c3b
00000390: ef06 79bd e24a 6ebc e372 ecbc 74e0 08bc
000003a0: b114 3cbd b54c 563d 7dd8 2abd 8ee5 523d
000003b0: f744 883d 2a8e 9f3b 53ea 1f3d 2c3a 7d3c
000003c0: 8200 82bc a452 b9bc 61bd d33b f53d c7bc
000003d0: 4927 553c b087 873e bf8b dabb 8772 cb3c
000003e0: cb6f bbbc 479c 05bd c307 2a3d 6e04 f5bb
000003f0: 4635 4f3d c827 793c efdb 2fbd 0f5d b53b
0.0031175935 -0.0031804296 0.029645296 -0.040077765 -0.09388416 -0.04019633 -0.01812301 0.027517138
-0.023582734 -0.0027812084 -0.054255355 0.033721555 0.03803468 -0.0015306235 0.04558405 0.041963253
-0.028135467 -0.06725354 0.048618756 0.00861584 0.05203946 0.05835903 -0.04671727 0.036062494
0.0697916 0.04208744 -0.02027673 0.014363064 -0.05937634 -0.11976054 0.024401302 -0.00688114
-0.0038998881 0.051469967 0.02077783 0.13123843 -0.0368865 -0.07775387 -0.015266611 0.12918466
0.046165586 0.061625306 -0.037762243 -0.1855009 0.045737583 -0.070464715 0.0046543 -0.15758894
0.012398478 -0.17623302 -0.009630361 -0.016551077 -0.10962715 -0.113315284 0.011674828 -0.0031387203
0.0042742766 -0.13957496 -0.0011436688 -0.038508855 -0.017451894 -0.16965999 0.013202897 0.038038284
0.027930472 -0.17175315 0.033399284 0.06544343 0.051448245 0.019856289 -0.025855381 0.067898035
0.025300752 -0.0803131 -0.005553269 -0.012029713 -0.058038667 0.08857281 0.005529101 0.008184245
-0.014922832 -0.009129624 -0.033219483 0.036745954 -0.02802661 0.0055877995 0.03074408 -0.04093578
-0.06366417 0.0256943 -0.004229129 -0.005555684 0.13643311 -0.14813873 0.010801535 -0.013729924
0.0239742 -0.0659202 -0.02607167 0.034937967 0.058681767 0.036296077 0.034622677 -0.010331008
-0.058124956 0.022575751 -0.0017366515 -0.08424629 0.1226899 -0.0016812192 -0.02355164 0.012706025
0.032838326 -0.0058029057 -0.01156471 0.0013736266 -0.100293994 -0.07534417 0.029797766 -0.041004255
0.06661411 -0.014084681 0.020851523 0.012502313 0.1847776 0.051563665 -0.019988053 -0.02886162
0.028998954 -0.10685947 0.020594928 0.011904776 0.015585813 0.102828175 -0.0041400427 -0.0116812065
0.0030145848 -0.08573228 -0.0020857616 0.032012932 -0.14435743 -0.035878208 0.013529543 -0.04101105
0.052754078 0.08315181 -0.054265607 0.0017580203 -0.021747401 0.123567306 -0.013636251 0.05526571
0.04445268 0.02654579 0.028716575 -0.017246451 -0.006628075 0.011819345 -0.052818686 -0.064067625
0.059211377 0.041776102 -0.0018142578 -0.0013091478 0.07117968 -0.13069747 -0.0044342903 0.040001046
-0.008048611 -0.02186061 -0.020477673 -0.0035986018 -0.06515151 -0.07345345 0.013388813 0.01903138
0.04276123 0.021551995 -0.036115337 -0.029837327 -0.11577228 -0.07043764 0.03545132 0.039957587
-0.0037712525 -0.07937568 -0.008364065 0.020396262 -0.009997832 0.17642675 0.01325235 -0.01515294
0.013976125 0.050149277 -0.013339303 0.021484561 0.021619609 -0.024488192 0.0077770916 -0.0027625598
-0.05084968 0.083020374 0.038669042 0.03724338 0.026787767 0.062094864 -0.045049712 -0.041496582
-0.025064677 0.0029972482 -0.0040515754 0.026256775 -0.01923561 0.32139593 -0.0021482965 0.0017755013
-0.016366549 0.026043989 -0.030058624 0.008984698 -0.091672614 -0.04655231 0.037908137 0.0010142687
0.05641936 -0.025057303 0.039368145 0.0021384584 -0.060797628 -0.014544221 -0.028863376 -0.008354295
-0.04591817 0.052319247 -0.041710366 0.05148845 0.06653779 0.004869242 0.03904183 0.015455764
-0.015869383 -0.022622414 0.0064617847 -0.024321536 0.013009855 0.2647071 -0.006669491 0.024834884
-0.022880455 -0.03261974 0.04151131 -0.0074773347 0.050587915 0.0152072385 -0.042934354 0.005534775

fcs1.bias f4 [256]
00000000: a088 9ebc b160 113e 9d29 1a3e 30e8 023e
00000010: 0dac 103d 2efd 46be 4ca8 2ebe 91d1 5fbe
00000020: 12ab c5be e292 24be e457 903e 275c 53bd
00000030: 52b6 013e 927e ccbe 2644 073d 71d4 8f3e
00000040: eb00 36bc 6a77 34bc ea3e 3fbe 8c7d eabb
00000050: a2f2 c33d 8cdd 0ebe 5922 e7bd d4f3 9bbe
00000060: 612c e0bc 34f2 5fbe 03a8 afbd bbe9 b8bd
00000070: 8907 8abe 1277 08be e6cc 11be 4867 1fbe
00000080: f016 9e3c 8241 e63d 6a58 3cbe f7d6 d43d
00000090: 285f f9bd 03fb 443e c60f 00be 1b9b dc3d
000000a0: 4d2b 57be be71 2abe b11c 443d 1bd1 4dbe
000000b0: af9d 2fbe fa30 50be 666d 03bd 8c60 5ebe
000000c0: db1f 813e 1169 973d c561 debd 2b4c fa3d
000000d0: 92a5 bbbd fb50 80be b7b8 6c3d 2497 a9bd
000000e0: 46ee ec3d 3fd5 b8bd bd61 1ebe 0d92 843e
000000f0: ec78 8dbd 5658 4e3d 4361 223d c386 7cbe
00000100: 9815 093c 1c75 dfbd ab2c 1abd 33e2 ed3d
00000110: 77d5 91be 9e38 14be e112 02be 84f4 84be
00000120: c654 95be 06c1 8abd 3fe2 9ebd 220d 8b3e
00000130: 466e f23d feee 5e3e 1f66 623d 0058 023e
00000140: 11ee ebbd d71a 27be 6f31 24be a229 abbd
00000150: 523b 903e 5f24 9cbe 5055 17be 5690 f33c
00000160: 9071 e6bc 5129 863d 7818 393d b898 abbd
00000170: b54a cbbd f7c7 1b3e 57a4 7abe 043a 44be
00000180: 0f6d 3e3e 9305 07bc ffe4 ce3d b59d 42bd
00000190: 72d0 d33d b469 d33d 9199 c1bd a3da e33d
000001a0: a1cc f33a 295c 183e 6a42 c53d 2025 01bd
000001b0: fe94 0b3e 9880 91bc a2b5 273c 5b17 99be
000001c0: bf7e 373d a70e 05be 6f59 55bb daa0 b43d
000001d0: ef66 863e 1c73 b5be 192f 4bbe f765 933e
000001e0: 6a65 09be a703 273d 9029 e73d 4352 013e
000001f0: 9571 b03d 607d 22bd 0030 333d 3f4e 9fbd
00000200: d9be 6d3b eb7e 7cbe 700c 86be 8dd0 8e3e
00000210: 82a2 a1be b7ac be3d 03c9 953e bf57 783e
00000220: e123 e73d 8d64 25bc c836 d1bd fb1a ef3c
00000230: 493a 94bc b83b 1bbe a504 5b3e 4c57 053d
00000240: 25dd 4a3e b86c 1abe f087 2ebc 130f 38be
00000250: 2a50 753b 5cd8 243d 2e4f 963b 52ae 5f3e
00000260: 11bb 7c3d d2e2 a2bd f119 e63d 3453 c8bd
00000270: 009d 9b3e 2f5e 0ebd 8d88 083b bb99 a83e
00000280: 993c 88be 007e 8fbd 6db8 99bc 0fe6 2fbd
00000290: 43d7 d5bc c5e9 a23d ca6f ebbc 62dc 1dbd
000002a0: 844b f83d b7a9 5e3d 1334 a33c 77ee 01be
000002b0: 825f 70be 5f9c 3cbe 034e 72be 10a5 0fbe
000002c0: 6bde 893c 9081 893e fe58 17be 6c89 db3d
000002d0: fa64 eebd 818f 613e a348 413d 8ab9 013e
000002e0: 99ea 9b3e 1ee9 a2bd 6587 1cbe 3046 50bd
000002f0: e829 f3bb aa47 a33e 2eb2 d03d 718f 143e
00000300: 5b5b 4d3d c940 4bbe 1e8f a93e dd37 11be
00000310: 92aa f4bd 7e71 3b3e 48fd 783e 6434 c7ba
00000320: 6d8e 0c3d 60dd a1be 6777 0d3e b805 18be
00000330: 56ea 873e 52ca 823e a710 75bc 85f7 3e3e
00000340: 9122 a8bd dcf7 87be 8bbb 5e3c 77a8 94bd
00000350: 8763 523d d301 3bbd 2e5b c0bd 55c6 ebbd
00000360: 673a 833e ff1b cd3d ce91 8a3c 8307 01be
00000370: e8ee 4cbd 2f19 f13d cf36 673e 276c a7bc
00000380: 8a98 8f3d abee 83be a324 3a3d 0177 72be
00000390: 93f6 28be 66f5 7ebe b161 063e 1a2d 1c3e
000003a0: 9094 ac3c 9a8f d7bd bf9e 9a3d 5770 103e
000003b0: ac38 a0bc 9fe9 593e 3f55 df3d f656 f13d
000003c0: 351b e1bd 13e7 4cbe 3419 ec3d de98 d6bc
000003d0: 4695 f2bd 7b88 a23e d492 1bbd f082 81be
000003e0: 0487 a7bd 7d11 5cbd 55b0 47be a12c 81be
000003f0: d5dd a43e 4637 8f3e ba71 57be 6f14 1d3e
-0.019352257 0.14197041 0.15054937 0.12783885 0.03532033 -0.19432518 -0.17056388 -0.21857287
-0.3860708 -0.16071656 0.28192055 -0.051601555 0.12667206 -0.39940315 0.033023976 0.28091767
-0.011108617 -0.011014799 -0.18676344 -0.0071560796 0.09567763 -0.13951701 -0.11285848 -0.30459464
-0.027364912 -0.21869737 -0.085769676 -0.090289555 -0.26958874 -0.13326672 -0.14238319 -0.15566742
0.019298047 0.112429634 -0.18393102 0.10392564 -0.12176353 0.19236378 -0.12506017 0.107717715
-0.21012612 -0.16644952 0.047878925 -0.20099299 -0.17149995 -0.20331183 -0.032086752 -0.21716517
0.25219616 0.07393087 -0.10858492 0.12221559 -0.091624394 -0.25061783 0.057793345 -0.08280781
0.115688846 -0.090250485 -0.15466972 0.25892678 -0.0690783 0.050377212 0.039643537 -0.24660783
0.008366965 -0.10911009 -0.037640255 0.1161541 -0.28483173 -0.14474723 -0.12702514 -0.259678
-0.2916624 -0.067750975 -0.07757997 0.27158457 0.11837439 0.21770856 0.05527317 0.12728882
-0.11520017 -0.16318832 -0.16034482 -0.0835755 0.28170258 -0.304965 -0.14778638 0.02973191
-0.028130323 0.06550849 0.04518935 -0.08378738 -0.099263586 0.15213 -0.24476753 -0.19162756
0.1859629 -0.008241075 0.10102271 -0.047513682 0.10342492 0.10322896 -0.094531186 0.11125686
0.0018600413 0.14878906 0.09631808 -0.031529546 0.13631055 -0.017761514 0.010236176 -0.2990063
0.04479861 -0.1299387 -0.0032554527 0.088197425 0.26250407 -0.35439384 -0.19842185 0.2878873
-0.13417593 0.040774968 0.11287224 0.12629037 0.08615414 -0.03967035 0.04374695 -0.07778596
0.0036277084 -0.2465779 -0.26181364 0.27893487 -0.31569296 0.093102865 0.29254922 0.24252222
0.1128614 -0.010094774 -0.10215527 0.02918767 -0.018094199 -0.151595 0.2138849 0.032553956
0.19810922 -0.15080535 -0.010652527 -0.179745 0.0037431815 0.0402454 0.0045870757 0.21843842
0.061701838 -0.07953419 0.11235417 -0.09781495 0.3039322 -0.03475779 0.0020833344 0.32929787
-0.26608732 -0.070064545 -0.018764699 -0.04294401 -0.026103621 0.07954744 -0.028739829 -0.03854025
0.121237785 0.05436107 0.019922292 -0.12688623 -0.23473933 -0.18419026 -0.23662572 -0.1402781
0.01682969 0.2685666 -0.14780042 0.107195705 -0.116403535 0.22027399 0.047188412 0.12668434
0.3045242 -0.0795462 -0.15286024 -0.050848186 -0.007420767 0.31890613 0.10190235 0.14507844
0.05013595 -0.19848932 0.33117002 -0.14181466 -0.11946596 0.18305013 0.24315369 -0.0015198109
0.034315515 -0.31614208 0.1381508 -0.14845932 0.26545972 0.25544983 -0.0149575835 0.18649109
-0.08209718 -0.2655629 0.013594518 -0.072586946 0.051364448 -0.045656037 -0.09392391 -0.11512438
0.25630495 0.100151055 0.016915228 -0.12600522 -0.050032526 0.117723815 0.22579502 -0.020437313
0.070115164 -0.25768027 0.045445096 -0.23678209 -0.1650031 -0.248983 0.13123204 0.1525158
0.021066934 -0.10525437 0.0754981 0.14105354 -0.019558273 0.21280526 0.10904931 0.117841646
-0.109915175 -0.20010023 0.115282446 -0.02619594 -0.11844878 0.3174475 -0.037981823 -0.2529521
-0.08180049 -0.053727616 -0.19500859 -0.25229362 0.32200494 0.27971858 -0.21039477 0.15339826

fc2.weight f4 [128, 258]
00000000: 0351 17be 718b 83bd 1dec 323d 338e ebbd
00000010: 8428 9d3d a1a8 91bd 30a3 093e 4292 e13d
00000020: 1da5 19be b3f8 e9bc c3ad 083d e421 97bd
00000030: bee5 b2bd e921 76bc 7e64 5bbb d12e 2f3d
00000040: 08a8 21bd d6ae 4c3c 9cd8 193c 1ed2 8dbc
00000050: ba91 1e3c 901f 673c 7eec 443d cf75 f7bd
00000060: a011 c2bd 19ee 90bd be33 b8bc b51a b93c
00000070: 0286 e03d 64c9 243c 574a 1f3d 3840 1abd
00000080: 2fa8 fd3c 4f65 263d d289 1abe 1294 8b3c
00000090: a7c4 4ebc 1f1c cd3c 2739 02be 14b0 8cbd
000000a0: 5b23 9dbc 9cc5 a7bb 4880 15bd bacf f9bd
000000b0: 1431 96bc fbe9 23be 9ac1 8fbd ffc4 cfbd
000000c0: 06aa a0bd 0b76 a83d 4e40 63bd 086f b63d
000000d0: aee0 6d3d 262b 39bc 759d 023c 5166 3a3d
000000e0: a4d0 6bbd 3858 343c 0d6b 8cbb 8a1d 1d3d
000000f0: d9a4 44bd 4911 723d 1bad 3abd 0387 c1bd
00000100: a392 23bd be7a 88bd 3923 cdbd bc28 54bd
00000110: 6ffc 4bbd 386b c0bd 779e dbbc 4421 913d
00000120: a89d 32bd 7840 863d f5b7 3dbd 130b b8bd
00000130: 744e 123c a36e c23c 3c84 26bc 58a9 1cbe
00000140: df38 be3d 9407 f6bd 11a2 053e 7143 45bc
00000150: b9a9 48bc dcf5 d23d 93e1 e93d 4236 9d3d
00000160: 77e4 19be c865 693d b55e ad3d 3ced 38be
00000170: 7946 94bd e4d0 3bbc 54f3 2b3d cd82 75bd
00000180: 7e0e c63d 42b6 64bd d774 433b 4c02 d1bd
00000190: 4838 833c f672 a0bd e09d 56bd 1206 a9bd
000001a0: d630 7dbc 1e81 9fbd 5ea8 7bbd da08 cebd
000001b0: 07e6 44bd 33a8 b33d e500 92bc 1f35 2fbd
000001c0: 249d 7bbd 3865 1fbd d78f f4bd f2a6 a33a
000001d0: 4be6 bebd e6ce 643d 62d7 c13c 4047 af3d
000001e0: 6a7b 2dbd bb9a 903c 807f 16bd ba48 36bd
000001f0: 9858 a7bc ea40 b23a dabd fabd 1c5c 2abc
00000200: 2527 6bbd 23fb 00bd 4dbd 15bd 419a 62bd
00000210: 22dc 19bb acc2 963a 27e9 ae3c 0ca5 83bd
00000220: 9254 a63d d408 d3bd e664 9f3d bf00 383d
00000230: a58b 8fbd 6e3f 02bd 2082 c03b 88ae 81bd
00000240: 7cd3 6fbc 6ce1 19be 67f6 08bd 1740 9cbd
00000250: da67 083d c419 b7bd 7400 043b ff5b be3d
00000260: eecd 06bd ef1e 5cbc 26fe 96bd 3c4f acbd
00000270: 20fe 863d 93db a13d 8919 ecbb b51c 4a3c
00000280: 01f6 fbbb 563c 643d 9fbe f63b c5bb 35bd
00000290: ce78 31bd afd3 d13b 0898 22bd 29f6 db3b
000002a0: 36b2 143d 8b6d 76bc e06d 81bd 468e 55bd
000002b0: 26f2 38bb f2fa bf3b 34a9 20be e2a7 6e3c
000002c0: ea2a ed3c ed04 3c3d 0256 d43d 5102 cbbd
000002d0: a6b6 cb3c ba52 0fbe 726d 81bd 2790 27bd
000002e0: 191b 90bd 3747 a2bd 8662 463d 6ec8 bbbc
000002f0: 231f 7cbc ac66 28bd edef a9bb 4c47 05be
00000300: 587c ddbd 62d3 0e3d 3c64 f8bc b6b3 b53c
00000310: c610 323d 015a 813d 72ad e33d 4462 b2bd
00000320: b566 9b3d 1167 94bd 91a2 aabb edf9 6abd
00000330: acf6 10be 22fb 96bd d358 d23d eb7a f7bc
00000340: 0f98 dc3a 0f84 723b 5193 b3bd 00ce 93bc
00000350: 285b 0d3c 646f 02bc 6607 a0bc b66c 3b3d
00000360: 6f3c ac3c cafa 4ebe d697 103d e1b8 7a3d
00000370: df90 e0ba 7c10 13be 9284 593d 7369 86bd
00000380: 3912 54be 6266 d6bd 4f1f 4cbd 5483 12bd
00000390: 54ce 13be 43ee c4bd 7f1b 69bd 65a0 aabc
000003a0: e058 c63c a48b 04be 6c91 bf3b 097c b73d
000003b0: 1633 16be 18a8 94bd 8eab edbc 6ead 933d
000003c0: a575 8bbc 6312 05bc 5039 10bc a241 0cbe
000003d0: d5bf c63d 049d 12be 3899 52bd e040 c53d
000003e0: afd2 b8bd a30d 16bd 869c 083d 25ac a4bd
000003f0: 59b6 72bd 6fa6 493d 8695 693d 5f8b 91bc
-0.14776997 -0.06423081 0.043682206 -0.11501732 0.07673743 -0.071122415 0.13441157 0.110142246
-0.15004392 -0.028560972 0.033368837 -0.07379511 -0.08735226 -0.015022733 -0.0033476646 0.042769257
-0.039466888 0.012492856 0.009390023 -0.017312106 0.009678299 0.014106646 0.0480771 -0.12083017
-0.09476018 -0.070766635 -0.02248561 0.022595743 0.1096306 0.010057781 0.038889255 -0.0376589
0.030963985 0.04062396 -0.15091637 0.017038379 -0.012620128 0.025037823 -0.12717114 -0.06869522
-0.019181898 -0.0051199924 -0.03649929 -0.12197824 -0.01833395 -0.16007225 -0.070193484 -0.10144996
-0.078449294 0.0822564 -0.055481248 0.08907896 0.0580756 -0.011301791 0.007972111 0.045507733
-0.057572022 0.011007361 -0.0042852224 0.03835825 -0.048008773 0.059098516 -0.045575242 -0.094495796
-0.039934766 -0.06664036 -0.10016484 -0.05179666 -0.049801286 -0.0939545 -0.02680896 0.07086423
-0.043607384 0.06555265 -0.046318013 -0.08986487 0.0089298375 0.023734396 -0.010163363 -0.15298975
0.09288191 -0.12013164 0.13050105 -0.012040005 -0.012247496 0.103008 0.11419978 0.076763645
-0.15028559 0.05698183 0.084653296 -0.18059248 -0.07240004 -0.011463378 0.041980103 -0.059939194
0.09670733 -0.055837877 0.002982428 -0.10205516 0.016018048 -0.07834427 -0.052396655 -0.08253111
-0.015453538 -0.07788299 -0.061439864 -0.10060282 -0.048070934 0.08772316 -0.017822692 -0.04277527
-0.061429158 -0.03891489 -0.11941498 0.0012485667 -0.09321269 0.055861376 0.023662273 0.08558512
-0.042354025 0.017651906 -0.036742687 -0.04450295 -0.020427987 0.0013599668 -0.122432426 -0.010397937
-0.057410378 -0.031489503 -0.036557484 -0.05532289 -0.0023477157 0.0011502109 0.02135141 -0.064279646
0.08121599 -0.10304418 0.07782917 0.044922587 -0.07009057 -0.031798773 0.005874887 -0.06332117
-0.014637824 -0.15027398 -0.033438113 -0.07629412 0.033302166 -0.08940461 0.0020141872 0.092948906
-0.032911234 -0.0134351095 -0.07372694 -0.0841355 0.06591439 0.079032086 -0.0072051925 0.012335946
-0.007689238 0.055721603 0.007530048 -0.044368524 -0.0433281 0.0064034085 -0.03969577 0.006712694
0.036302768 -0.0150407655 -0.06319785 -0.052137636 -0.0028220504 0.0058587724 -0.15689546 0.014566394
0.028951127 0.045903135 0.10367967 -0.09912551 0.024867367 -0.13996401 -0.06319703 -0.04090896
-0.070364185 -0.079237394 0.048433803 -0.02292272 -0.015388283 -0.04111354 -0.005186072 -0.13015479
-0.10814732 0.03486956 -0.030321233 0.02218042 0.043473028 0.06315995 0.111170664 -0.08710149
0.07587949 -0.07246221 -0.0052073677 -0.057367254 -0.14156598 -0.073721185 0.10270848 -0.030209979
0.0016829985 0.0037004983 -0.08768333 -0.018042564 0.00862769 -0.007961128 -0.019534778 0.04575797
0.02102491 -0.20212856 0.035301052 0.06121147 -0.0017133019 -0.14361757 0.053104945 -0.065630816
-0.20710076 -0.10468747 -0.049834546 -0.035769776 -0.14434177 -0.09615757 -0.056910988 -0.020828435
0.0242123 -0.12943894 0.005846193 0.08959205 -0.14667925 -0.07258624 -0.029012468 0.072108135
-0.01702387 -0.0081220595 -0.008802727 -0.13696912 0.09704558 -0.14317709 -0.051415652 0.096315145
-0.0902456 -0.0366341 0.033352397 -0.080406465 -0.05925593 0.04923099 0.057027362 -0.017766653

fc2.bias f4 [128]
00000000: 823d b23b 3d67 4f3d f667 06be a87a 89bd
00000010: 4359 103d fdcd 14bd 55c3 d5bc 8284 563d
00000020: 1881 0d3d 67ba efbd 768f dc3c 5e65 7ebd
00000030: 7735 623e 9d88 cebd d45b acbd 5a93 b7bd
00000040: be99 3fbc 7cef 3dbd 36bf 2d3c 779e 57bd
00000050: e2fa 0c3c d051 ea3c cb2b ecbc af16 073e
00000060: 5a54 183d 04e7 f9bd c286 493d e8d0 7b3d
00000070: e3c0 a43b 2a5f 283e 6b4c 19bd 21c0 343c
00000080: 5d49 3bbc 77af 223e 3fcb d1b7 4fc7 b73d
00000090: 6f7e ae3b da82 3b3e 7329 3a3d da45 843b
000000a0: 06ae 83bd d670 d6bd 9975 37bd 3637 4d3d
000000b0: 10eb e9bd 4fcd fdbd f565 3fbd 1992 9b3d
000000c0: 2714 a53d 2770 aa3c d2a2 4dbb 492c dd3d
000000d0: c44c cabd 6f0b e4ba b8ff 453c a9dc 69bd
000000e0: fa0b 9f3d 0331 353d 7d3d dc3d 330c 893c
000000f0: c96b 2ebd 6f35 a6bc 3834 ff3d 01cf e63d
00000100: 1943 ed3d 5242 4dbc a1a2 0ebe 6206 8b3c
00000110: a286 90bc 1133 213c 557f 62bd 8e5d 1e3c
00000120: 7db3 c2bc 6e44 3bbd 591e 183d 3bde 06bd
00000130: c096 9bbd 03ce 153e 12bf 46bd 16d4 073d
00000140: 5968 8dbd 2446 2bbd 9231 45bd cb47 9cbc
00000150: cb49 343d ae75 d0bc 6b3e 69bd 4240 27bd
00000160: eaa6 b03d b4be 283c d048 143d 2075 40bd
00000170: 6bb5 093d fb69 443d a81b 6f3b 2dab 36bd
00000180: ac27 36bd f106 b3bd 3294 173d 50bd 143c
00000190: c4e4 21be 755a bb3c 8a8a 033e b0ce 473d
000001a0: b747 5d3e 89e2 a7bd 6652 833d 3dd4 9c3c
000001b0: a18f c43d dd3a 633d 6d50 263d 87a6 83bd
000001c0: 21b2 023d ace7 2d3d 13ba acbd 4d1d e0bc
000001d0: 67bb 483d 9eba 923c 538b bc3d 8eef 363d
000001e0: c621 ddbd 82d8 cf3c 3977 023d d26e 593d
000001f0: 0351 e73d b311 47bd 6458 0ebd dacf b93d
0.005439461 0.050635565 -0.13125595 -0.06712848 0.035241377 -0.03632926 -0.026094118 0.052372463
0.03454694 -0.11705475 0.026923876 -0.06210839 0.22090708 -0.10084651 -0.08415952 -0.08963652
-0.01169437 -0.04637097 0.01060467 -0.05264136 0.008604737 0.028603464 -0.028829476 0.13192247
0.03718982 -0.12202266 0.04920078 0.061478525 0.0050278767 0.16442552 -0.037426393 0.011032135
-0.011431065 0.15887247 -2.5009385e-05 0.08973562 0.0053251307 0.18311635 0.045449685 0.0040366473
-0.06429677 -0.104707405 -0.044789884 0.05010148 -0.11421788 -0.12392675 -0.046728093 0.07596225
0.080604844 0.020805432 -0.0031377566 0.10799462 -0.09877923 -0.0017398427 0.012084894 -0.057095204
0.07765956 0.044236194 0.107539155 0.01672945 -0.04258326 -0.020289151 0.12461132 0.112699516
0.115850635 -0.012528019 -0.13929226 0.016970817 -0.017642323 0.009838835 -0.055297215 0.00966586
-0.023767227 -0.045719557 0.037138317 -0.03292678 -0.07597113 0.14629368 -0.048522063 0.033161245
-0.06904668 -0.04181494 -0.048142977 -0.019077202 0.044015687 -0.025446739 -0.056944292 -0.040832765
0.08625586 0.010299373 0.036202252 -0.0469867 0.03362028 0.047952633 0.003648499 -0.04459684
-0.044471428 -0.08741558 0.037006564 0.009078339 -0.15809923 0.022870282 0.12845817 0.048781097
0.21609388 -0.08197505 0.06412201 0.019144172 0.095977075 0.05547606 0.040604044 -0.06428247
0.03190816 0.042457268 -0.08433928 -0.027357722 0.049006846 0.017911252 0.092062615 0.04466205
-0.107974574 0.025371794 0.03185198 0.053084202 0.11294749 -0.048600864 -0.034752265 0.09072848

fc3.weight f4 [1, 128]
00000000: 9326 1e3d 0a73 9ebc 701a 1ebd 65d3 e03c
00000010: b705 98bc 7e1a 9cbe 535c 1cbe ae26 493c
00000020: ba68 6cbc c0d3 6e3c 6ee1 f8bc bbbb c4bc
00000030: 91c6 d1bb eede 10bd e602 11bd 3598 30bd
00000040: 49b0 6c3d 40e6 90bd 5be5 b2bc de9a fabc
00000050: c5c5 1cbd 254b b63c 6745 d2bd 7411 13bc
00000060: b8e5 aebd 5af1 97bc 6533 8fbc 5fa1 dfbd
00000070: 0d4d f1bc a129 d6bc aae0 11be e0a5 b5bc
00000080: 1f52 01be 4a57 09bc ab69 2a3c 4e98 283c
00000090: 5d6e b6bd 1fe8 d2bb ea67 21bd 4a0a 83bc
000000a0: 326f ed3c b20a 64bd d406 493c 0c85 35bd
000000b0: 83af 1dbd 8d25 06bd 2b66 acbd 35ef f7bb
000000c0: 7f64 de3c 207d 88bc 8a3a b7bd ce71 b0bc
000000d0: d0d8 02bd 8e9e f0bc aaec 86bd d5f4 85bd
000000e0: a460 77bd db4f 98bc 591c ddbc 40f9 d2bc
000000f0: 4707 97bc ea1d 3bbe 68e7 a6bb 3576 09bd
00000100: bca7 f6bb 7dbc 2f3c d484 12bd 026c 1ebe
00000110: 1d9c f3bc afe6 323c 6a31 63bd efdc 1fbd
00000120: e181 dbbd 3b30 603c b105 e8bc 03a2 c6bc
00000130: 6c37 14bd cd26 cfbc 6afd 79be 10db b53c
00000140: 15a0 f7bc 1d98 23be 11dd 0dbd 7728 b4bd
00000150: 350f 88bd 94c5 14bd 998d 42bd eb14 c0bc
00000160: 3f97 30bd 0493 343c 99ec 26bd 07e5 963d
00000170: c52f 1ebc a110 923c aea4 09be 4bac 74be
00000180: 2894 77bc 5c48 733c de7f 9abc 831f b7bd
00000190: 05c0 28bd 19a2 e0bc 840d 6ebc 58d1 6bbc
000001a0: dd58 eebb 69be 3bbe f4d6 c43d 0dfa a3bd
000001b0: a516 d4bc d8a2 643d 10b9 aebc b784 7dbd
000001c0: 73a0 03be 5f16 e3bc 66e4 1dbd 7992 9c3c
000001d0: 9e75 44bd 9a48 00bc cf52 12bd f5cc cbbc
000001e0: 4515 31bd 3b9b 973c a8b9 2f3c 9cf0 5cbc
000001f0: f85e 71bc 81e0 fdbc 8564 c73c 4fda a2bd
0.038611006 -0.019341964 -0.03859943 0.02744455 -0.018557413 -0.30488962 -0.15269594 0.012277288
-0.014429266 0.014576852 -0.03038093 -0.024015298 -0.006401845 -0.035368852 -0.035403155 -0.043113906
0.057785306 -0.07075167 -0.02183788 -0.030591425 -0.038274545 0.022252629 -0.10267144 -0.008976329
-0.08539909 -0.018547703 -0.017480562 -0.10919451 -0.029455686 -0.026142897 -0.14245859 -0.022173822
-0.12628983 -0.008382628 0.01040117 0.0102902185 -0.08907769 -0.0064363624 -0.03940574 -0.015996117
0.028983686 -0.055674262 0.012269694 -0.044316337 -0.03849746 -0.032750655 -0.084179245 -0.0075663575
0.02714753 -0.016661227 -0.08946712 -0.021538641 -0.03194505 -0.02937248 -0.06588109 -0.06540839
-0.060394898 -0.018592766 -0.026991056 -0.025753617 -0.018436087 -0.1827313 -0.0050935037 -0.033559997
-0.0075273197 0.010726091 -0.035771206 -0.15470889 -0.029737527 0.010919257 -0.055467047 -0.039029058
-0.10718132 0.013683374 -0.028323026 -0.024247175 -0.036185667 -0.025287056 -0.24413076 0.022199184
-0.0302277 -0.15975995 -0.034634653 -0.087967806 -0.066435255 -0.036321238 -0.04749832 -0.023447474
-0.04311299 0.011021379 -0.04075298 0.07367902 -0.009654944 0.017830195 -0.13441727 -0.2389385
-0.015111007 0.014848795 -0.0188598 -0.08941557 -0.04119875 -0.027421044 -0.01452959 -0.014393173
-0.007273777 -0.18334354 0.096113116 -0.08006678 -0.025889704 0.055819362 -0.021328479 -0.061894145
-0.12854175 -0.027720628 -0.038547896 0.019112812 -0.04796373 -0.00782981 -0.035723504 -0.024878005
-0.043233175 0.018506637 0.010725416 -0.0134851 -0.014732115 -0.03099084 0.024339924 -0.07951795
