ddpg-tennis/checkpoint_critic.pth (torch_old, 159678 bytes, 5 tensors)

fcs1.weight f4 [256, 24]
0.013142261 -0.0069201463 0.023742946 -0.051005762 -0.10044578 -0.05162176 -0.02402536 0.016589068
-0.012456344 0.0003550204 -0.049712464 0.020453453 0.034104228 -0.012485704 0.05012694 0.028694801
-0.016892428 -0.079500295 0.04390528 -0.00033285684 0.05757964 0.04872409 -0.051430747 0.027113713
0.064988 0.034368437 -0.021245038 -0.002181448 -0.054289486 -0.13624421 0.023432994 -0.023425596
-0.010551608 0.05474294 0.015167593 0.16006486 -0.03087495 -0.11163437 -0.020876868 0.1580111
0.040205475 0.0847043 -0.03256424 -0.18969862 0.061250146 -0.12661192 0.009852457 -0.16178666
0.0055222907 -0.15985413 -0.011651663 -0.0025074854 -0.11208342 -0.09062355 0.009653507 0.010904833
0.00030837415 -0.1315151 -0.0026819904 -0.058829337 -0.0160102 -0.19606037 0.011664638 0.017717652
0.023757 -0.1789364 0.028796028 0.059311584 0.053059503 0.02563531 -0.030458715 0.06176643
0.023275875 -0.081809156 -0.005253906 -0.007979501 -0.061816465 0.09279566 0.005828447 0.012234377
-0.015938748 -0.015911123 -0.034169152 0.043220468 -0.030703442 0.0020497267 0.02979444 -0.0344612
-0.064767614 0.037829712 -0.009496359 -0.0054308684 0.14672942 -0.16609189 0.0055342186 -0.013605122
0.029588066 -0.04817394 -0.025972879 0.044197053 0.06547294 0.016591864 0.034721043 -0.0010719235
-0.052347224 0.033770904 -0.0011324588 -0.068637244 0.12811622 -0.019025765 -0.022947583 0.02831511
0.03978944 0.004542133 -0.013012593 -0.012733718 -0.102378026 -0.09966287 0.028349893 -0.055111654
0.0699251 -0.011448169 0.02268103 0.02557206 0.22133414 0.025807325 -0.018158546 -0.015791873
0.032843027 -0.11157776 0.02201393 0.027112959 0.018579781 0.12085385 -0.002720897 0.0035270115
0.007688933 -0.09770275 -0.00043502232 0.013593745 -0.15099904 -0.021288307 0.015180426 -0.059430446
0.05938816 0.07850394 -0.052034393 -0.015675485 -0.01300794 0.098970056 -0.011404625 0.037831977
0.04996672 0.023875033 0.029117266 -0.033243507 0.00015529053 -0.01636731 -0.05241798 -0.08006499
0.060040355 0.049227983 -0.013724072 -0.0041652774 0.079732314 -0.16299774 -0.016344082 0.03714473
-0.012708313 -0.011235122 -0.01859217 -0.00037853452 -0.06666589 -0.08411106 0.015274387 0.022251427
0.04313238 0.048688255 -0.03532165 -0.031917952 -0.11989465 -0.08042145 0.036245007 0.037876926
-0.008977135 -0.06119963 -0.010265607 0.01776218 -0.0014532628 0.191184 0.011350777 -0.017787019
0.016707622 0.007168281 -0.011414347 0.022643182 0.009956925 -0.0250726 0.009702051 -0.0016039391
-0.04793492 0.05291919 0.034317575 0.03806542 0.022900993 0.047913987 -0.04940118 -0.040674545
-0.025010148 -0.022897799 0.0012076541 0.02101042 -0.022922872 0.3505495 0.0031109017 -0.003470861
-0.017560318 0.06423595 -0.03116986 0.016131464 -0.096775755 -0.055909924 0.03679669 0.008161051
0.059236422 0.0047506373 0.03676998 0.003199803 -0.061571524 -0.012301898 -0.031461474 -0.0072930013
-0.038700256 0.058620386 -0.03946879 0.05004711 0.07273736 -0.0036720298 0.041283403 0.01401386
-0.010742308 -0.022770472 0.007690781 -0.02715447 0.016821258 0.28702727 -0.005440525 0.02200195
-0.021925822 -0.03561531 0.041636597 -0.008376031 0.054458257 0.024416205 -0.042809065 0.0046360553
00000000: a352 573c 65c2 e2bb 9180 c23c 6beb 50bd
00000010: 84b6 cdbd 5771 53bd d5d0 c4bc cce5 873c
00000020: b215 4cbc 0822 ba39 4c9f 4bbd 008e a73c
00000030: e0b0 0b3d d790 4cbc e851 4d3d 5c11 eb3c
00000040: fd61 8abc 0dd1 a2bd 06d6 333d 4a83 aeb9
00000050: a1d8 6b3d e992 473d 0ca9 52bd 941d de3c
00000060: 6e18 853d ebc5 0c3d 130a aebc a0f6 0ebb
00000070: a75e 5ebd 9a83 0bbe 8df6 bf3c 09e7 bfbc
00000080: a7e0 2cbc 223a 603d 7f81 783c 0be8 233e
00000090: 77ed fcbc 90a0 e4bd f705 abbc a9cd 213e
000000a0: 7fae 243d 7379 ad3d 1562 05bd 5b40 42be
000000b0: 6fe1 7a3d 8ea6 01be 336c 213c 67ab 25be
000000c0: 55f4 b43b cdb0 23be 9ee6 3ebc a054 24bb
000000d0: fe8b e5bd d798 b9bd be29 1e3c 2faa 323c
000000e0: 47ad a139 e5ab 06be 55c4 2fbb 08f7 70bd
000000f0: d327 83bc 0dc4 48be 0a1d 3f3c 9c24 913c
00000100: 0a9e c23c 1b3b 37be a6e5 eb3c b4f0 723d
00000110: ec54 593d 2401 d23c 8e84 f9bc ccfe 7c3d
00000120: 0cad be3c 8f8b a7bd f528 acbb 74bc 02bc
00000130: 4333 7dbd a70b be3d 8ffc be3b b272 483c
00000140: fa91 82bc 0b58 82bc f4f4 0bbd f207 313d
00000150: c985 fbbc b554 063b 7813 f43c 3027 0dbd
00000160: e2a4 84bd 54f3 1a3d 9e96 1bbc 6df5 b1bb
00000170: 3d40 163e fe13 2abe 6458 b53b 05e8 5ebc
00000180: ac62 f23c 0a52 45bd 13c5 d4bc f807 353d
00000190: ad16 863d a9eb 873c a737 0e3d c97f 8cba
000001a0: 0b6a 56bd 5c53 0a3d 036f 94ba af91 8cbd
000001b0: e630 033e ecdb 9bbc 92fc bbbc 17f5 e73c
000001c0: 40fa 223d 2cd6 943b c532 55bc 16a1 50bc
000001d0: 92ab d1bd 0c1c ccbd 093e e83c c2bc 61bd
000001e0: e434 8f3d 1a91 3bbc 91cd b93c 7f7c d13c
000001f0: 6ba5 623e e269 d33c 3bc1 94bc f55d 81bc
00000200: 6986 063d e182 e4bd 8f56 b43c ff1b de3c
00000210: a034 983c 3982 f73d 1451 32bb 6f25 673b
00000220: 72f3 fb3b 6118 c8bd b513 e4b9 4db8 5e3c
00000230: 7e9f 1abe d164 aebc 52b7 783c 576d 73bd
00000240: 0041 733d acc6 a03d 0422 55bd e069 80bc
00000250: 411f 55bc d0b0 ca3d 77da 3abc b4f5 1a3d
00000260: e7a9 4c3d 9395 c33c 5587 ee3c 582a 08bd
00000270: 7cd5 2239 bd14 86bc 3cb4 56bd 1df9 a3bd
00000280: e0ec 753d 48a3 493d eeda 60bc e17c 88bb
00000290: b24a a33d e1e8 26be 06e4 85bc 1325 183d
000002a0: 8736 50bc 8413 38bc 9b4e 98bc 0b76 c6b9
000002b0: 2088 88bd 6b42 acbd 6c41 7a3c a048 b63c
000002c0: 94ab 303d 566d 473d 6fad 10bd 66bc 02bd
000002d0: 548b f5bd 00b4 a4bd a575 143d d624 1b3d
000002e0: d514 13bc 77ac 7abd 1431 28bc fe81 913c
000002f0: 687b beba bdc5 433e 9cf8 393c 15b6 91bc
00000300: 6cde 883c e6e3 ea3b 3e03 3bbc 327e b93c
00000310: 5f22 233c 0e65 cdbc 5af5 1e3c 443b d2ba
00000320: 6857 44bd cbc1 583d 9690 0c3d 7cea 1b3d
00000330: dd9a bb3c 7541 443d e458 4abd 5a9a 26bd
00000340: 15e2 ccbc 2a94 bbbc 264a 9e3a 0b1e ac3c
00000350: bfc8 bbbc 397b b33e 45e0 4b3b 6277 63bb
00000360: a8da 8fbc 238e 833d ef57 ffbc 2226 843c
00000370: 5e32 c6bd ce01 65bd 20b8 163d eeb5 053c
00000380: e4a1 723d 3cab 9b3b 1e9c 163d c9b3 513b
00000390: 6c32 7cbd e68d 49bc bfdd 00bd 21fa eebb
000003a0: 2984 1ebd ee1b 703d 07aa 21bd 33fe 4c3d
000003b0: 53f7 943d 70a6 70bb c918 293d 649a 653c
000003c0: 8100 30bc 2489 babc f202 fc3b 0d73 debc
000003d0: bccc 893c 3df5 923e 6e46 b2bb 6f3d b43c
000003e0: c89d b3bc 5ce1 11bd 238b 2a3d 9f3b 09bc
000003f0: 9f0f 5f3d 7e04 c83c 8f58 2fbd 0dea 973b

fcs1.bias f4 [256]
-0.041331824 0.13013646 0.16230726 0.12500891 0.04073785 -0.2136914 -0.1737908 -0.27057564
-0.41208634 -0.17816141 0.28724223 -0.03179653 0.14939517 -0.45855314 0.02815171 0.31121075
-0.020744802 -0.016484851 -0.20202161 0.002172216 0.1052433 -0.16141556 -0.12703928 -0.3455191
-0.028401386 -0.2196411 -0.12770748 -0.11826144 -0.28207028 -0.15414424 -0.1379513 -0.16717288
0.038785465 0.1346058 -0.19746615 0.116575845 -0.12045008 0.18681808 -0.11669405 0.11045043
-0.22449827 -0.17654775 0.0512788 -0.2142843 -0.16950522 -0.19971493 -0.03731479 -0.22569853
0.268218 0.066022016 -0.12312678 0.1057621 -0.097247615 -0.22950944 0.06125739 -0.078066975
0.11523789 -0.10945237 -0.15144894 0.28135127 -0.0952777 0.082515866 0.053986013 -0.24654727
-0.017139008 -0.1322486 -0.03649861 0.09277217 -0.3077667 -0.14060476 -0.14611839 -0.25744185
-0.31733495 -0.08933734 -0.07401578 0.27162075 0.11906438 0.24126244 0.033119466 0.16069593
-0.13629712 -0.20103253 -0.18757363 -0.054128554 0.3269607 -0.32477042 -0.15772492 0.0431204
-0.006245412 0.0580738 0.03059488 -0.1304588 -0.105680555 0.16920057 -0.28391638 -0.20310773
0.2003393 0.020096608 0.085474774 -0.0803246 0.13355298 0.09602541 -0.11028063 0.106588185
0.024990393 0.14231358 0.079880424 -0.045962397 0.13098355 -0.01569883 0.019584756 -0.30730358
0.07681041 -0.10481129 -0.0022954934 0.093447655 0.27777103 -0.38739917 -0.2191594 0.3074863
-0.14461917 0.03521317 0.11468213 0.13635528 0.086597465 -0.053772416 0.03724693 -0.096964926
-0.005671016 -0.25759435 -0.2808548 0.28494534 -0.31714785 0.092625804 0.3066437 0.2567563
0.11985454 -0.028704233 -0.108896986 0.00092452543 -0.008004131 -0.16048683 0.22939976 0.052668687
0.22306512 -0.16418368 -0.0033934044 -0.18818963 -0.004535109 0.0038255558 -0.011534264 0.19985087
0.03717755 -0.067158155 0.112138204 -0.17878859 0.33013144 -0.046821527 0.0036312873 0.33692798
-0.2851631 -0.08614141 -0.037716083 -0.06034555 -0.020946525 0.06657037 -0.020345878 -0.052244034
0.12389358 0.046934284 0.011490592 -0.10350443 -0.22389807 -0.19865784 -0.25170994 -0.14512335
0.007477559 0.29944664 -0.1281312 0.11089816 -0.13394631 0.23542415 0.012405563 0.15171608
0.32013527 -0.10454213 -0.16032186 -0.078567654 0.0725878 0.35585186 0.09997745 0.15500253
0.044125598 -0.20737414 0.35477042 -0.16385892 -0.12564176 0.17823887 0.24137652 -0.0039764587
0.025505107 -0.39138088 0.15059309 -0.16687524 0.2681542 0.2962177 -0.05382097 0.20009747
-0.10231806 -0.29435688 0.015550406 -0.08819215 0.0055370927 -0.04298127 -0.12688757 -0.09818416
0.2810513 0.09101709 0.008801218 -0.15242022 -0.035048068 0.11358959 0.257242 -0.028749244
0.075589165 -0.27880573 0.047451094 -0.25128695 -0.20336385 -0.25652942 0.12533894 0.16933553
0.04093788 -0.08224127 0.0783118 0.14487173 -0.011442881 0.23443812 0.10894591 0.14046365
-0.1225564 -0.22033216 0.12382057 -0.023053743 -0.13958314 0.309262 -0.05074045 -0.25471684
-0.08953739 -0.037254963 -0.21433625 -0.25167897 0.3593795 0.2890519 -0.2110387 0.1550035
00000000: 8f4b 29bd 7e42 053e e033 263e 5602 003e
00000010: bbdc 263d ebd1 5abe 37f6 31be e488 8abe
00000020: fbfc d2be f26f 36be 6a11 933e 143d 02bd
00000030: 0cfb 183e 7ac7 eabe 6a9e e63c 0457 9f3e
00000040: 01f1 a9bc 3d0b 87bc c1de 4ebe bd5b 0e3b
00000050: cd89 d73d 1f4a 25be 9616 02be e1e7 b0be
00000060: 06aa e8bc 99e9 60be c0c5 02be 0e33 f2bd
00000070: 846b 90be fdd7 1dbe 1b43 0dbe 5e2f 2bbe
00000080: 82dd 1e3d 1ad6 093e 9134 4abe 51bf ee3d
00000090: 88ae f6bd 3d4d 3f3e 4afd eebd d633 e23d
000000a0: e0e2 65be efc8 34be b809 523d 586d 5bbe
000000b0: c792 2dbe 1282 4cbe 65d7 18bd 841d 67be
000000c0: df53 893e 8d36 873d e529 fcbd cd99 d83d
000000d0: c229 c7bd 8604 6bbe 07e9 7a3d 94e1 9fbd
000000e0: d801 ec3d 9028 e0bd 6e15 1bbe 460d 903e
000000f0: f420 c3bd 14fe a83d 7020 5d3d e376 7cbe
00000100: 1b67 8cbc 2d6c 07be 917f 15bd 56ff bd3d
00000110: 9993 9dbe b2fa 0fbe 0fa0 15be 6bcf 83be
00000120: ba79 a2be 7ff6 b6bd 9695 97bd e011 8b3e
00000130: 07d8 f33d 800d 773e 47a8 073d 798d 243e
00000140: 7991 0bbe 79db 4dbe 4d13 40be e7b5 5dbd
00000150: 6567 a73e 4f48 a6be a482 21be 049f 303d
00000160: 50a6 ccbb cbde 6d3d 1da2 fa3c fe96 05be
00000170: 0c6f d8bd ea42 2d3e 7d5d 91be 79fb 4fbe
00000180: bf25 4d3e a4a1 a43c 660d af3d 3981 a4bd
00000190: 1dc2 083e f8a8 c43d d0da e1bd e84a da3d
000001a0: a7b8 cc3c a7ba 113e 5998 a33d 1143 3cbd
000001b0: 8d20 063e d59a 80bc 3670 a03c e556 9dbe
000001c0: c74e 9d3d 4da7 d6bd fd6f 16bb 7c61 bf3d
000001d0: 0138 8e3e 2f59 c6be 526b 60be d86e 9d3e
000001e0: 0c17 14be af3b 103d 77de ea3d b8a0 0b3e
000001f0: 035a b13d 7740 5cbd 3d90 183d 8c95 c6bd
00000200: eed3 b9bb 68e3 83be 33cc 8fbe 5be4 913e
00000210: 3461 a2be 99b2 bd3d 6700 9d3e 9075 833e
00000220: 4c76 f53d 2425 ebbc 6205 dfbd da5b 723a
00000230: c223 03bc a956 24be c5e7 6a3e 1fbb 573d
00000240: 2f6b 643e c41f 28be e163 5ebb c8b4 40be
00000250: 409b 94bb 2db6 7a3b 36fa 3cbc b5a5 4c3e
00000260: 7d47 183d 378a 89bd b7a8 e53d 5b14 37be
00000270: fd06 a93e eec7 3fbd e4fa 6d3b d381 ac3e
00000280: e600 92be e86a b0bd 2e7c 1abd e52c 77bd
00000290: 0c98 abbc 0c56 883d 66ac a6bc d7fd 55bd
000002a0: ebbb fd3d 2a3e 403d 0943 3c3c 21fa d3bd
000002b0: 8945 65be f66c 4bbe 20e0 80be 379b 14be
000002c0: 5006 f53b 1251 993e d334 03be 931e e33d
000002d0: 3929 09be 0713 713e b440 4b3c 765b 1b3e
000002e0: c5e8 a33e 2f1a d6bd 6a2b 24be 14e8 a0bd
000002f0: eaa8 943d 3732 b63e fac0 cc3d fcb8 1e3e
00000300: 0bbd 343d e359 54be 78a4 b53e a2ca 27be
00000310: 3ca8 00be 4084 363e 682b 773e f44c 82bb
00000320: 16f0 d03c 1363 c8be 1335 1a3e 58e1 2abe
00000330: 824b 893e d9a9 973e 6173 5cbd 5ae6 4c3e
00000340: 228c d1bd f2b5 96be 21c7 7e3c 169e b4bd
00000350: 8070 b53b 210d 30bd d1ee 01be c714 c9bd
00000360: f5e5 8f3e 2b67 ba3d fc32 103c 0c14 1cbe
00000370: 908e 0fbd a9a1 e83d 39b5 833e 8983 ebbc
00000380: 7ece 9a3d a0bf 8ebe 145c 423d afa8 80be
00000390: 9d3e 50be d357 83be da58 003e 4b66 2d3e
000003a0: 7aae 273d 1c6e a8bd f061 a03d 4159 143e
000003b0: ec7a 3bbc 8c10 703e 091f df3d b4d5 0f3e
000003c0: dafe fabd c19e 61be a495 fd3d 34db bcbc
000003d0: e2ee 0ebe 9757 9e3e 38d5 4fbd 3f6a 82be
000003e0: 615f b7bd a998 18bd f67a 5bbe 11dc 80be
000003f0: 9700 b83e 9cfe 933e 871a 58be 3db9 1e3e

fc2.weight f4 [128, 258]
-0.17519647 -0.07499635 0.040384755 -0.08567444 0.07324005 -0.08291037 0.16851872 0.07732374
-0.1568942 -0.059924956 0.05791425 -0.07379511 -0.08735226 -0.045108296 0.029479316 0.00059933256
-0.0266078 0.017974721 -0.0027658388 -0.0152744865 -0.014842937 0.017628422 0.016594153 -0.12083017
-0.065394975 -0.06753307 -0.042270184 -0.0005471669 0.09268218 0.030442009 0.010340382 -0.051856026
0.047315475 0.007659932 -0.1490339 0.017038379 -0.028291646 0.018200895 -0.176546 -0.07245924
-0.019181898 -0.020190768 -0.04280706 -0.13904615 -0.029845407 -0.15594588 -0.061347138 -0.12504135
-0.072412565 0.0989066 -0.055349883 0.08779718 0.101568766 0.01642579 -0.027545389 0.047063515
-0.030178528 0.017756632 0.01236718 0.07002085 -0.046891097 0.07139085 -0.03942836 -0.103068516
-0.02550888 -0.08359774 -0.10016484 -0.052729703 -0.05161956 -0.08710511 -0.028954988 0.068340495
-0.035650875 0.048600014 -0.035494428 -0.10121736 0.005226543 0.023734396 -0.026362386 -0.16821101
0.082979865 -0.12013164 0.13403192 0.006144317 -0.027750107 0.076871395 0.062422242 0.073383465
-0.13948335 0.05370361 0.08081645 -0.18059248 -0.07586248 -0.002720473 0.024837023 -0.06709786
0.11066722 -0.06762343 0.027337272 -0.10205516 0.038288105 -0.075813256 -0.09287491 -0.08553722
0.0032016106 -0.09658398 -0.07007244 -0.112580955 -0.033481877 0.097252235 -0.017822692 -0.04277527
-0.060353365 -0.03891489 -0.116930075 -0.014655624 -0.11311786 0.048969086 0.022915643 0.09773278
-0.019689329 0.013223562 -0.01627446 -0.047420055 -0.03258615 -0.05085781 -0.1223642 0.0007400362
-0.06387195 -0.03947718 -0.017314551 -0.050787497 -0.0023477157 -0.0018461917 0.048542146 -0.08661643
0.091722585 -0.08073384 0.058967467 0.053974614 -0.06592831 -0.031798773 -0.0021338607 -0.06332117
-0.034531154 -0.16321345 -0.031204991 -0.07629412 0.025005521 -0.13580224 -7.330348e-05 0.10692692
-0.032911234 -0.019412136 -0.058879334 -0.0841355 0.07850426 0.0588601 -0.008346498 0.016250195
-0.018614594 0.042745024 0.015515385 -0.05241589 -0.04953566 0.008176098 -0.040596724 -0.028349904
0.046637308 -0.025816869 -0.04870714 -0.049103048 -0.014098145 0.0111885145 -0.15080248 0.010839065
0.02515962 0.064747274 0.1291085 -0.074792236 0.029633205 -0.13838097 -0.06319703 -0.021464435
-0.07260022 -0.07299895 0.06300548 -0.02292272 -0.030305866 -0.029910948 -0.0012822208 -0.08609759
-0.11208138 0.004263814 -0.03860198 0.022863984 0.057245355 0.06393908 0.08256561 -0.12170508
0.09705015 -0.07246221 -0.0107627 -0.08703365 -0.14156598 -0.10101291 0.08996886 0.0035157034
0.002544162 -0.0051637064 -0.07861833 -0.017691141 -0.007226493 -0.008674655 -0.033937156 0.04575797
0.042146903 -0.19436581 0.045403633 0.049694657 0.021622468 -0.12727733 0.040498078 -0.06539703
-0.21764171 -0.09954912 -0.016915428 -0.020208888 -0.14434177 -0.10289234 -0.05116845 -0.03341049
0.060383447 -0.1273515 0.006019683 0.08429634 -0.17081523 -0.03627379 -0.029012468 0.07186564
0.0004268589 0.0060369307 -0.008802727 -0.11598386 0.09043916 -0.15364398 -0.056512844 0.054848857
-0.10210524 -0.04721279 0.029997695 -0.09033854 -0.0671794 0.089122295 0.075230636 -0.0078461915
00000000: b466 33be b097 99bd 7c6a 253d 1576 afbd
00000010: e1fe 953d e9cc a9bd 2c90 2c3e e95b 9e3d
00000020: e0a8 20be df73 75bd 7e37 6d3d e421 97bd
00000030: bee5 b2bd 7ac3 38bd 9b7e f13c 871c 1d3a
00000040: 9af8 d9bc b93f 933c 1343 35bb d741 7abc
00000050: ca2f 73bc 7b69 903c 76f0 873c cf75 f7bd
00000060: cded 85bd c74e 8abd 8023 2dbd c06f 0fba
00000070: 28d0 bd3d 8561 f93c b56a 293c fc66 54bd
00000080: dfcd 413d 2b00 fb3b 589c 18be 1294 8b3c
00000090: e2c3 e7bc 0b1a 953c 7ac8 34be 8365 94bd
000000a0: 5b23 9dbc 1c67 a5bc 7556 2fbd 1d62 0ebe
000000b0: 5b7e f4bc 47b0 1fbe 2347 7bbd d70a 00be
000000c0: 0a4d 94bd 8b8f ca3d 8fb6 62bd 02cf b33d
000000d0: 4903 d03d 618f 863c dea6 e1bc acc5 403d
000000e0: f638 f7bc 5b76 913c b69f 4a3c 1767 8f3d
000000f0: e110 40bd 5e35 923d a27f 21bd 9615 d3bd
00000100: 00f8 d0bc 4b35 abbd 3923 cdbd 1afb 57bd
00000110: 086f 53bd 2a64 b2bd 0333 edbc 1af6 8b3d
00000120: a706 12bd cf10 473d 9b62 11bd 0c4b cfbd
00000130: 6c43 ab3b a36e c23c eef5 d7bc 823f 2cbe
00000140: 59f1 a93d 9407 f6bd aa3f 093e 4456 c93b
00000150: 3154 e3bc c06e 9d3d 77ae 7f3d 124a 963d
00000160: b9d4 0ebe 51f8 5b3d 1883 a53d 3ced 38be
00000170: ca5d 9bbd f749 32bb 0377 cb3c 9a6a 89bd
00000180: 7fa5 e23d 277e 8abd 6af2 df3c 4c02 d1bd
00000190: fdd3 1c3d fb43 9bbd 3335 bebd 232e afbd
000001a0: 1dd2 513b d2cd c5bd 2482 8fbd d890 e6bd
000001b0: 4b24 09bd 2e2c c73d e500 92bc 1f35 2fbd
000001c0: 1735 77bd 3865 1fbd 0979 efbd 241e 70bc
000001d0: 56aa e7bd cf93 483d 96b9 bb3c 2028 c83d
000001e0: 844b a1bc a4a7 583c 0452 85bc 883b 42bd
000001f0: 0e79 05bd 4750 50bd 159a fabd fdfe 413a
00000200: 4ccf 82bd d3b2 21bd 3fd7 8dbc 8d06 50bd
00000210: 22dc 19bb eafb f1ba 21d4 463d f463 b1bd
00000220: 0dd9 bb3d c957 a5bd df87 713d 7c14 5d3d
00000230: 6c05 87bd 6e3f 02bd 3ed8 0bbb 88ae 81bd
00000240: 8a70 0dbd 6d21 27be 9ca1 ffbc 1740 9cbd
00000250: 61d8 cc3c be0f 0bbe 82ba 99b8 80fc da3d
00000260: eecd 06bd 3306 9fbc 752b 71bd 3c4f acbd
00000270: d7c6 a03d 4a17 713d c0bf 08bc 211f 853c
00000280: a27d 98bc 6815 2f3d 3e34 7e3c 0bb2 56bd
00000290: e7e5 4abd 0af5 053c c048 26bd 0f3e e8bc
000002a0: c306 3f3d e67d d3bc 2381 47bd 4720 49bd
000002b0: e8fb 66bc 0850 373c f76b 1abe 5596 313c
000002c0: 8c1b ce3c 389a 843d 0535 043e ac2c 99bd
000002d0: 56c1 f23c beb3 0dbe 726d 81bd 2fd6 afbc
000002e0: 6daf 94bd 7980 95bd 0409 813d 6ec8 bbbc
000002f0: 0244 f8bc ce07 f5bc 3110 a8ba ef53 b0bd
00000300: ec8a e5bd 77b7 8b3b 1c1d 1ebd 404d bb3c
00000310: 1b7a 6a3d 7ef2 823d 2918 a93d 8340 f9bd
00000320: 3bc2 c63d 1167 94bd 0956 30bc b33e b2bd
00000330: acf6 10be dbdf cebd 9841 b83d b767 663b
00000340: f5bb 263b 4f34 a9bb a602 a1bd 03ed 90bc
00000350: 38cc ecbb 2420 0ebc b001 0bbd b66c 3b3d
00000360: 3ba2 2c3d d507 47be 29f9 393d a08c 4b3d
00000370: 9a21 b13c fd54 02be 50e1 253d e1ee 85bd
00000380: 78dd 5ebe 69e0 cbbd 3992 8abc 1c8d a5bc
00000390: 54ce 13be 38b9 d2bd 0296 51bd 70d9 08bd
000003a0: a254 773d 6e68 02be c340 c53b 8fa3 ac3d
000003b0: 30ea 2ebe d393 14bd 8eab edbc 4b2e 933d
000003c0: 08cc df39 72d1 c53b 5039 10bc f288 edbd
000003d0: 2b38 b93d d954 1dbe 037a 67bd 32a9 603d
000003e0: 8d1c d1bd 3362 41bd babd f53c 6a03 b9bd
000003f0: 5a95 89bd c085 b63d 8512 9a3d 508d 00bc

fc2.bias f4 [128]
-0.00069961284 0.0525443 -0.14276421 -0.06199904 0.051709414 -0.044396628 -0.030113824 0.047003005
0.047595814 -0.11400988 0.031005511 -0.063248865 0.23923308 -0.10687357 -0.08675107 -0.08831905
0.0038896415 -0.059356377 -0.007401674 -0.06816561 0.025571749 0.02713364 -0.019314915 0.16415405
0.038448323 -0.13896732 0.057674043 0.061998263 -0.027410181 0.19033523 -0.04508634 -0.00048618997
-0.015555182 0.1683795 -0.0019082444 0.0879272 -0.0047503803 0.20777354 0.049583457 -0.0016530243
-0.044282064 -0.114433594 -0.03843234 0.060095176 -0.1325618 -0.13199547 -0.045949206 0.09822092
0.080806196 0.036818746 -0.006900101 0.10514135 -0.11161797 0.018292477 -0.0063551427 -0.054538414
0.089677736 0.061985172 0.104018554 0.009402736 -0.052438054 -0.024076194 0.13910826 0.111533925
0.14097545 -0.016741147 -0.15386467 0.019175865 -0.02272501 0.0068429797 -0.07156359 0.010871918
-0.023330586 -0.05085495 0.06668197 -0.057014346 -0.08089195 0.15185334 -0.051063072 0.0363103
-0.08940069 -0.042925786 -0.050684698 -0.030112918 0.042838745 -0.02082082 -0.06920701 -0.061394364
0.08901819 0.0057715164 0.035716727 -0.05136372 0.049088184 0.041782465 -0.0044147195 -0.052337736
-0.04191803 -0.088041425 0.01393068 -0.0031227695 -0.18157095 0.022420514 0.15929928 0.051740766
0.24836187 -0.08928773 0.066056795 0.013579359 0.11309872 0.065834746 0.036051046 -0.08186846
0.031413954 0.017551813 -0.08119408 -0.033082537 0.059319094 0.03807768 0.0915285 0.050497707
-0.13465993 0.025371794 0.024101058 0.04620924 0.14860095 -0.055903215 -0.024961784 0.10411891
00000000: 3966 37ba b138 573d c830 12be b5f2 7dbd
00000010: 40cd 533d 3dd9 35bd 44b1 f6bc 3986 403d
00000020: d4f3 423d 037e e9bd 45ff fd3c 9f88 81bd
00000030: 84f9 743e 88e0 dabd 8caa b1bd 9ee0 b4bd
00000040: 5be9 7e3b ac1f 73bd be89 f2bb 699a 8bbd
00000050: d87b d13c 5e47 de3c 503a 9ebc 0018 283e
00000060: fd7b 1d3d 734d 0ebe 9e3b 6c3d e4f1 7d3d
00000070: 518b e0bc 3de7 423e 74ac 38bd 50e7 feb9
00000080: 29db 7ebc ad6b 2c3e 0f1e faba 2d13 b43d
00000090: 14a9 9bbb 96c2 543e 0618 4b3d 4baa d8ba
000000a0: 1c61 35bd 295c eabd 3b6b 1dbd 5c26 763d
000000b0: 48be 07be d229 07be 3c35 3cbd 0d28 c93d
000000c0: b87d a53d 41cf 163d 3e1a e2bb 5954 d73d
000000d0: f697 e4bd 1bda 953c cd3e d0bb ac63 5fbd
000000e0: f6a8 b73d 2ae4 7d3d ae07 d53d ef0d 1a3c
000000f0: 49c9 56bd 703b c5bc 6572 0e3e e66b e43d
00000100: de5b 103e bb24 89bc b38e 1dbe b416 9d3c
00000110: cd29 babc 133b e03b ee8f 92bd 2120 323c
00000120: c91f bfbc 484d 50bd 8f90 883d e087 69bd
00000130: aeaa a5bd 717f 1b3e 8327 51bd 1cba 143d
00000140: b517 b7bd f3d2 2fbd c29a 4fbd 5eaf f6bc
00000150: ae77 2f3d 6d90 aabc 68bc 8dbd a878 7bbd
00000160: 2b4f b63d fd1e bd3b b44b 123d c462 52bd
00000170: b110 493d 1724 2b3d 5aa9 90bb 1860 56bd
00000180: 3db2 2bbd 104f b4bd 823d 643c 61a7 4cbb
00000190: bced 39be 3aab b73c 5a1f 233e 20ee 533d
000001a0: 9352 7e3e 7cdc b6bd c948 873d f67b 5e3c
000001b0: 4da0 e73d 5ed4 863d 43aa 133d a7aa a7bd
000001c0: ebab 003d d2c8 8f3c 1549 a6bd 8e81 07bd
000001d0: 94f8 723d 57f7 1b3d 4b73 bb3d afd6 4e3d
000001e0: 4be4 09be 82d8 cf3c 956f c53c e645 3d3d
000001f0: d92a 183e c5fa 64bd a87c ccbc 4c3c d53d

fc3.weight f4 [1, 128]
0.0606232 -0.022494934 -0.027227057 0.021734918 -0.009808236 -0.3438346 -0.20114893 0.011079764
-0.01738558 0.012961957 -0.03513542 -0.026341025 -0.006167733 -0.032217354 -0.026382856 -0.03524097
0.04763849 -0.06742102 -0.019744253 -0.028834993 -0.040776774 0.020843957 -0.1182886 -0.008113404
-0.0797409 -0.022700196 -0.017099116 -0.111941494 -0.031013718 -0.029156458 -0.11362375 -0.020192381
-0.1521028 -0.009621486 0.010751369 0.010596028 -0.104570724 -0.006942413 -0.025450328 -0.018719554
0.009486255 -0.07429299 0.012461688 -0.040748246 -0.04280939 -0.028734008 -0.08429576 -0.007551056
0.023229793 -0.014507014 -0.117076896 -0.019046918 -0.027497333 -0.033234175 -0.07039277 -0.07101592
-0.06397314 -0.011059845 -0.035755534 -0.022244252 -0.015032767 -0.2225381 -0.0059427717 -0.03177543
-0.0063018855 0.009541952 -0.03302789 -0.16818652 -0.028396456 0.010654787 -0.05659402 -0.056366768
-0.1236136 0.013818108 -0.05008773 -0.02694401 -0.03165901 -0.020519001 -0.35309067 0.022309337
-0.031654622 -0.2353323 -0.029611643 -0.10279321 -0.077460095 -0.02743968 -0.038991526 -0.024614258
-0.047983676 0.010234668 -0.062896006 0.068776414 -0.007978052 0.017763717 -0.17711143 -0.25656965
-0.013115022 0.014281404 -0.0233199 -0.14147744 -0.037059918 -0.029180018 -0.020806294 -0.015626943
-0.0053898552 -0.17596325 0.092678994 -0.074392825 -0.030997945 0.050143655 -0.019415922 -0.07012852
-0.14515373 -0.02728177 -0.03748651 0.017354963 -0.04976773 -0.007249722 -0.025687229 -0.040919308
-0.043828107 0.018506637 0.011116212 -0.015757438 -0.016424842 -0.023892974 0.024845095 -0.1019814
00000000: 0850 783d 4c47 b8bc 470b dfbc 6d0d b23c
00000010: b9b2 20bc 170b b0be fcf9 4dbe e687 353c
00000020: 346c 8ebc 635e 543c 28ea 0fbd 22c9 d7bc
00000030: b21a cabb 58f6 03bd dc20 d8bc d658 10bd
00000040: 9420 433d 0814 8abd b3be a1bc 5d37 ecbc
00000050: 8c05 27bd f2c0 aa3c 4b41 f2bd 15ee 04bc
00000060: 324f a3bd c3f5 b9bc 7213 8cbc 9541 e5bd
00000070: 7b10 febc 86d9 eebc 92b3 e8bd 7e6a a5bc
00000080: d6c0 1bbe 70a3 1dbc 8326 303c f69a 2d3c
00000090: 2d29 d6bd 2e7d e3bb 357d d0bc c059 99bc
000000a0: 3d6c 1b3c ec26 98bd 1c2c 4c3c a2e7 26bd
000000b0: e658 2fbd 9563 ebbc 41a3 acbd d96e f7bb
000000c0: 684c be3c d4ae 6dbc 03c6 efbd 4808 9cbc
000000d0: 1642 e1bc 8f20 08bd 162a 90bd cb70 91bd
000000e0: 5a04 83bd 5a34 35bc 6574 12bd 9439 b6bc
000000f0: ff4b 76bc 07e1 63be 95bb c2bb f426 02bd
00000100: 0c80 cebb d955 1c3c 4148 07bd 1639 2cbe
00000110: af9f e8bc 6a91 2e3c 22cf 67bd d7e0 66bd
00000120: 2129 fdbd 5865 623c cb28 4dbd afb9 dcbc
00000130: e1ac 01bd 7717 a8bc 4dc8 b4be 12c2 b63c
00000140: 47a8 01bd f3fa 70be 1e94 f2bc 3f85 d2bd
00000150: 66a3 9ebd 2ec9 e0bc 94b5 1fbd d7a3 c9bc
00000160: 888a 44bd 4faf 273c 9fcf 80bd a6da 8c3d
00000170: 60b6 02bc 3785 913c b35c 35be 195d 83be
00000180: 64e0 56bc 8dfc 693c 6009 bfbc 76df 10be
00000190: 24cc 17bd ef0a efbc f671 aabc 1304 80bc
000001a0: 629d b0bb b62f 34be 7cce bd3d 445b 98bd
000001b0: 67ef fdbc 6f63 4d3d 240e 9fbc 8b9f 8fbd
000001c0: 2ea3 14be 057e dfbc 748b 19bd ff2b 8e3c
000001d0: 3fd9 4bbd 138f edbb 066e d2bc 019b 27bd
000001e0: 1a85 33bd 3b9b 973c c620 363c be15 81bc
000001f0: 648d 86bc 33bb c3bc f187 cb3c a0db d0bd
