ddpg-tennis/checkpoint_actor.pth (torch_old, 159146 bytes, 6 tensors)

fc1.weight f4 [256, 24]
00000000: 61aa 613e aa05 9b3d d545 64bc dbff fc3d
00000010: 18c2 36be d213 2abe d2d0 19bc 8d5b 4d3e
00000020: c115 393e 7dd1 593e 24d4 38bc 7f36 d63d
00000030: 6f3d d53d 4e6c 8bbd 48f8 4f3d 9a94 213e
00000040: 3343 2d3e 8576 3d3e 0b49 a0bc 1a3e 143e
00000050: 76f1 843e c02d 753d 34c0 3b3d 7cfb cb3d
00000060: de40 2e3d 16ef 9f3d 8120 24bc 5f02 9abc
00000070: 48dd da3d db66 2abe 969c c4ba 6c77 e4bd
00000080: 85d6 263d d9b4 b9bc 471c 783d 4374 cabc
00000090: 9398 fd3b e754 05bd 967e 573c 5311 70bc
000000a0: 8906 f03c 590d 693c 4611 3dbd 629a 053e
000000b0: e316 b03d a1f0 c23e f8a1 77ba 5abd bc3d
000000c0: 6a71 0abd ecb0 9ebe f7d1 4cbb 1541 f13c
000000d0: e62e 833c 905c 2cbe d0e6 afbd b5c4 c8bc
000000e0: 9416 893d 5298 7cbe c9ee 75bd d09c 703d
000000f0: 0c11 9ebc 7d0c 57be f55a 27bd 84ee a03d
00000100: 2a37 613d afee 8bbe c24d 4dbd 7e7a 973d
00000110: 449a 80bd c571 fabd eb57 75bb 16aa 183e
00000120: 5d3a 79bd 3f25 8e3b 116b a4bb 508b 8c3c
00000130: 4cb8 33be 56a5 4ebe 5907 9a3c ba0c 273c
00000140: 898b 85bd f31a 1f3c f997 8fbc 667b b1bc
00000150: c4dc f63d 2ccf c8bd 4a60 ab3c 338a 4d3d
00000160: 0726 883c 1879 113d bf7d 54bd 2b06 243d
00000170: 38d8 c63e 8855 a03e 25b3 363d aa8b 8e3d
00000180: 3f28 4c3d 74d1 3bbd 8a38 603d a490 8b3d
00000190: 9e07 c63e 55cf 9cbc dee6 50bd 33f1 85bb
000001a0: 17a0 d7bc 6289 01be b43f d2bc e9f6 2abd
000001b0: 94ae 2f3e 0ddd 103d 3953 71bb 0c78 d13c
000001c0: b469 003c cb13 b7bd 188a acbc 3cb8 383d
000001d0: 930a 3bbe 5684 d63c 0806 903c 2e25 e83d
000001e0: 0794 573c 96ef 833e 1761 16bd f597 c8bc
000001f0: 6eae 06bd d941 8f3d d7fb 293d 7c0c cdbb
00000200: 12c9 f13a 8f2d 8e3e a7b7 06bd 6abc abbd
00000210: 886e 0ebe 37b8 cdbc 0f26 0e3d 7514 6dbd
00000220: 98bd b33c 0969 cf3d ffd0 3fbc 5294 a8bd
00000230: f990 c3bd 015b 833b 1b26 63bb ba3a debd
00000240: c9e2 87bd 86d4 fa3c c406 0cbc 27ee 5dbd
00000250: 9e42 a43e 926e cf3d f8d4 9a3c ebcf 103d
00000260: 3ea3 5f3d 65ed fb3c ba77 88bc d4a5 a6bc
00000270: 7120 513d f2b2 be3d 5740 1bbd a45b 46bc
00000280: 3c44 07bd aa74 d73c 3ac8 853c 851f 1dbb
00000290: f046 93bd 64b8 51be e7eb 693c 4564 e83c
000002a0: 47a1 8c3a 55a9 9fbd cdf8 41bd d519 30bb
000002b0: 3bbb a73c 64a4 acbe c24e 9fbc 53a8 46bd
000002c0: 655c 00bd 4d00 a5bd e4e9 36bd 3cc3 8abd
000002d0: 5b27 b3bc 8536 34bd 35f5 ffbc 1fc7 76bd
000002e0: 9986 933c f473 0fbe 6fef 27bc b75d 5ebd
000002f0: c7b4 023b 2631 9a3e 38c7 873d 8e18 97bd
00000300: d8d4 9abd 6ed4 9f3e 9cdd 4f3c 5f8e 583d
00000310: 30b0 e6bd 9c69 8dbb e911 783c cc54 e13c
00000320: 429a 82bc 2a89 823e a478 c13a 8b58 14be
00000330: f940 453c e6d3 053d fdad b13c dd04 f6bd
00000340: db38 783d 4a2e 4d3e a3e0 893d 401b 87bd
00000350: 66b0 503d 7a0c a33c 8eb7 29bc 0f6b 07be
00000360: f4b3 3f3a 3c14 ed3b d86b b4bb e1f1 d0bb
00000370: a8dc 823d c7a0 2f3e 7625 60bc 1fb8 373c
00000380: 66e0 5dbd c075 4ebd 552f dc3c 1184 dd3c
00000390: 710c 5bbd b763 113e eea7 96bc d42f 31bd
000003a0: faff 743d ab74 b7bd d280 26bd bb1b e13c
000003b0: 303d 17be 804d 82bd 559e 663d b8eb b13a
000003c0: ee87 823d c406 a1bd ce1f 8c3b 96cd 1abd
000003d0: 0018 1bbe b082 ba3d a110 1cbd ac43 933c
000003e0: 2546 d43d 222e 9cbd c727 4c3c 823f 7b3c
000003f0: 3a6e e83d a363 153d 09c8 ecbc cfce 163d
0.2203765 0.0756944 -0.013932665 0.12353488 -0.17847478 -0.16609123 -0.009388166 0.20054455
0.18074705 0.2127132 -0.011281047 0.10459613 0.10412108 -0.06807767 0.05077389 0.15779343
0.16920166 0.18502243 -0.01956608 0.14476815 0.2596547 0.059858084 0.045837596 0.09960076
0.04254233 0.07809274 -0.010017515 -0.018799959 0.10686737 -0.16640799 -0.001500028 -0.111555904
0.040731926 -0.022669243 0.060573842 -0.024713641 0.0077391355 -0.032551672 0.013152739 -0.014652568
0.029299991 0.014224374 -0.04615905 0.13047174 0.08598115 0.3807421 -0.00094464375 0.092158034
-0.033799566 -0.30994356 -0.0031253078 0.029449979 0.016013574 -0.16832185 -0.08588946 -0.02450786
0.066937596 -0.2466748 -0.060042176 0.058743298 -0.019295238 -0.21000858 -0.040858228 0.07857993
0.05498425 -0.2733054 -0.050122984 0.073964104 -0.06279424 -0.12228731 -0.0037436436 0.14908633
-0.060846675 0.004337936 -0.005017646 0.017156273 -0.17550772 -0.20180258 0.018802332 0.010195905
-0.06520755 0.009711015 -0.01752852 -0.021665286 0.120538265 -0.0980514 0.020919938 0.050180625
0.016619695 0.035515875 -0.051877733 0.040044945 0.38836837 0.31315255 0.04460444 0.069602326
0.04984307 -0.045854047 0.05474142 0.068146974 0.38677686 -0.019141832 -0.051001422 -0.004087591
-0.026321454 -0.12650064 -0.025665142 -0.041739378 0.1715644 0.03536706 -0.0036823286 0.025569938
0.007837702 -0.08939322 -0.021061942 0.045097575 -0.18265752 0.02618615 0.017581 0.113352165
0.013157851 0.25768727 -0.036713686 -0.024486521 -0.032881193 0.06994981 0.04149994 -0.006257592
0.0018446764 0.27769133 -0.03288999 -0.083855465 -0.13909352 -0.025112255 0.034704264 -0.057880837
0.021940991 0.10127456 -0.011707543 -0.08231415 -0.09549136 0.0040086512 -0.0034660164 -0.10851045
-0.06635053 0.030618917 -0.008546535 -0.054182198 0.32082075 0.101285115 0.01890038 0.035354536
0.05459904 0.030752847 -0.016658653 -0.020342745 0.05105633 0.09311475 -0.037903156 -0.01210681
-0.033024058 0.026300747 0.016330827 -0.0023975086 -0.07191265 -0.20480496 0.014277435 0.028368125
0.0010729217 -0.077959694 -0.047356416 -0.0026870866 0.02047502 -0.3371917 -0.019446734 -0.04850037
-0.031338114 -0.08056698 -0.04465665 -0.06775519 -0.021869352 -0.043997306 -0.031244854 -0.06024849
0.018008517 -0.14009076 -0.0102499565 -0.054288592 0.0019944177 0.30115622 0.06629795 -0.0737773
-0.07560128 0.31216758 0.012687113 0.05287015 -0.11264074 -0.004315568 0.015140989 0.027506255
-0.015942696 0.25495273 0.0014760685 -0.14486901 0.0120394165 0.032672785 0.02168941 -0.12012646
0.060601097 0.20037189 0.06732299 -0.065969944 0.050949477 0.01990341 -0.010358704 -0.13224433
0.0007312887 0.007235078 -0.00550602 -0.0063764905 0.06389743 0.17151175 -0.013680806 0.0112133315
-0.05416908 -0.050405264 0.026878038 0.027040513 -0.053478662 0.14198194 -0.018390622 -0.043258503
0.05981443 -0.089577995 -0.040650196 0.027479043 -0.14769435 -0.06362438 0.05630334 0.0013574278
0.06373583 -0.078626186 0.0042762524 -0.03779372 -0.15145874 0.09106958 -0.038101796 0.017976604
0.103649415 -0.07625987 0.0124606555 0.015334966 0.11349149 0.036471974 -0.028903978 0.03681832

fc1.bias f4 [256]
00000000: 2304 9fbd 9346 bb3d 5cc9 383c 5324 c23d
00000010: cac8 52bd 4286 2abe 5bc1 55be d4a0 36be
00000020: be9d 4dbe a691 97be 3cad aa3d a85a 1cbe
00000030: a14c 193e 116d 62be 6a45 68bd ceb6 293e
00000040: fb7b 8bbc 7b24 adbd d763 41be a3b9 62be
00000050: 0220 0c3e 5e93 c0bd 1047 d63b 28df 73be
00000060: cada 503e 8b67 04be d5ba 6d3e 3387 603e
00000070: bd27 63be 3069 243d 32d3 02be ddc6 eebd
00000080: 491e 87be 562b e03d 5013 71bd 759b 6ebc
00000090: 1a63 42be 5da8 473e 6d4a 06bc b81c af3c
000000a0: bae0 4cbe 97e7 4abe 4fe6 b93c bf12 4abe
000000b0: e364 5bbe d0da d9bc d911 f63d af0a 49bc
000000c0: 739a 9c3e 388e 713e e3f4 e7bd 231f 433e
000000d0: 375c 04be 4164 5abe fa55 e03d 3ecc 93bd
000000e0: fc23 a4bc 7740 2bbe 1ecf d3be b66f 193e
000000f0: f092 31be ee64 893d 7152 f8bd 6761 00be
00000100: c7c7 8c3d b930 313e 10ff 64be dc25 c83d
00000110: 48e0 a7bd 1b75 b9bb f0b4 0e3d 8418 63be
00000120: d40f 31be 7166 68bd d1aa 8dbe 50e0 c73e
00000130: ef1d d63d 6bcb b63e e490 873d 83fd 603e
00000140: db16 9cbe af2b 8c3c cbb4 bfbe e75d 96be
00000150: 1200 d03b b74b e6bd ee5c 8fbe 2461 02be
00000160: ec39 f4be 0ae8 b63c 522c dc3d fb24 b13c
00000170: 1ab8 debd 324b cf3d e5c2 56be 86af 7fbe
00000180: 8214 713d 0fea c5bd 2444 5b3e 1d1e 733d
00000190: 9567 1ebd 5f51 763d bb72 9abc 3149 f53b
000001a0: 38bb afbd f3ed 643e 9172 4a3d 11d6 373e
000001b0: fe7b 3e3e e3c9 6c3d 34d4 53bd f4ed 8c3c
000001c0: af02 3abe f517 87be 152d dfbc 7cd1 993e
000001d0: 4775 aabd 14a7 45be 2069 46be 999b 353e
000001e0: a190 a5bd 9286 79bd 0833 083e 22f1 9a3e
000001f0: f7a7 be3d afa7 603d c146 83bd bbc6 dc3c
00000200: 6f0b 1c3e 4d90 61be 62d1 36be e25c 543e
00000210: 0f4e 37be 8388 7f3e 3f94 8c3e 5025 943e
00000220: ab7a 4cbe ac17 5a3e 2a48 f63d 581c 583e
00000230: b6c0 5e3e be4d 63bd 0c46 853e 0991 0c3e
00000240: 15d5 3d3e 8c9b 6bbe 8a99 8cbe 8930 88be
00000250: 9fae e9bd ace5 e23d 20b9 2a3e 8989 f53d
00000260: 5ff8 113d 3f9b 39be 6cb4 a13d b5aa a3bd
00000270: 25b2 313e 27e0 b0bc 8e6b 913c 250c d93d
00000280: db2e 82be f1b7 203d d799 c73d 987d 293e
00000290: b732 623c 4dd9 1b3e 9a6c 08be 065a 343e
000002a0: 5db0 97bb eaff 523e 95ff 77bd 5143 b7be
000002b0: 167e 24be 7432 d9bd eb78 85be 4971 25be
000002c0: 7108 49bd 833e 063e b860 ddbc b2f5 6c3e
000002d0: a3d6 60bd 4376 813e a944 853e b9c9 d73d
000002e0: 8d13 6a3e a2da a3be 0ecf 4f3e db62 68bc
000002f0: 30c4 233e c32c 08be 3613 7c3d 3d3c 9fbd
00000300: de30 023e 0559 b13c e146 853e 2139 e9bd
00000310: 0e14 b6be 7163 023c 9c48 863e 5634 583e
00000320: 451e 363e 5ed5 90bd 6ee5 efbc 2f43 1ebe
00000330: 7900 353e 76b3 843e ff1f 4bbe 8fb8 ad3d
00000340: d198 f5bd d655 94be 6bbf e73b 9e8c 36be
00000350: 9ed5 503e b10b 183e 9369 1f3e c7ed 96be
00000360: adee e53d 50ca a13e 415a fa3d 48f0 f13d
00000370: 60ba febd b460 d1bd c3b8 9f3e 5e6e 1fbe
00000380: 3ff1 623d c854 0ebe 3b5f 503d 8d40 fcbd
00000390: 5275 d9bc 61ce b9bd 5faf 9b3e f0dc ae3b
000003a0: 9b4f bb3d 0e8e cabd 1571 833c 8a04 24be
000003b0: de46 a13d 987d d23d 19c7 39be 6e67 9d3e
000003c0: df33 69be 3a3f 37be 42c8 d73c a412 65bd
000003d0: 9447 e4bc c96b 64bc 4dd9 55be ada1 8fbe
000003e0: 47c6 3fbe 1fac 1bbe 850c 78be af9a 8bbd
000003f0: fb42 853e 1e6e a13e c970 c33b e83e 903e
-0.07764461 0.0914432 0.011278477 0.094795845 -0.05146102 -0.16652778 -0.2087454 -0.17834789
-0.20079705 -0.29603308 0.08333823 -0.15268958 0.14970638 -0.22111918 -0.056706823 0.1657364
-0.017026892 -0.08454224 -0.18885742 -0.22141127 0.13684085 -0.09403108 0.006539233 -0.23815596
0.20395961 -0.12930124 0.23215802 0.21926574 -0.22183128 0.040139377 -0.12775877 -0.11659024
-0.26390293 0.10945766 -0.05885631 -0.014563431 -0.18983117 0.19497819 -0.008196455 0.021375999
-0.20007601 -0.19814907 0.022692828 -0.19733714 -0.21425204 -0.026593596 0.12015123 -0.012270614
0.30586585 0.23589408 -0.11326005 0.19054846 -0.12925802 -0.21327306 0.10953899 -0.072166905
-0.02003669 -0.1672381 -0.41368955 0.1498402 -0.17341208 0.06708704 -0.121250995 -0.12537156
0.06874042 0.17303742 -0.22362924 0.09772846 -0.08197075 -0.005659712 0.034840524 -0.2217732
-0.17291194 -0.05673832 -0.27669385 0.39038324 0.10454928 0.3570207 0.066194326 0.21971707
-0.30486187 0.017110674 -0.37442622 -0.29368517 0.0063476646 -0.1124491 -0.28000587 -0.12732369
-0.4770044 0.022327442 0.10750641 0.021624079 -0.10874958 0.10121764 -0.20972784 -0.249693
0.05885745 -0.09663784 0.21412712 0.05935489 -0.038673002 0.060136195 -0.018853536 0.0074855317
-0.08580631 0.22356395 0.049425665 0.17952754 0.18601987 0.05780972 -0.051716045 0.017203309
-0.18165086 -0.26385465 -0.027243176 0.30042636 -0.0832315 -0.19302016 -0.1937604 0.17735137
-0.080842264 -0.060919352 0.13300717 0.30262095 0.093093805 0.054847416 -0.064099796 0.02695023
0.15238737 -0.22027703 -0.1785331 0.20738557 -0.1790087 0.24954419 0.27456853 0.28934717
-0.19968669 0.21298093 0.12025483 0.21104562 0.21753201 -0.055494063 0.26030004 0.13727202
0.18538316 -0.23008555 -0.2746089 -0.2659953 -0.114102595 0.11078963 0.16672182 0.119891234
0.035637256 -0.18125628 0.07895741 -0.07991544 0.17353113 -0.02159126 0.017751481 0.105980195
-0.25426373 0.03923792 0.097461395 0.16551816 0.013806037 0.15219612 -0.13322678 0.17612466
-0.0046291784 0.20605436 -0.060546476 -0.35793546 -0.16063723 -0.10605326 -0.26068816 -0.16156496
-0.049080316 0.13109784 -0.027023658 0.231406 -0.054892194 0.2528554 0.26028946 0.105365224
0.2285902 -0.3200274 0.20293829 -0.014183725 0.15992808 -0.13298325 0.06154176 -0.077751614
0.12713954 0.021648893 0.2603064 -0.113878496 -0.35562176 0.007958279 0.26227272 0.21113715
0.17784984 -0.070719466 -0.029284205 -0.15455316 0.17675962 0.25918168 -0.19836424 0.084824674
-0.11992038 -0.28971738 0.0070723793 -0.17827079 0.20393988 0.1484821 0.15567617 -0.29478285
0.112271644 0.31599665 0.12224246 0.11813408 -0.12437892 -0.10223523 0.3119565 -0.15569445
0.05540585 -0.13899529 0.05087207 -0.123169996 -0.0265452 -0.09072567 0.30407235 0.0053363964
0.09146043 -0.09890376 0.016045133 -0.16017357 0.07874845 0.10277861 -0.18142356 0.30742973
-0.22773694 -0.17895213 0.026340608 -0.05592598 -0.027866162 -0.013941714 -0.20883675 -0.28053036
-0.1872798 -0.15202378 -0.24223526 -0.06816613 0.26027665 0.31529325 0.005964373 0.28172994

fc2.weight f4 [128, 256]
00000000: dbfd 04be 3772 44be 4cde 0b3d 35ee 3ebe
00000010: f685 3a3d 1262 00bc 84cb 153d d72f a3bc
00000020: 005f 29bc 8443 753e 148f 86bd 00ee efbd
00000030: 0fbe 17be cf61 10be 9613 0e3d 9083 403e
00000040: d9c7 193d 67a6 363d a28d e3bb 66fc de3d
00000050: d381 db3b cbcf 023d 76b4 1abd 449b d9bd
00000060: daef 5b3e 2781 24be 2107 2d3d 56c7 a7bd
00000070: 8108 87bd 73a7 1ebd 91fe d23d ce68 29bd
00000080: 96ba 14bc 8371 5c3d 31c5 7a3b f270 143e
00000090: 3166 f63d 98ab 2bbd 441b 8b3e 30ca 0c3e
000000a0: 5723 4fbd a2f2 ad3d 0e09 d23c 8a9a 5cbe
000000b0: dfbf 5b3d 89fb 6c3d 4bdf b23d 71e4 2b3e
000000c0: d6ff 02bd a5cf c83d 6e29 41be 3cf2 5bbe
000000d0: f2d1 1ebe 91a0 92bd 7830 4d3c 3d72 223e
000000e0: 0f84 133e 228a fcbd f7cd d5be 952a eabc
000000f0: 630d 3ebd b5b9 b03d d359 efbd a71e 4d3e
00000100: 4e79 cabd 158e 603d 21c2 39be d8d8 1a3e
00000110: 469c b0bd a431 383d 2c90 7f3d 1f52 3cbe
00000120: 420b 82bd 7d82 69bd d128 72bd 9d64 5bbd
00000130: dce7 4bbe 365a 8a3b ec5a 5fbc 2db8 debd
00000140: 1419 b2bc c0d1 bc3b f336 0cbf 9aa3 3fbc
00000150: 95fc 31bd 8254 bebd 82c2 9a3d e9c4 a83d
00000160: 7daf 0cbe 759e 69bd f430 9f3d 0145 af3b
00000170: c142 30be 3ec9 f3bc 1796 93bd 999c c23d
00000180: 263a 863d 2b07 e4bd 92bf 923c 53cc 0a3d
00000190: b9aa 443e 36fd be3d fc19 be3d d6d0 f43d
000001a0: acbe 4f3e 8d78 25bd bc4c 65be 1159 a83c
000001b0: 100a 523c f998 c43d 270d da3c 8ef1 27be
000001c0: c03f 51be af94 59bc 4734 76bd 7189 b2bb
000001d0: 56bf 3b3e 8a1e db3d 3102 a9bd 0222 ebbd
000001e0: e2e5 493e c1f2 95bc 53c7 4abd 5ef0 85bb
000001f0: e24c bfbd d956 c73e d2d2 12be 5414 523a
00000200: c0d1 e23d f6da 0f3e 32d4 5ebd fb20 3b3e
00000210: d89e 71be 76dd 4f3d c83a 363e 6eb7 b5bb
00000220: 8f08 72bd 2f36 b33d cf7d 1dbe b67a c43d
00000230: 6e04 22be 501a 3e3d a8ec 653e b752 d3bc
00000240: 63ba 8a3a 5b40 413e a876 a1bd a9e9 bfbd
00000250: e7ed 39be 7c62 e03c b220 033e 3db0 1ebe
00000260: 5342 05be bf87 bbbc 2299 ce3d 487b 343d
00000270: da3c 0fbd 6522 7ebc 54fa 51bd a189 b13d
00000280: 500a 7e3d d282 a7bd 7d32 833d e520 a9bd
00000290: f583 923d e8e2 213c 4c58 8dbd f99b a23d
000002a0: f340 45bc 1f95 11bd ffeb 84bd 1b63 86be
000002b0: 3c11 a4be a373 37bd 2796 1fbe dcf2 00be
000002c0: 50ce 953d d094 67be c037 413d 80fe 003e
000002d0: b639 41bd 3cbc 03bb d68b 32b6 de8e 94bd
000002e0: eac7 043e 9f4b 313d 3b18 143d b82b a33c
000002f0: 4305 9e3e 9672 4cbc 370d 7ebe f682 a6bd
00000300: 438d 92bd 8537 90bc e31b 0fbe c51c b13c
00000310: 91d9 81be a0c0 e4bd 580f 573d 86b3 09bd
00000320: 7687 253e 00ff c4bd 557f 983d 9f5d 6f3d
00000330: 281f 8b3d 47cd 0d3d ebc8 dbbd 00b8 893d
00000340: 9bb7 7b3c 943e 333e 185d b6bc 3ecc c3bb
00000350: e143 9d3b 5473 dfbd c263 ca3d 26fe eabd
00000360: 589d e23d c847 3b3d b914 1ebe 94c9 093e
00000370: a0fc a33d 131b 65bd 91c7 babc 57dc 4abe
00000380: adb1 06be 2fd1 8cbc 064b 633d 7a75 943c
00000390: 4f7c 9cbe 35a5 32bd 274c 55bc feae e93d
000003a0: 039b 26bd 2aa5 a0bd 1a9f 04be 5b03 82bd
000003b0: 46db e63c 7c34 fe3d 283e bebe 76bb 58be
000003c0: d64a 93be 69bb a5bd c917 15bd 1b1e d5bd
000003d0: 0f2c aabd 27e7 a3bc e92c b83d 1311 96bc
000003e0: 1a35 ccbd 291a f43c 9ec6 cabc 1c3c afbc
000003f0: d8ee b5bd 4848 993c f071 233c 7b7d 193c
-0.12987463 -0.19184195 0.034147546 -0.18645556 0.04553791 -0.007835882 0.03657104 -0.019920273
-0.010337591 0.23951536 -0.06570259 -0.11715317 -0.14818595 -0.14099811 0.034686647 0.18800187
0.037544105 0.044592287 -0.006944374 0.10887985 0.006698826 0.031936448 -0.037769757 -0.10625318
0.21478215 -0.16064893 0.042243127 -0.08192317 -0.06593419 -0.03873391 0.10302461 -0.041359715
-0.009077689 0.05381919 0.0038264508 0.1449621 0.1203121 -0.04191169 0.2716924 0.13749003
-0.050570812 0.08493544 0.025639083 -0.21543327 0.05364978 0.05785707 0.08733996 0.16786362
-0.031982265 0.0980523 -0.1886346 -0.21479124 -0.15509775 -0.07159532 0.012523763 0.15863891
0.14405845 -0.12331034 -0.417587 -0.028584758 -0.046399485 0.08629171 -0.116870545 0.20031224
-0.09886418 0.054823 -0.1814046 0.15121782 -0.08623557 0.044969216 0.062393352 -0.18390702
-0.063498035 -0.05700921 -0.059120957 -0.05356275 -0.19912666 0.0042221798 -0.013632517 -0.108749725
-0.021740474 0.005762309 -0.54771346 -0.0116967205 -0.04345377 -0.09293462 0.07556631 0.08240683
-0.13738818 -0.057035882 0.07773009 0.005348802 -0.17212965 -0.029759046 -0.07206362 0.09502525
0.0655406 -0.1113418 0.017913613 0.033886265 0.1920575 0.0932564 0.092823 0.11953895
0.2028758 -0.04039817 -0.22392553 0.020550283 0.012819782 0.0959949 0.0266176 -0.1640074
-0.20434475 -0.013280078 -0.06010845 -0.005448513 0.18334708 0.10699184 -0.08252371 -0.11481096
0.197166 -0.01830423 -0.049506497 -0.004087492 -0.09340836 0.38933447 -0.14338234 0.00080138934
0.11075163 0.1404837 -0.054401584 0.182743 -0.2359575 0.05074831 0.17795861 -0.005545548
-0.059090193 0.08750569 -0.15380023 0.09593718 -0.15822002 0.046411812 0.22453558 -0.025796277
0.0010584112 0.18872206 -0.0788396 -0.09370739 -0.18157159 0.027390711 0.12805441 -0.15496917
-0.13013582 -0.022891877 0.100878015 0.044062883 -0.034970142 -0.01551113 -0.051264122 0.08668829
0.062021554 -0.08179249 0.06406114 -0.08258227 0.07154075 0.009880759 -0.06901607 0.07939906
-0.012039411 -0.035542604 -0.06490325 -0.26247486 -0.320444 -0.044788014 -0.15584622 -0.12592643
0.073147416 -0.22615361 0.047172308 0.12597084 -0.047174178 -0.002010121 -2.6605462e-06 -0.07253812
0.12966886 0.04328501 0.03615592 0.019918308 0.3086339 -0.012478491 -0.24809729 -0.081304476
-0.0715585 -0.017604599 -0.13975482 0.021620164 -0.25361302 -0.11169553 0.052504867 -0.033618473
0.16164955 -0.0961895 0.07446162 0.058438893 0.06793052 0.034619596 -0.107316814 0.06724548
0.015363599 0.1750434 -0.022261187 -0.0059752753 0.0047993516 -0.10910669 0.098823085 -0.11474256
0.11065167 0.045722753 -0.15437593 0.13455802 0.08007169 -0.055934023 -0.022800239 -0.19810615
-0.13153715 -0.01718959 0.05549147 0.018122423 -0.3056359 -0.043614585 -0.013018644 0.1141033
-0.040675174 -0.078440025 -0.12951317 -0.06348296 0.02818073 0.12412354 -0.37156796 -0.2116526
-0.28768033 -0.08092386 -0.036399636 -0.10406133 -0.08309185 -0.020007683 0.08992941 -0.018318688
-0.09971066 0.02979763 -0.024752911 -0.021390967 -0.088834465 0.018711224 0.009975895 0.009368296

fc2.bias f4 [128]
00000000: 6231 8c3d cf8e 0bbe 4805 5fbd be88 da3d
00000010: 49f2 803d 277d bc3d b422 a33d daf5 ffbd
00000020: ced4 06bd 9b98 883d 5b88 423d a27e 103e
00000030: dd4f babc 93f1 00bd db43 56bd 12ab 15be
00000040: 17d0 a2bd 6734 37bb 76ec afbd 7650 e13d
00000050: b1e8 66be 5c25 60bd 221e 593d 4164 fb3c
00000060: 4968 e33d debf 823d f357 bd3c e2a0 643d
00000070: 5ca4 20bd f299 fe3d 444c e03d baa7 10be
00000080: c2ae c9bc dc28 3fbd 05b1 85bd 7ee9 983d
00000090: c39a bc3d a537 80ba ddd3 01bd fee4 fdbd
000000a0: f797 9fbb 3f61 a1bb 82d9 9b3d 2392 b3bc
000000b0: 20fa 763e c5f4 ed3c 9768 95bd f98a 563d
000000c0: 3356 88bd 08c3 f23c 4ee4 7bbd 3b21 9f3d
000000d0: fad6 bb3c 374c b73d 86f4 aebc 4f2b f23d
000000e0: e809 3fba 04ac 39bd 734d 1abe 7fe0 5c3d
000000f0: 9635 04be c528 1f3e 8bf7 d3bd 05c3 8a3c
00000100: 0367 78bc c3bd f73b 500d 65bd 72e9 adbc
00000110: 82fa 38bd cfd8 423d eb2e 9fbc aaea c4bd
00000120: ff98 293d be23 31bd d925 69bb 862f 123d
00000130: 9173 d5bd 832c 55bc 43d1 9fbd 96c6 47bd
00000140: 58a8 87bc 7bbf 363d f158 39bc 8dd4 9cbd
00000150: de82 3f3d fcb6 d33d 3a4c 8d3d db77 c6bd
00000160: 9dc0 043b 4548 a9bc c2c6 293e 6aca 2f3e
00000170: c8cc b53c 2c4b f4bd f93d 4eba c580 c3bd
00000180: 0df0 023d 3b69 9c3c 9568 b13d 4f91 84bd
00000190: bfcb 44bc 5a67 a73d a6b9 94bd 362e 5b3c
000001a0: a22e 0a3e 9d1f 1e3d f1d5 72bd f66a 26bd
000001b0: f6dc bdbd f82b 053e 6e68 0f3e ea33 87bd
000001c0: 813f b7bd 1a2c 993d c3cb 83bd 75b1 82bc
000001d0: 3593 16bd c7ed 0abe 67a6 843d 76d5 a6bd
000001e0: 987f bc3b b207 c53d 6e3e 713c 1e2e 2fbd
000001f0: ac7f cf3c 6323 383d 4f63 1c3e d0e1 ac3d
0.068453565 -0.13628696 -0.054448396 0.10670613 0.06296212 0.092035584 0.079656035 -0.12498064
-0.03291779 0.06669732 0.04749332 0.14110807 -0.02274316 -0.031480383 -0.052310806 -0.1461604
-0.07949846 -0.0027954818 -0.08590023 0.11001675 -0.22549702 -0.05472313 0.053007253 0.030687453
0.11103875 0.06384252 0.023113227 0.055817492 -0.039219245 0.124317065 0.109520465 -0.14126483
-0.024619464 -0.046669826 -0.065279044 0.0746641 0.09209206 -0.0009782208 -0.03169619 -0.123971924
-0.0048704105 -0.0049249227 0.07609846 -0.02192027 0.24118853 0.02904738 -0.072953396 0.05237863
-0.06657066 0.029634014 -0.061497025 0.0777001 0.022929657 0.08950084 -0.021356832 0.11824667
-0.0007287548 -0.045330063 -0.15068607 0.053925034 -0.12911066 0.15542896 -0.103499494 0.016938696
-0.015161279 0.007560463 -0.0559209 -0.02122948 -0.045160778 0.047570046 -0.019431552 -0.09615071
0.041405674 -0.043246977 -0.0035575537 0.035689853 -0.10422433 -0.013011101 -0.078035854 -0.04877337
-0.016559765 0.044616204 -0.011312709 -0.07657728 0.046755664 0.10337636 0.06899305 -0.09690829
0.0020256408 -0.020664344 0.16579726 0.17167059 0.022192374 -0.119284004 -0.0007867511 -0.09546045
0.03196721 0.019093147 0.086625256 -0.06473028 -0.0120114675 0.081740096 -0.07261972 0.013377717
0.13494352 0.038604368 -0.05928606 -0.04062935 -0.092706606 0.13005054 0.1400468 -0.06601699
-0.08947659 0.07479115 -0.06435349 -0.015953759 -0.03676148 -0.13567267 0.06477051 -0.08146183
0.005752515 0.096206084 0.014724357 -0.04276859 0.025329433 0.044955622 0.15272258 0.08441508

fc3.weight f4 [2, 128]
00000000: abfb 933e ed61 00bf 70fb 49bd bb97 353c
00000010: bb48 01be 9b6c e0bc cc69 e03d aab1 aabe
00000020: 6576 48be 54a2 813d 21f9 63bc a90b 99bb
00000030: 9e3d 9fbd c9dc 90bd daf9 873e a1fd 2abc
00000040: f904 673d 5e0e 2ebe d8b5 60bd c90e 3c3e
00000050: af71 773e 57f0 0ebd 49a5 8ebd 2db6 c33d
00000060: 1718 1b3d d978 0bbe 5a70 84be 197b 6abe
00000070: 5549 d8bd 0e52 b23c de67 aa3b 9b77 6dbf
00000080: a252 20bc 9857 c0bd 78b2 11bd f8de 123d
00000090: df09 ad3d d09b 82bd 7ba3 8cbd 9198 15bd
000000a0: d368 74be ff6d 023d e1a9 04bd 546b 3fbe
000000b0: 4c85 9d3d bc7e 233d 5ef7 f0bd 3d87 06be
000000c0: b9f5 bbbd 51bf 873d 71a7 0a3e a2be c83e
000000d0: cc7f fa3c f049 733d 4fb4 28be 8d09 debb
000000e0: 168e 8dbc 5088 173f 1617 f1be 8f7f 26be
000000f0: 264d e739 3bc7 b93e 3632 893c aae5 aabd
00000100: 3e94 c4bd 476a d5bd 6503 07be 3679 dabd
00000110: a90b 25bd 4e1b 8e3d 1c46 4cbe 1d59 47be
00000120: d2ff ce3d 81d3 b9be 05a5 bcbd feec dbbd
00000130: 3158 34be 443a 8bbd 8844 15bc 4f76 c83d
00000140: 13cf aebc 6a14 ccbc 242f 833e 62cf a73d
00000150: d7c4 a5bd d79d 20bb 690d a43d b9ab 8bbd
00000160: 883d 7a3c be47 933d 6251 4839 2e3a e63c
00000170: 942b 72bd 75a6 a5be efe9 efbd c867 323e
00000180: df42 00bb b0a8 cd3d 1acd d23c ea5e 1a3e
00000190: 5dcf 893e 68b5 fb3d 547c 4abd b4da 693b
000001a0: b793 1c3e 0144 abbb ad3b 74be 3089 a5bd
000001b0: ab24 a1bd 7c2f a13d 4113 453e 9fc6 47bd
000001c0: c068 52be 0085 65be a17c c4bd 0433 2dbe
000001d0: 7c97 b5bc 9760 83be e335 eabd 43cf 78bd
000001e0: 2376 b7bd f555 c43d 6f45 9fbe 7a59 85bc
000001f0: a63d 72bd f34f 1cbd 9ff0 263d df51 41bb
00000200: fab7 003e 1353 343c bf90 71be b17c 4fbe
00000210: 5942 7bbe 53df 8cbd 3377 ce3d 4ce4 6ebd
00000220: 83e9 dfbd eefb 8a3d 3a64 3dbc 8e86 08be
00000230: 6c87 2fbe e0e1 b0bc 275b 83be b742 4c3f
00000240: 251b 063e e26c bc3d 04d4 bb3e 44dc 83bd
00000250: e2ec 123f 9399 ac3e f1c4 acbe bb24 8cbd
00000260: d2cf 8fba 6467 42bf 471b 003e 48f2 59bc
00000270: f91f 0a3f 46c0 cebd 1fc6 14be 7218 16be
00000280: 8e16 043f d042 943e c964 43bd 5ff9 77bd
00000290: ee2f 213f ddae 383f 1e0c 7a3e 939c b83e
000002a0: ca51 90bc c7f7 2c3e 7284 eabe 2192 893e
000002b0: f500 ddbe fe89 fa39 438c e4bd 35c1 7d3e
000002c0: 0619 a1bd eb58 f9bd 5554 e13d 48e6 86be
000002d0: 3135 dcbb e169 30bc 4add 16bd fcc1 5fbd
000002e0: 0cfb 443e 864f 1bbf 8fa1 c23e cec3 fc3d
000002f0: deab e33e e345 71bf e952 123f ef94 25bd
00000300: fd94 573e 8b3d cc3e bec5 08bf 034f e63a
00000310: 8ef0 9fbc 6193 743e eb20 653f 9e49 00be
00000320: 9f92 773f 42cb 6e3c 5e5d e13d 1fab a53d
00000330: 2c44 233e 0873 763c e24c 1f3e 76f3 7f3e
00000340: d606 923e c2d6 c1be 1fda 87be d580 9d3c
00000350: a7ea 393d d155 2bbe fc12 12bd 8916 023d
00000360: e963 173e ead2 98be b644 34be d03b fbbd
00000370: 86bd 0dbd 7954 8abe 4061 2b3e 23b7 ab3e
00000380: 7b7e 8d3e d056 afbc 891f 18bd 9409 153e
00000390: 4c74 11bf bf74 283e e2f0 943c 9e07 843e
000003a0: 6597 28be 4df2 cabd 751b a93e f806 503e
000003b0: 50f8 443f 383d 8ebd e0a3 b2be a4b2 eebd
000003c0: a75e c2bd 40f8 94be 6bc9 233f 20c3 4d3e
000003d0: 81fe e13e a845 d3bd 0925 e9be d9d9 8d3e
000003e0: 9033 84be ae47 2fbe 3bb7 d6bd 7ad3 b4be
000003f0: 8b91 d13c 34b7 a63d 5de4 d2bd 30d4 e9bd
0.28902945 -0.5014942 -0.049312055 0.011083539 -0.126254 -0.027395537 0.10957679 -0.33338672
-0.19576414 0.0632979 -0.013914377 -0.0046705795 -0.077754244 -0.070733614 0.2655781 -0.010436446
0.056401227 -0.16997668 -0.05486092 0.18365015 0.2416446 -0.034897175 -0.069651194 0.09556232
0.03786477 -0.13620318 -0.25866967 -0.2289852 -0.10560862 0.021767642 0.00520037 -0.9276063
-0.009785326 -0.09391707 -0.03557059 0.03585717 0.084491484 -0.06377375 -0.06867119 -0.03652245
-0.23868112 0.03184318 -0.03238857 -0.18693286 0.0769144 0.039915785 -0.117659315 -0.13137527
-0.09177727 0.066282876 0.13540436 0.3920794 0.030578516 0.059396684 -0.16475032 -0.006776041
-0.017279666 0.5919237 -0.47087926 -0.16259597 0.00044117233 0.36284813 0.016747575 -0.08344586
-0.095985875 -0.104206614 -0.13184889 -0.106676504 -0.040294323 0.06938802 -0.1994862 -0.19467588
0.101073876 -0.36294177 -0.092111625 -0.10738562 -0.17611767 -0.06798223 -0.009110577 0.097881906
-0.021338975 -0.024912078 0.25621903 0.08193852 -0.08094185 -0.0024508142 0.0801037 -0.06819863
0.015273459 0.07191418 0.00019103804 0.028103914 -0.05912359 -0.3235356 -0.11714541 0.17422402
-0.0019571108 0.1004194 0.025732566 0.1507527 0.26916018 0.1229046 -0.049434975 0.0035683336
0.15290724 -0.0052266126 -0.2385089 -0.08082807 -0.07868322 0.07870385 0.19245626 -0.048773404
-0.20547771 -0.22414017 -0.095940836 -0.16913992 -0.02216696 -0.2565963 -0.11436059 -0.060744535
-0.0895808 0.095867075 -0.3110766 -0.016278017 -0.059140824 -0.038162183 0.040756818 -0.0029498262
0.12570181 0.011006135 -0.23590373 -0.2026241 -0.24537028 -0.06878533 0.10081329 -0.05832319
-0.10933211 0.06786333 -0.01155954 -0.13332579 -0.17141503 -0.02159208 -0.2565548 0.797893
0.13096292 0.09200455 0.36685193 -0.06438497 0.57392704 0.33710918 -0.33744004 -0.06842943
-0.001097197 -0.7593901 0.12510405 -0.013302393 0.53955036 -0.10095267 -0.14528702 -0.14657763
0.51596916 0.28957224 -0.047703538 -0.060540553 0.6296376 0.7214182 0.24418685 0.36056957
-0.017617125 0.16891395 -0.45804173 0.268693 -0.43164793 0.00047786528 -0.11159565 0.24780734
-0.07866101 -0.12175163 0.11002413 -0.26347566 -0.006720208 -0.010767431 -0.03683213 -0.054628357
0.19236392 -0.6066822 0.38013884 0.12342034 0.44467062 -0.94247264 0.5715776 -0.040425237
0.21052928 0.39890704 -0.5342673 0.0017571155 -0.019523885 0.23884346 0.89503354 -0.12528083
0.967081 0.014574828 0.110041365 0.080892794 0.15943974 0.015042074 0.15556672 0.24995217
0.2852084 -0.3785916 -0.265336 0.019226471 0.045389798 -0.16731955 -0.035662636 0.031759772
0.14784206 -0.29848415 -0.17604336 -0.12267268 -0.03460457 -0.27017573 0.16736317 0.3353816
0.2763556 -0.0214037 -0.03713945 0.14554435 -0.5681808 0.16450785 0.018181268 0.2578706
-0.16464002 -0.099094965 0.3302876 0.20315158 0.76941395 -0.0694527 -0.34890652 -0.11655167
-0.0949071 -0.2909565 0.63979214 0.20093966 0.44139484 -0.1031602 -0.45536068 0.27705267
-0.2582059 -0.17117187 -0.10484167 -0.35317594 0.025582096 0.08140412 -0.10297463 -0.11417425

fc3.bias f4 [2]
00000000: 7ffd 533d 832d afbd
0.051755425 -0.085536025
