ddpg/checkpoint_actor.pth (torch_old, 57182 bytes, 18 tensors)

bn0.weight f4 [33]
0.7340867 0.44458622 0.7129244 0.07178859 0.03087245 0.05125688 0.0857164 0.08149724
0.08065014 0.09001737 0.10124278 0.15567736 -0.1835959 1.0481101 0.58483094 1.1079831
0.039111163 0.049029525 0.040731914 0.027951263 0.18044406 0.13754457 0.08570284 0.59599257
0.31763962 0.5683655 1.1677239 0.03616482 1.0369691 0.37341738 0.30510002 0.9320004
1.3233252
00000000: 1bed 3b3f cea0 e33e 3782 363f e505 933d
00000010: 38e8 fc3c bcf2 513d 148c af3d 06e8 a63d
00000020: e72b a53d 075b b83d 6058 cf3d e369 1f3e
00000030: 9000 3cbe 7928 863f 7bb7 153f 64d2 8d3f
00000040: 0733 203d 2fd3 483d 82d6 263d 0cfa e43c
00000050: 54c6 383e 7cd8 0c3e f884 af3d f892 183f
00000060: a9a1 a23e 6780 113f fa77 953f 9021 143d
00000070: 67bb 843f 9030 bf3e 1236 9c3e 9497 6e3f
00000080: b862 a93f

bn0.bias f4 [33]
0.0062549254 0.0059005795 0.0015251501 -0.0012888269 -0.010701937 0.0010235311 9.291768e-05 0.0005286671
0.0004163741 0.001227895 -0.010040737 0.0036584546 -0.0061641745 0.0025419325 -0.0032621955 -0.0007929592
0.00024084286 -0.0041249343 -0.0048176646 -0.0009332318 -0.0024554285 0.0085347565 0.0063869976 -0.0024307214
0.01187661 0.0025993073 0.0009550642 -0.001025628 0.0032249896 0.0020753422 0.00023614324 0.00050696987
0.0017547826
00000000: 1ef6 cc3b a659 c13b 8ce7 c73a dbed a8ba
00000010: 2d57 2fbc 0128 863a cddc c238 4096 0a3a
00000020: c94c da39 52f1 a03a e781 24bc afc2 6f3b
00000030: d8fc c9bb 8d96 263b 8fca 55bb 97de 4fba
00000040: c38a 7c39 752a 87bb 80dd 9dbb 20a4 74ba
00000050: 41eb 20bb 5dd5 0b3c 054a d13b bd4c 1fbb
00000060: 1d96 423c 2459 2a3b 465d 7a3a 5d6e 86ba
00000070: 595a 533b 7702 083b 389d 7739 2ce6 043a
00000080: bc00 e63a

bn0.running_mean f4 [33]
-0.413368 -2.7507236 0.04169602 0.8921832 -0.053440735 0.005407181 0.003406541 0.013887132
0.0032775877 0.0026682885 0.0014763399 0.012152402 -0.03192011 -0.33269855 -2.7939978 0.02482563
0.012148232 0.0057223234 0.024083566 -0.24903214 0.046220616 0.012208282 -0.010287057 0.0027215467
0.11463795 -0.043288186 0.13703924 -0.99999976 -0.037668895 0.0 0.99999976 0.0
-0.0057386975
00000000: f8a4 d3be db0b 30c0 72c9 2a3d 1e66 643f
00000010: ace4 5abd b92e b13b 4640 5f3b da86 633c
00000020: cccc 563b 74de 2e3b bf81 c13a de1a 473c
00000030: a9be 02bd 7757 aabe dcd0 32c0 1f5f cb3c
00000040: 6109 473c 5482 bb3b e64a c53c 4802 7fbe
00000050: d451 3d3d 3f05 483c 0b8b 28bc fa5b 323b
00000060: 4dc7 ea3d f44e 31bd 0454 0c3e fcff 7fbf
00000070: b34a 1abd 0000 0000 fcff 7f3f 0000 0000
00000080: af0b bcbb

bn0.running_var f4 [33]
4.159327 0.35972124 3.7956011 0.03947624 0.069461554 0.008927835 0.08320013 0.24409594
0.05270066 0.10062224 1.9747493 0.73428684 2.0743318 19.811441 1.4856476 19.836868
0.093209654 0.21565048 0.06886433 0.5589145 1.5994165 0.6381519 0.4045356 7.467716
3.242027 7.7807083 31.329258 6e-45 32.722397 6e-45 6e-45 6e-45
0.33570024
00000000: 3519 8540 622d b83e 21eb 7240 d6b1 213d
00000010: dc41 8e3d 0e46 123c d464 aa3d 49f4 793e
00000020: a6dc 573d 0813 ce3d 96c4 fc3f 39fa 3b3f
00000030: dac1 0440 d57d 9e41 b329 be3f e8b1 9e41
00000040: b4e4 be3d 7bd3 5c3e be08 8d3d 0515 0f3f
00000050: aeb9 cc3f ec5d 233f 4a1f cf3e 88f7 ee40
00000060: 5f7d 4f40 90fb f840 52a2 fa41 0400 0000
00000070: bce3 0242 0400 0000 0400 0000 0400 0000
00000080: e7e0 ab3e

fc1.weight f4 [128, 33]
-0.13655798 0.32440224 -0.65557826 0.098589055 -0.08740869 0.3112841 0.34813714 -0.22113806
-0.006661653 0.4917103 -0.47850433 0.3669405 -0.18307833 -0.3563273 -0.28304517 0.20172848
-0.20536804 0.0954039 0.10789396 -0.045275588 -0.30557323 0.14819665 -0.23882425 -0.80809754
-0.23805943 -0.12091578 0.73713773 0.046813015 -0.13144928 0.030809015 0.047633823 -0.013319165
-0.016597662 -0.7349554 -0.36555862 -1.0895431 -0.20872809 0.12908041 -0.6466869 -0.5958692
0.084589966 0.05049675 -0.64399105 -0.60176873 -0.2825192 0.85137856 0.15487467 0.34912014
0.20382927 -0.15689448 -0.24130619 -0.24518451 -0.46122497 0.21777943 -0.30324844 -0.45150065
-0.102820545 0.23349585 -0.86066514 0.10955947 0.006977294 0.4567773 -0.051599585 -0.029838555
0.031346872 0.020690113 -0.0012476344 -0.022711657 0.19905818 -0.012884772 0.38101482 0.36289942
0.3588745 0.29726794 -0.38150784 -0.35721454 0.2724657 -0.08473882 -0.24853809 -0.32388085
0.15906006 -0.099795744 -0.16595688 -0.4880494 -0.38874963 0.16902126 0.09156358 -0.4560019
-0.22808942 0.12896542 0.19494495 0.21753305 -0.31519774 0.007338575 -0.98449457 0.034025125
0.0059224702 -0.029622333 -0.83808553 0.0041400925 0.30724892 0.52131677 0.16360258 0.3578356
0.0995847 0.41040856 -0.13783555 -0.09736676 0.08071501 0.094065 0.599888 -0.011012883
0.20620061 -0.31213832 0.08831911 0.07026205 0.02130855 0.081414826 0.17780833 0.12271897
-0.04495214 -0.011983836 -0.019977324 -0.25760365 0.24787009 0.120090045 0.0030800556 -0.6622848
-0.025435092 -0.023232615 -0.051038805 -1.0508724 0.00920713 -0.33921304 -0.20385568 0.07609078
0.053056024 -0.16112188 -0.24843507 0.3644027 0.3790138 0.0926091 0.08689329 -0.1465095
0.0397997 -0.03473349 0.26884127 0.11873128 -0.3821277 0.057532564 0.35095102 -0.1460189
0.52743787 -0.18647668 -0.180992 -0.10444327 0.38926107 0.0034272266 -0.8961988 0.073280975
-0.3133273 -0.0335088 0.08731321 0.016131518 -0.96134216 -0.15339422 -0.15055688 -0.39562997
-0.469882 0.26840892 0.085347086 0.23168238 0.21537997 0.63702184 0.3341453 0.116651975
0.5694496 0.2084736 -0.547548 0.37761006 -0.04614609 0.50868046 0.12561327 -0.17787427
-0.097757846 0.77218676 -0.14947468 -0.13253765 -0.51733035 0.43629602 -0.22923484 0.27493048
0.074479155 0.40917844 0.049700905 0.068245865 -0.05751861 -0.112848155 -0.15151758 -0.059720322
-0.8557031 0.06631661 -0.22974968 0.6129802 -0.2855746 -0.3665633 0.15156418 -0.52918935
0.019293083 0.22923617 -0.19433865 0.09037271 0.30008742 0.39142177 -0.20858686 0.19274442
-0.27826 -0.59842837 -0.19583279 0.65633184 0.15771867 0.11753566 0.18676494 0.38967657
-0.10783635 -0.06629441 0.79863375 -0.06819988 -0.065444626 -0.07272504 -0.68859124 -0.12294427
-0.27336144 0.10387273 0.20905034 -0.04082796 -0.22260173 -0.12027408 0.47742298 -0.6960306
-0.10502821 -0.3739679 -0.07697752 -0.024082845 -0.009067715 0.0072655017 0.068613775 -0.11100047
0.26294544 0.29094198 0.05836785 0.0005803021 -0.13599963 0.2391034 -0.4687381 0.16505903
00000000: dbd5 0bbe 0d18 a63e fad3 27bf 0fe9 c93d
00000010: 5403 b3bd a160 9f3e 083f b23e 0472 62be
00000020: ff49 dabb 74c1 fb3e 85fe f4be a0df bb3e
00000030: e378 3bbe 8870 b6be 4ceb 90be e991 4e3e
00000040: 004c 52be 1f63 c33d 82f7 dc3d e572 39bd
00000050: 1874 9cbe ddc0 173e 588e 74be 7bdf 4ebf
00000060: dac5 73be b1a2 f7bd 0fb5 3c3f 01bf 3f3d
00000070: a49a 06be 3063 fc3c af1b 433d a138 5abc
00000080: d2f7 87bc 0926 3cbf 802a bbbe 2676 8bbf
00000090: d1bc 55be a82d 043e 468d 25bf e28a 18bf
000000a0: 813d ad3d aed5 4e3d 99dc 24bf 840d 1abf
000000b0: 5ba6 90be f2f3 593f 7797 1e3e e0bf b23e
000000c0: 9fb8 503e f2a8 20be f818 77be a611 7bbe
000000d0: ae25 ecbe 9201 5f3e 6143 9bbe 182b e7be
000000e0: 9493 d2bd 8919 6f3e 8d54 5cbf b760 e03d
000000f0: c9a1 e43b b7de e93e 165a 53bd fc6f f4bc
00000100: 9465 003d 507e a93c aa87 a3ba cc0d babc
00000110: e8d5 4b3e a71a 53bc 6014 c33e f4cd b93e
00000120: 66be b73e 8133 983e ff54 c3be d3e4 b6be
00000130: a080 8b3e 8c8b adbd c580 7ebe b6d3 a5be
00000140: a4e0 223e b661 ccbd 9af0 29be 9ce1 f9be
00000150: 310a c7be e913 2d3e b085 bb3d 1579 e9be
00000160: 4690 69be 830f 043e a69f 473e fcc0 5e3e
00000170: 9961 a1be 6e78 f03b d607 7cbf ee5d 0b3d
00000180: 4811 c23b 89aa f2bc c68c 56bf 9da9 873b
00000190: bb4f 9d3e 0475 053f 6f87 273e 3a36 b73e
000001a0: 10f3 cb3d 1221 d23e c324 0dbe 3968 c7bd
000001b0: e94d a53d 27a5 c03d 4392 193f 616f 34bc
000001c0: 4126 533e 98d0 9fbe a6e0 b43d 8de5 8f3d
000001d0: 458f ae3c d1bc a63d 6313 363e 1554 fb3d
000001e0: bc1f 38bd da57 44bc 7ca7 a3bc a0e4 83be
000001f0: a8d1 7d3e c5f1 f53d c2da 493b 7f8b 29bf
00000200: 415d d0bc 5352 bebc 110e 51bd fd82 86bf
00000210: 81d9 163c 55ad adbe 8bbf 50be 7cd5 9b3d
00000220: 4651 593d 22fd 24be c365 7ebe fe92 ba3e
00000230: 190e c23e d7a9 bd3d 1cf5 b13d 9606 16be
00000240: 0305 233d b444 0ebd 90a5 893e 6329 f33d
00000250: 3ea6 c3be 44a7 6b3d daaf b33e fb85 15be
00000260: 2b06 073f bef3 3ebe f855 39be 5ae6 d5bd
00000270: 3a4d c73e 529b 603b 496d 65bf 5614 963d
00000280: 706c a0be 8640 09bd 45d1 b23d 3f26 843c
00000290: 851a 76bf 6013 1dbe 952b 1abe 0390 cabe
000002a0: 6094 f0be e56c 893e 74ca ae3d 253e 6d3e
000002b0: 918c 5c3e dd13 233f 1815 ab3e 3be7 ee3d
000002c0: 73c7 113f 1a7a 553e 1b2c 0cbf 1b56 c13e
000002d0: af03 3dbd e238 023f c4a0 003e ac24 36be
000002e0: 4435 c8bd 08ae 453f e40f 19be f3b7 07be
000002f0: c36f 04bf 3162 df3e 8abc 6abe b0c3 8c3e
00000300: 8788 983d d67f d13e 2d93 4b3d 7dc4 8b3d
00000310: a298 6bbd ef1c e7bd 6d27 1bbe 4c9d 74bd
00000320: 5c0f 5bbf 01d1 873d 8043 6bbe 45ec 1c3f
00000330: d536 92be 2fae bbbe a433 1b3e f478 07bf
00000340: 870c 9e3c e3bc 6a3e b600 47be 5415 b93d
00000350: 0fa5 993e 6f68 c83e cb97 55be cb5e 453e
00000360: 1878 8ebe 9a32 19bf 6488 48be 5d05 283f
00000370: 0181 213e 89b6 f03d 4f3f 3f3e b083 c73e
00000380: 4ed9 dcbd 5dc5 87bd 4373 4c3f 61ac 8bbd
00000390: d507 86bd def0 94bd 8447 30bf 35ca fbbd
000003a0: 08f6 8bbe 3abb d43d 4b11 563e 383b 27bd
000003b0: b5f1 63be 4252 f6bd c970 f43e 102f 32bf
000003c0: 0819 d7bd b878 bfbe 64a6 9dbd 6349 c5bc
000003d0: c190 14bc 7213 ee3b 6185 8c3d 3754 e3bd
000003e0: c9a0 863e 59f6 943e 2013 6f3d 6a1f 183a
000003f0: 7d43 0bbe 86d7 743e 71fe efbe 3c05 293e

fc1.bias f4 [128]
-0.016076185 0.068138115 0.08893639 -0.13303328 -0.14338776 0.06663354 0.0808091 -0.08184109
0.03006847 -0.17016871 0.0029198225 0.04333974 0.0023400176 -0.02755976 0.072737545 -0.048052825
0.12981485 -0.15082185 -0.09827515 -0.14719656 -0.155831 0.12818147 -0.04405354 -0.13891631
0.03557059 -0.13201867 0.009954048 0.08306706 -0.034748957 0.08908738 0.036825042 -0.13733603
0.035577208 0.111125365 -0.041198377 0.01806751 0.021756137 0.016134474 0.045065325 -0.1665062
0.13225669 0.07592178 0.022591462 0.030486979 -0.13654752 -0.051091686 -0.00725058 0.04107183
-0.095796 0.018239556 -0.054025874 0.12789798 -0.1503268 0.017465718 0.118701816 -0.1356131
-0.006430908 0.07765692 0.07016316 0.01785219 0.068346106 -0.121348985 0.14627543 0.0035323508
0.11348615 0.039475225 -0.020002266 0.074635275 0.1661054 0.17151071 -0.14723903 0.012480059
-0.12543479 0.10093833 0.12649526 -0.121067435 -0.009169754 0.11842546 0.11536358 -0.12936409
0.11727767 -0.03134888 -0.14675018 0.03735212 0.080356486 0.096520424 -0.11933417 -0.12489083
-0.11716096 0.09855672 -0.15214059 -0.0027030557 -0.05207469 0.07667241 0.033283878 -0.08619758
0.030406177 0.159566 0.029732263 -0.08665868 0.008833125 -0.1598586 -0.111255765 -0.032828532
-0.10847678 0.14239885 0.03411447 0.13442938 -0.03936879 -0.026018977 0.044400774 -0.051082674
-0.061844073 -0.1700692 0.13041164 0.15769397 -0.1711859 -0.05761756 -0.13183391 -0.06863724
0.1326811 0.09089591 -0.013558036 0.0742997 0.04758163 0.09444756 -0.13732202 0.053985164
00000000: 34b2 83bc ff8b 8b3d 4824 b63d e039 08be
00000010: 3ed4 12be 2a77 883d 3e7f a53d 4d9c a7bd
00000020: 2752 f63c b540 2ebe 7e5a 3f3b 0385 313d
00000030: fb5a 193b 01c5 e1bc 6cf7 943d 0ad3 44bd
00000040: 2fee 043e 0b71 1abe 7b44 c9bd b2ba 16be
00000050: 2992 1fbe 0142 033e 7c71 34bd 1440 0ebe
00000060: 78b2 113d e72f 07be 4e16 233c 101f aa3d
00000070: ec54 0ebd 7273 b63d dbd5 163d d1a1 0cbe
00000080: 68b9 113d b295 e33d a1bf 28bd 5102 943c
00000090: ed39 b23c 722c 843c 6b96 383d 9a80 2abe
000000a0: 4c6e 073e e17c 9b3d bb11 b93c d4bf f93c
000000b0: 1dd3 0bbe 8445 51bd 4696 edbb ef3a 283d
000000c0: b130 c4bd 1f6b 953c 3c4a 5dbd b0f7 023e
000000d0: 45ef 19be 4414 8f3c f019 f33d 29de 0abe
000000e0: 5eba d2bb 970a 9f3d b4b1 8f3d c23e 923c
000000f0: 0bf9 8b3d d185 f8bd 3ac9 153e 037f 673b
00000100: 6d6b e83d c6b0 213d cbdb a3bc 61da 983d
00000110: 8917 2a3e 81a0 2f3e d4c5 16be 2979 4c3c
00000120: fa71 00be c1b8 ce3d f987 013e 34f2 f7bd
00000130: bc3c 16bc 0c89 f23d be43 ec3d 0578 04be
00000140: 462f f03d af67 00bd ae45 16be 89fe 183d
00000150: f191 a43d 80ac c53d 7965 f4bd c3c6 ffbd
00000160: 16f2 efbd 1bd8 c93d beca 1bbe c025 31bb
00000170: 454c 55bd 6d06 9d3d ad54 083d 5b88 b0bd
00000180: 6016 f93c 4565 233e 1391 f33c 1b7a b1bd
00000190: d0b8 103c f9b1 23be 10da e3bd 3677 06bd
000001a0: 1329 debd 01d1 113e 9dbb 0b3d dba7 093e
000001b0: 2b41 21bd c025 d5bc 96dd 353d 113c 51bd
000001c0: 3650 7dbd 9f26 2ebe a18a 053e 877a 213e
000001d0: 5b4b 2fbe 6400 6cbd 78ff 06be ae91 8cbd
000001e0: 8edd 073e a327 ba3d 8622 5ebc 712a 983d
000001f0: f5e4 423d b96d c13d 259e 0cbe 8c1f 5d3d

bn1.weight f4 [128]
0.30462652 0.41230863 0.9316266 0.4724548 0.80062944 0.47658592 0.80858874 0.7704158
0.71797746 0.61160994 0.75987196 0.6105558 0.69014853 0.41489705 0.1710996 0.6830956
0.5392925 0.6716415 0.55781984 1.0325906 0.91451854 0.49141765 0.51301813 0.54175884
0.6230301 0.9635647 0.66688794 0.5903818 0.60399425 0.5167915 0.78139615 0.6427909
0.68766636 0.6485756 0.6719145 0.5515981 0.50695074 0.8359646 0.58022606 0.6729224
-0.5052426 0.028411062 0.60342604 0.6055954 0.64640456 0.8400897 0.7771331 0.8503929
0.8231098 0.69032663 1.0420319 0.7800043 0.4389104 0.3800581 0.65408236 0.48325115
0.80304676 0.4602847 0.653154 0.9225042 0.66597503 0.0019072676 0.6887036 0.4976825
0.6770584 0.6403172 0.66323805 1.0392226 0.51813465 0.7620166 0.97743744 0.63895303
0.9820733 0.4228847 0.7999854 0.79699683 0.8090978 0.85679543 0.48826587 0.81179875
0.9427332 0.5502088 0.56768435 0.7191278 1.0137007 0.59118336 0.5740718 0.601395
0.6368728 0.84389913 -0.0075696604 0.5534713 0.8266885 0.6659706 1.067457 0.691103
-0.0035812014 0.6897272 0.64938724 0.68652165 0.3989874 0.5619089 1.0640796 0.6950429
0.003960994 0.77216905 0.6949595 0.9298175 0.6138149 0.8095047 0.5533068 0.06251258
0.72986084 0.6651237 0.6632057 0.6615084 0.7701258 0.7763478 0.69401824 0.8850788
0.4115368 0.73988837 0.7127089 0.8544278 0.42810637 0.8377943 0.82988036 0.40203014
00000000: 02f8 9b3e 1e1a d33e 157f 6e3f 98e5 f13e
00000010: 0df6 4c3f 1203 f43e acff 4e3f f839 453f
00000020: 5fcd 373f 7892 1c3f f886 423f 634d 1c3f
00000030: 93ad 303f 636d d43e bc34 2f3e 5adf 2e3f
00000040: 130f 0a3f b3f0 2b3f 48cd 0e3f ee2b 843f
00000050: e31d 6a3f 189b fb3e 2855 033f b5b0 0a3f
00000060: e77e 1f3f 2dac 763f 2bb9 2a3f 4323 173f
00000070: 5e9f 1a3f 734c 043f 9409 483f f28d 243f
00000080: e70a 303f 0d09 263f 9702 2c3f 8835 0d3f
00000090: 86c7 013f c701 563f b289 143f a444 2c3f
000000a0: 9457 01bf 51be e83c 217a 1a3f 4d08 1b3f
000000b0: c57a 253f 1e10 573f 32f2 463f 59b3 593f
000000c0: 53b7 523f 3fb9 303f 4d61 853f 5dae 473f
000000d0: ddb8 e03e fa96 c23e f171 273f b26c f73e
000000e0: 7994 4d3f 70aa eb3e 1a35 273f 3c29 6c3f
000000f0: 577d 2a3f 48fd f93a e14e 303f 3ed0 fe3e
00000100: b353 2d3f d4eb 233f f8c9 293f 3f05 853f
00000110: 79a4 043f 8513 433f 5739 7a3f 6d92 233f
00000120: 2869 7b3f 5884 d83e d8cb 4c3f fc07 4c3f
00000130: 0921 4f3f f256 5b3f fcfd f93e 0bd2 4f3f
00000140: f756 713f 7cda 0c3f c353 113f c218 383f
00000150: f2c0 813f cb57 173f 5ff6 123f 06f5 193f
00000160: 190a 233f c609 583f ea0a f8bb 4cb0 0d3f
00000170: dca1 533f 0d7d 2a3f 6ea2 883f 20ec 303f
00000180: 97b2 6abb f691 303f 3e3e 263f e2bf 2f3f
00000190: 1448 cc3e 43d9 0f3f c333 883f 55ee 313f
000001a0: 3acb 813b dfac 453f dee8 313f 8508 6e3f
000001b0: f922 1d3f b33b 4f3f 84a5 0d3f 9806 803d
000001c0: 29d8 3a3f 8c45 2a3f d9c7 293f 9d58 293f
000001d0: f726 453f bbbe 463f 2eab 313f 8694 623f
000001e0: f4b4 d23e 5369 3d3f 1774 363f c8bb 5a3f
000001f0: c230 db3e b079 563f 0a73 543f e5d6 cd3e

bn1.bias f4 [128]
-0.24672951 0.106731094 -0.502588 -0.09126349 -0.3386641 -0.91336703 -0.12111377 -0.3098946
-0.4860169 -0.18097903 -0.79754525 -0.5079728 -0.63609195 -0.22598067 0.24115555 -0.7457748
-0.4999313 -0.6934095 -0.51868755 -0.6091255 -1.1027665 -0.30869266 -0.15365966 -0.007283966
-0.1875283 -0.42984113 -0.5458544 -0.5010331 -0.23901501 -0.6432689 -0.6946088 -0.401039
-0.04984182 -0.61908436 -0.6945477 -0.08285585 -0.28207976 -0.28027043 -0.2841676 -0.40148476
0.028491944 -0.14114149 -0.36640808 -0.7005505 -0.21710692 -0.15688837 -0.07791088 -0.50222
-0.8353913 -0.62169904 -0.62825644 -0.7584583 -0.1633956 1.1776978 -0.2960972 -0.20468965
-0.43160725 0.3484961 -0.07516789 -1.1904134 -0.05922767 -0.020672834 -0.15247858 -0.7358623
-0.36749467 -0.56204194 -0.66154325 -0.60377336 -0.34087574 -0.1354015 -0.97575516 -0.37028605
-0.5631341 -0.45855248 -0.5308781 -0.7742588 -0.83500975 -0.26932007 -0.5188935 -0.11560798
-0.5826172 -0.6961818 -0.23250164 -0.48324016 -0.5439828 0.07170928 -0.36075306 -0.32902053
-0.64697856 -0.7314609 -0.04795098 -0.57873255 -0.57502276 -0.8520461 -0.6533778 -0.25534534
-0.06809814 -0.4551746 -0.6680625 -0.54954004 0.49876967 -0.2826865 -0.64776415 -0.8379528
-0.0349847 -0.10732126 -0.65418434 -0.5452906 -0.5965352 -0.42858732 -0.042657476 0.9643669
0.036401037 -0.4613622 -0.52603185 -0.33483994 -0.45744288 -0.90996826 -0.68637794 -0.8037469
-0.4374923 -0.30075485 -0.45758373 -0.13572353 -0.16954578 -0.15278059 -0.3603267 -0.11114116
00000000: a9a6 7cbe d595 da3d 9ba9 00bf 5ae8 babd
00000010: 6265 adbe 6cd2 69bf 7f0a f8bd 81aa 9ebe
00000020: 35d7 f8be 9152 39be ed2b 4cbf 810a 02bf
00000030: ecd6 22bf 7a67 67be 7bf1 763e 19eb 3ebf
00000040: fff6 ffbe 4983 31bf b5c8 04bf a6ef 1bbf
00000050: 7427 8dbf f70c 9ebe f558 1dbe 56ae eebb
00000060: 6b07 40be 2314 dcbe 1dbd 0bbf b543 00bf
00000070: 5ac0 74be 45ad 24bf e2d1 31bf fc54 cdbe
00000080: f026 4cbd 507c 1ebf e1cd 31bf 54b0 a9bd
00000090: c26c 90be 9b7f 8fbe 6a7e 91be 698f cdbe
000000a0: f067 e93c 6587 10be d799 bbbe 4757 33bf
000000b0: 4751 5ebe 58a7 20be bd8f 9fbd 7d91 00bf
000000c0: 34dc 55bf ab27 1fbf 6ad5 20bf 532a 42bf
000000d0: 2d51 27be cdbe 963f 0d9a 97be 2a9a 51be
000000e0: a0fb dcbe 156e b23e 9ff1 99bd 775f 98bf
000000f0: b798 72bd 135a a9bc 5823 1cbe 7961 3cbf
00000100: 4328 bcbe fbe1 0fbf e65a 29bf e490 1abf
00000110: 4487 aebe b1a6 0abe 17cb 79bf 2296 bdbe
00000120: 8e29 10bf 64c7 eabe a1e7 07bf d335 46bf
00000130: 33c3 55bf 52e4 89be 34d6 04bf e0c3 ecbd
00000140: 6726 15bf f838 32bf e914 6ebe 416b f7be
00000150: 7542 0bbf 51dc 923d a0b4 b8be 6175 a8be
00000160: 63a0 25bf 0641 3bbf 3f68 44bd d127 14bf
00000170: b134 13bf b11f 5abf c443 27bf a0bc 82be
00000180: 0a77 8bbd a50c e9be 2506 2bbf a8ae 0cbf
00000190: bd5e ff3e 49bc 90be dfd3 25bf 1384 56bf
000001a0: 1e4c 0fbd 40cb dbbd a078 27bf 2a98 0bbf
000001b0: 88b6 18bf cc6f dbbe 9bb9 2ebd c0e0 763f
000001c0: 4119 153d ab37 ecbe 06aa 06bf 2470 abbe
000001d0: f435 eabe aef3 68bf 77b6 2fbf 5bc2 4dbf
000001e0: fefe dfbe 8afc 99be 6a48 eabe 1cfb 0abe
000001f0: 699d 2dbe 8472 1cbe be7c b8be fa9d e3bd

bn1.running_mean f4 [128]
-0.008499257 0.055065524 0.07797996 -0.13928361 -0.1533957 0.06365473 0.093455784 -0.07547644
0.029167656 -0.16985181 0.0031820387 0.037782807 0.003683351 -0.023325795 0.08733693 -0.054528635
0.123422824 -0.14390728 -0.08241209 -0.14909266 -0.15700209 0.12546524 -0.04902104 -0.13038494
0.04093253 -0.12711066 0.013235985 0.089281395 -0.016641017 0.07984948 0.043561615 -0.12686473
0.036819555 0.10024094 -0.035206955 0.022101559 0.012462224 0.0141426725 0.04415064 -0.17002751
0.1361542 0.074094504 0.01769235 0.033628877 -0.13389483 -0.04601786 -0.0054491195 0.035696913
-0.10510644 0.017456485 -0.05128803 0.13053772 -0.14323868 0.016090294 0.122210555 -0.13113758
-0.013616331 0.07887446 0.061671454 0.019048518 0.060405005 -0.12176128 0.14172119 0.014661968
0.110688806 0.02770145 -0.020349652 0.080828905 0.14627773 0.16113614 -0.1468075 0.005682768
-0.117592216 0.106671065 0.12944433 -0.12961094 -0.011056684 0.1111685 0.10741195 -0.13583367
0.11420175 -0.013176602 -0.14757265 0.03447547 0.08667538 0.097211644 -0.116635635 -0.124229975
-0.114113726 0.09805493 -0.15247107 -0.012298297 -0.0297469 0.07338464 0.045323893 -0.07636034
0.03091266 0.16268855 0.023724234 -0.06924209 0.010948744 -0.16310069 -0.121675804 -0.025432343
-0.10575208 0.14316607 0.044781856 0.13075851 -0.037290435 -0.0249868 0.03152915 -0.057972714
-0.068982534 -0.17157766 0.13008213 0.15242614 -0.1940425 -0.054006834 -0.12877537 -0.06858929
0.12775864 0.08626025 -0.0045065526 0.07315095 0.052604362 0.083782025 -0.14175409 0.0713797
00000000: 7840 0bbc 638c 613d f5b3 9f3d 5da0 0ebe
00000010: c313 1dbe 695d 823d bf65 bf3d 6493 9abd
00000020: 02f1 ee3c a2ed 2dbe c089 503b 25c2 1a3d
00000030: 6064 713b bd15 bfbc b4dd b23d 6b59 5fbd
00000040: 1bc5 fc3d 6e5c 13be abc7 a8bd bfab 18be
00000050: 28c5 20be f679 003e 49ca 48bd a183 05be
00000060: dea8 273d 4c29 02be bfdb 583c 2ad9 b63d
00000070: be52 88bc 2088 a33d aa6d 323d d4e8 01be
00000080: 1ad0 163d 1f4b cd3d 2b35 10bd 540e b53c
00000090: 5b2e 4c3c abb6 673c 4dd7 343d b11b 2ebe
000000a0: 026c 0b3e dcbe 973d 8cef 903c 6fbe 093d
000000b0: ba1b 09be 397d 3cbd 878e b2bb ed36 123d
000000c0: 0c42 d7bd e700 8f3c 6613 52bd aeab 053e
000000d0: 29ad 12be cbcf 833c 8749 fa3d ee48 06be
000000e0: 0817 5fbc ef88 a13d 359b 7c3d a30b 9c3c
000000f0: 3d6b 773d fa5d f9bd 5c1f 113e c038 703c
00000100: d0b0 e23d 27ee e23c 50b4 a6bc a089 a53d
00000110: d4c9 153e df00 253e b554 16be 8336 ba3b
00000120: 30d4 f0bd 5c76 da3d 0e8d 043e bbb8 04be
00000130: 1827 35bc 4fac e33d ccfa db3d fb17 0bbe
00000140: 9be2 e93d ade2 57bc 491d 17be 2736 0d3d
00000150: dd82 b13d e616 c73d aade eebd 496c febd
00000160: 75b4 e9bd 06d1 c83d 6021 1cbe cc7e 49bc
00000170: c5af f3bc b04a 963d 8ca5 393d cf62 9cbd
00000180: 8c3c fd3c d497 263e 5359 c23c ccce 8dbd
00000190: 5c62 333c de03 27be 2a31 f9bd 7d57 d0bc
000001a0: 8c94 d8bd 209a 123e 2e6d 373d 8fe5 053e
000001b0: dbbd 18bd 1eb1 ccbc b624 013d cc74 6dbd
000001c0: b746 8dbd 0eb2 2fbe 4034 053e 9915 1c3e
000001d0: 14b3 46be 4536 5dbd b1dd 03be 8b78 8cbd
000001e0: 29d3 023e 37a9 b03d b4ab 93bb 2ad0 953d
000001f0: ac77 573d e995 ab3d fc27 11be 852f 923d

bn1.running_var f4 [128]
0.57568234 0.4367537 2.7935271 2.1440616 2.9242656 0.31167242 1.4899981 2.3526185
0.7785938 1.7053736 1.214779 1.3910865 2.1200097 0.98009795 0.64255404 2.1914227
1.4118178 1.8967881 0.41161266 0.9965207 1.0047917 2.6476738 1.1474516 0.3070153
1.124792 1.9246496 0.74678063 1.4991591 1.242642 0.8479556 2.2775238 0.28325438
1.0325358 2.333002 0.31665385 0.6135945 1.4819158 0.08480608 0.75110203 0.34127516
1.3730922 0.44403735 0.3417835 1.1639924 2.085964 0.62069094 0.06952212 2.0573235
2.945814 1.2081702 1.7413212 0.34163547 1.5994655 0.27065283 0.409243 1.0072731
1.6126485 0.86354357 1.3514948 0.6429559 1.1887962 0.05232539 1.5062325 0.7953345
0.5310644 0.8205313 0.6286365 3.405942 0.4495745 1.5887651 0.72740525 1.4877235
1.6163392 1.5783432 0.0827269 1.380009 4.221025 1.6812736 1.0669563 0.78002125
0.8146338 0.68490225 0.32500663 1.4183731 0.84195 0.14434786 2.2668574 0.551959
1.7239174 0.89452565 0.010088225 0.23769332 2.9819326 0.35613889 2.5840278 0.71420234
0.13619508 1.1529393 2.7581282 1.0246816 0.67476445 0.6046997 2.7137294 4.253496
0.025493156 0.5772838 3.0826824 2.7223036 0.7330429 1.8202654 0.4253455 0.88934815
1.0601852 0.91041 2.256807 2.2623136 2.7303941 0.48888236 0.6956694 2.3934548
1.1682007 0.9507983 1.585057 0.47778478 0.31760344 1.6231762 0.14690848 0.7271004
00000000: eb5f 133f 2e9e df3e 26c9 3240 4e38 0940
00000010: 2b27 3b40 8793 9f3e 42b8 be3f 4d91 1640
00000020: ec51 473f af49 da3f e17d 9b3f 1f0f b23f
00000030: 3dae 0740 b3e7 7a3f 6c7e 243f 4540 0c40
00000040: 72b6 b43f f4c9 f23f e5be d23e fb1b 7f3f
00000050: 049d 803f 7d73 2940 b2df 923f 1c31 9d3e
00000060: 2ff9 8f3f eb5a f63f 042d 3f3f 72e4 bf3f
00000070: e50e 9f3f 9e13 593f f3c2 1140 b806 913e
00000080: 222a 843f e84f 1540 7420 a23e 8714 1d3f
00000090: 6baf bd3f cfae ad3d 3948 403f 9ebb ae3e
000000a0: 7cc1 af3f dd58 e33e 3ffe ae3e b4fd 943f
000000b0: 6f80 0540 9ae5 1e3f 9d61 8e3d 30ab 0340
000000c0: 3788 3c40 52a5 9a3f 9de3 de3f d8ea ae3e
000000d0: 49bb cc3f 0293 8a3e 4c88 d13e 53ee 803f
000000e0: 446b ce3f 3111 5d3f c8fd ac3f c298 243f
000000f0: 792a 983f 2653 563d 3acc c03f 0b9b 4b3f
00000100: d6f3 073f 570e 523f 52ee 203f f4fa 5940
00000110: a12e e63e a85c cb3f 3b37 3a3f b96d be3f
00000120: 34e4 ce3f 2607 ca3f b96c a93d 23a4 b03f
00000130: a312 8740 f933 d73f 0692 883f 79af 473f
00000140: d78b 503f c155 2f3f 4567 a63e 408d b53f
00000150: 098a 573f edcf 133e 3114 1140 2f4d 0d3f
00000160: 53a9 dc3f a2ff 643f 1549 253c e165 733e
00000170: fcd7 3e40 d657 b63e b660 2540 f7d5 363f
00000180: b976 0b3e 8493 933f 2c85 3040 c428 833f
00000190: 5dbd 2c3f 99cd 1a3f bead 2d40 a41c 8840
000001a0: 06d7 d03c dfc8 133f ab4a 4540 393a 2e40
000001b0: b3a8 3b3f 75fe e83f e3c6 d93e 52ac 633f
000001c0: 26b4 873f a110 693f 876f 1040 bfc9 1040
000001d0: c7be 2e40 ca4e fa3e 6417 323f 5d2e 1940
000001e0: 9a87 953f 8467 733f 26e3 ca3f 35a0 f43e
000001f0: eb9c a23e 3dc4 cf3f 2d6f 163e 4023 3a3f

fc2.weight f4 [64, 128]
-0.21756448 -0.13956304 -0.45185292 -0.22003943 0.6616033 0.8841096 -0.18788059 -0.15066001
-0.16630532 0.30039525 0.027151993 0.117865756 0.06367072 0.12544902 0.34904057 0.09615215
0.42610362 1.1073354 0.56984234 -0.009354355 0.23514232 -0.44376248 0.21349221 -0.08259315
0.33683854 -0.4823772 -0.24313349 -0.11604535 0.02846264 0.03558777 -0.009233968 0.60199773
-0.5088645 -0.08953897 0.6014633 -0.060170516 0.20159599 0.14285523 -0.084396854 0.27477464
-0.5786469 -0.15982203 0.034882315 0.7204431 -0.08660154 -0.608192 0.49125305 0.2251924
-0.065500766 -0.85088927 -0.4541347 1.1169978 0.5638004 0.6183507 -0.06308374 -0.43259454
0.31757212 0.29724872 -0.8480176 0.43539065 0.30408946 -0.04267694 0.30947378 0.27082938
0.027587071 0.5717605 0.22996034 -0.23299888 0.42295733 -0.0791113 0.5541761 0.010367228
-0.034303043 0.5153871 0.41095793 -0.26610255 0.6923884 -0.49963057 0.35984522 0.3145027
0.051970296 -0.014034495 0.02656188 0.014941398 0.17961122 0.44469604 0.015283796 0.033369612
0.19472227 0.021356288 -0.04033505 0.5215551 -0.39721808 0.001959747 0.13442115 0.020562936
0.06356171 0.096606135 0.15606244 -0.3997989 0.3781236 0.19724084 -0.90228987 -0.09584235
-0.0086814985 0.17617261 -0.5067844 0.17426787 0.35745004 0.17925729 -0.52263606 -0.54780227
-0.54595965 0.14049058 -0.41351655 -0.07908459 -0.5675603 0.2779801 -0.23033375 0.78845906
0.015596649 0.778666 -0.06405408 -0.30664998 -0.19527683 -0.16549817 0.5358841 0.0048086834
0.8620457 -0.066550866 0.40440407 -0.31415787 0.47554666 0.023309588 0.17875126 0.5231955
0.104501575 -0.5517662 -0.38640177 -0.19096036 0.057105087 -1.2942725 -0.36922365 1.1038018
0.1308666 0.6799354 -0.8329821 -0.60545385 0.97555786 0.38794127 -0.23666602 0.2441228
0.35066542 0.5275618 -0.29214734 -0.03188736 -0.31174457 -1.1926104 -0.57044655 -0.04965252
-0.0015305653 -0.18294565 0.3352839 0.4434691 0.75541705 0.3940083 0.26601627 0.49610013
0.56885856 -0.01913834 0.3362304 0.49231687 -0.11126638 0.1395651 -0.28594592 -1.1083795
-0.8110682 0.0019746292 -0.001447066 -0.15103091 0.14789447 -0.49618345 -0.25253323 0.21522227
-0.59332293 -0.13021304 -0.025742106 -0.39202017 0.21522331 -0.03687205 0.013962879 1.2655721
-1.1194755 -0.4432693 0.4296679 0.3609043 -0.5186763 0.81590873 0.4025566 0.07670138
-0.041914254 -0.08896539 -0.32889757 -0.11888699 -1.3720657 0.13704525 0.42605245 -0.0057361256
0.029273275 0.24356553 -0.48583108 -0.10357549 -0.26412296 0.37461933 0.09705679 0.034047276
0.23634598 0.7042447 0.119240664 -0.756403 -1.2650657 -0.029767515 -0.20137928 -0.65696526
0.07003127 -1.5105811 0.90639746 0.5035921 -0.41696382 -0.15839092 0.23231587 0.0721243
-0.14454983 -0.55613166 -0.98720926 -0.24585263 0.091663375 -0.2534234 0.08742199 -0.2031991
0.6308164 -0.6277208 -0.1315332 -0.56346375 0.37431335 0.19363718 -0.027945451 -0.6827085
-0.2710444 0.1226342 0.92647517 0.11911016 -0.7435943 0.11187777 -0.5189097 0.050839353
00000000: 39c9 5ebe 9de9 0ebe 4459 e7be 0452 61be
00000010: d55e 293f 0255 623f c563 40be 9e46 1abe
00000020: f14b 2abe 68cd 993e db6d de3c 9a63 f13d
00000030: cb65 823d b575 003e 72b5 b23e 6beb c43d
00000040: 412a da3e 2bbd 8d3f 30e1 113f 0243 19bc
00000050: 26c9 703e d634 e3be b49d 5a3e 9926 a9bd
00000060: 1a76 ac3e 25fa f6be fcf7 78be 2fa9 edbd
00000070: 7b2a e93c 7bc4 113d 124a 17bc 861c 1a3f
00000080: f244 02bf 3560 b7bd 80f9 193f 5c75 76bd
00000090: 2e6f 4e3e a448 123e 42d8 acbd 43af 8c3e
000000a0: 3422 14bf 63a8 23be c2e0 0e3d f66e 383f
000000b0: 265c b1bd 79b2 1bbf 8585 fb3e d698 663e
000000c0: 4425 86bd e1d3 59bf 5884 e8be c9f9 8e3f
000000d0: 3955 103f 3b4c 1e3f 0c32 81bd 087d ddbe
000000e0: d098 a23e fc30 983e ae17 59bf 86eb de3e
000000f0: 9db1 9b3e 04ce 2ebd 5973 9e3e 26aa 8a3e
00000100: 48fe e13c e55e 123f b97a 6b3e 4297 6ebe
00000110: dd8d d83e 1b05 a2bd 7cde 0d3f 4edb 293c
00000120: 5981 0cbd 69f0 033f 1469 d23e 983e 88be
00000130: 5e40 313f 94cf ffbe a23d b83e 7f06 a13e
00000140: cede 543d f0f0 65bc 4d98 d93c c4cc 743c
00000150: 01ec 373e 33af e33e e368 7a3c 93ae 083d
00000160: 4665 473e 62f3 ae3c 5e36 25bd a384 053f
00000170: 2b60 cbbe 196f 003b b3a5 093e 9a73 a83c
00000180: a42c 823d 70d9 c53d d5ce 1f3e 71b2 ccbe
00000190: 6b99 c13e 81f9 493e 78fc 66bf fe48 c4bd
000001a0: d83c 0ebc 9866 343e 9fbc 01bf 4773 323e
000001b0: b103 b73e 398f 373e 7acb 05bf c53c 0cbf
000001c0: 03c4 0bbf c3dc 0f3e 71b8 d3be 1af7 a1bd
000001d0: a24b 11bf 6853 8e3e 9cdc 6bbe 74d8 493f
000001e0: 1689 7f3c a856 473f c92e 83bd 3a01 9dbe
000001f0: a6f6 47be 5a78 29be b32f 093f 2992 9d3b
00000200: 07af 5c3f d24b 88bd 0d0e cf3e 4dd9 a0be
00000210: da7a f33e c0f3 be3c 920a 373e 24f0 053f
00000220: ec04 d63d 8d40 0dbf 74d6 c5be 1d8b 43be
00000230: 06e7 693d b9aa a5bf e20a bdbe 6149 8d3f
00000240: e501 063e 3f10 2e3f 513e 55bf 06ff 1abf
00000250: 29be 793f 3da0 c63e 9458 72be 54fb 793e
00000260: 6b8a b33e 4a0e 073f 5694 95be 529c 02bd
00000270: fc9c 9fbe 75a7 98bf c908 12bf 7160 4bbd
00000280: 409d c8ba 1b56 3bbe 55aa ab3e 620e e33e
00000290: 0363 413f 75bb c93e 4933 883e d600 fe3e
000002a0: b7a0 113f 02c8 9cbc 6426 ac3e f510 fc3e
000002b0: a1df e3bd 27ea 0e3e 8167 92be 61df 8dbf
000002c0: 2aa2 4fbf c868 013b 7aab bdba d9a7 1abe
000002d0: a671 173e c20b febe 094c 81be 3a63 5c3e
000002e0: 03e4 17bf 9156 05be 1ce1 d2bc deb6 c8be
000002f0: 8063 5c3e 2607 17bd 8fc4 643c 44fe a13f
00000300: f94a 8fbf 32f4 e2be 6efd db3e 73c8 b83e
00000310: f8c7 04bf 65df 503f e61b ce3e 9d15 9d3d
00000320: 48ae 2bbd 7d33 b6bd 4365 a8be 067b f3bd
00000330: d99f afbf 9755 0c3e 8c23 da3e 1cf6 bbbb
00000340: 82ce ef3c 3e69 793e dabe f8be 631f d4bd
00000350: 203b 87be 1bce bf3e b6c5 c63d 2875 0b3d
00000360: ae04 723e 6149 343f 7334 f43d a1a3 41bf
00000370: aced a1bf 01db f3bc 5f36 4ebe e02e 28bf
00000380: 8e6c 8f3d b95a c1bf aa09 683f 69eb 003f
00000390: 487c d5be 3b31 22be 36e4 6d3e e8b5 933d
000003a0: df04 14be a55e 0ebf bfb9 7cbf cbc0 7bbe
000003b0: 02ba bb3d b6c0 81be 4d0a b33d 6d13 50be
000003c0: 2f7d 213f 4fb2 20bf a4b0 06be 293f 10bf
000003d0: 00a6 bf3e d348 463e dced e4bc fcc5 2ebf
000003e0: 55c6 8abe a427 fb3d 7a2d 6d3f 07f0 f33d
000003f0: 325c 3ebf 2c20 e53d 44d7 04bf ed3c 503d

fc2.bias f4 [64]
0.068529785 0.08313651 0.039746083 -0.07072551 -0.023767928 -0.008670885 0.079296336 -0.07550704
-0.06275224 0.047217507 0.030031797 -0.026730994 -0.07412045 -0.010494261 0.055753443 0.078443885
-0.0023121731 -0.052619934 0.025563855 0.067051895 -0.05306952 0.020559724 0.04936362 -0.013150375
-0.07402133 -0.04518505 -0.08607293 -0.0030213422 0.06473159 -0.006301251 0.06682654 -0.07007862
0.08455429 -0.024441732 -0.058811564 0.072208 -0.018620374 -0.008724316 0.039287932 -0.011649422
-0.0021373886 0.04210674 0.08275778 -0.038823158 0.0027558338 -0.024055742 0.005722474 0.05322115
0.06332586 -0.018090338 -0.048236303 0.042373367 -0.06298726 -0.08797818 -0.036619972 -0.06437401
-0.061543226 0.03638192 0.019547166 0.04497505 0.019498779 0.019321589 0.06724088 0.049510665
00000000: 5859 8c3d 7943 aa3d cacc 223d 89d8 90bd
00000010: f5b4 c2bc 5410 0ebc 1e66 a23d 6fa3 9abd
00000020: 3f84 80bd 2567 413d 3e05 f63c f5fa dabc
00000030: 76cc 97bd 1ff0 2bbc b95d 643d 30a7 a03d
00000040: d487 17bb 0088 57bd 4a6b d13c 8152 893d
00000050: 6d5f 59bd de6c a83c 8231 4a3d ac74 57bc
00000060: 7f98 97bd f613 39bd 0147 b0bd b601 46bb
00000070: ff91 843d b97a cebb 5adc 883d 6185 8fbd
00000080: cd2a ad3d 073a c8bc 65e4 70bd cae1 933d
00000090: c189 98bc 6ff0 0ebc 62ec 203d 38dd 3ebc
000000a0: 6e13 0cbb 1e78 2c3d e97c a93d 0805 1fbd
000000b0: 389b 343b 8c10 c5bc 9783 bb3b 6cfe 593d
000000c0: fdb0 813d 3032 94bc 6e93 45bd b28f 2d3d
000000d0: 77ff 80bd e72d b4bd d3fe 15bd 85d6 83bd
000000e0: c014 7cbd 3505 153d 6121 a03c c237 383d
000000f0: e7bb 9f3c 4f48 9e3c 96b5 893d b2cb 4a3d

bn2.weight f4 [64]
1.3361442 1.4710488 1.9863554 1.991194 1.9054396 1.6268927 2.120695 1.2144179
0.9219782 1.4309987 0.9731763 1.0513221 1.6435992 1.6933602 1.1253197 1.9278742
1.4224238 1.3061543 0.9244802 1.2336345 1.2380738 1.3359432 1.3547633 1.7598546
1.0560291 1.1842446 1.1460315 1.2229924 1.2333637 0.9477846 2.1853418 1.0930513
1.3254486 1.5817245 1.2390044 1.5413735 1.4716984 1.3115233 1.1170781 1.0414611
1.6726335 1.7440463 1.7477922 2.2289836 1.5892755 1.7684658 1.8068027 1.6849334
2.3161824 1.58492 1.021094 1.7785239 1.5994418 1.5765164 1.8843782 1.9794788
1.91537 1.576851 1.37769 1.3834686 1.5991434 1.0047969 1.461227 0.9286009
00000000: c606 ab3f 544b bc3f e540 fe3f 72df fe3f
00000010: 72e5 f33f 053e d03f 78b9 0740 0c72 9b3f
00000020: c306 6c3f f72a b73f 1522 793f b991 863f
00000030: 7561 d23f 07c0 d83f 7a0a 903f 95c4 f63f
00000040: fc11 b63f 1030 a73f bcaa 6c3f bce7 9d3f
00000050: 3479 9e3f 3000 ab3f e268 ad3f ea42 e13f
00000060: f62b 873f 5495 973f 29b1 923f 048b 9c3f
00000070: ddde 9d3f 03a2 723f a4dc 0b40 1be9 8b3f
00000080: 4da8 a93f f375 ca3f b297 9e3f ba4b c53f
00000090: 9d60 bc3f ffdf a73f 6afc 8e3f 994e 853f
000000a0: db18 d63f e93c df3f a8b7 df3f aba7 0e40
000000b0: 616d cb3f 165d e23f 5045 e73f e6ab d73f
000000c0: 553c 1440 a9de ca3f 35b3 823f aca6 e33f
000000d0: 82ba cc3f 4acb c93f 4e33 f13f 905f fd3f
000000e0: d82a f53f 41d6 c93f 2558 b03f 8015 b13f
000000f0: bbb0 cc3f 2f9d 803f 7d09 bb3f cab8 6d3f

bn2.bias f4 [64]
-1.0373065 -0.366134 -0.60904855 -1.077102 -0.9787917 -0.4277099 -0.8732735 -0.30105066
-1.173651 -1.7716758 -0.76870036 -0.3178325 -0.34130302 0.08865902 -0.45369634 -0.09247667
-1.2207755 -0.21559739 -0.24151723 -1.2731056 -0.8008159 -1.0252842 -1.9581041 -0.14167593
0.24763758 -1.0072794 -0.6022192 -1.0997219 -0.6843287 -0.3631059 -1.0136919 -2.1593113
-0.22289574 -2.29755 -0.884005 -0.19850478 -0.15348893 -1.108917 -1.1406136 -0.1378587
-1.2369995 -0.8935194 -2.5925903 -0.7388983 -1.0224221 -3.2136607 -1.8904636 -1.7967244
-1.0574584 -0.5512968 -0.47534543 -0.8825151 -1.2926327 -0.5330841 -1.6061256 -0.2562381
-0.8645591 -0.9452387 -0.47526464 -1.4141879 -1.3220587 0.20945242 -0.89655715 0.1082586
00000000: 76c6 84bf ea75 bbbe 9bea 1bbf 7ade 89bf
00000010: 1892 7abf cbfc dabe da8e 5fbf 5023 9abe
00000020: 323a 96bf 46c6 e2bf 8cc9 44bf f1ba a2be
00000030: 45bf aebe dc92 b53d e34a e8be 6964 bdbd
00000040: 5f42 9cbf 90c5 5cbe 4b50 77be 20f5 a2bf
00000050: 4502 4dbf 833c 83bf 28a3 fabf 7f13 11be
00000060: b594 7d3e 88ee 80bf 0a2b 1abf b0c3 8cbf
00000070: 2a30 2fbf 04e9 b9be a8c0 81bf 2832 0ac0
00000080: c83e 64be 0f0b 13c0 274e 62bf d644 4bbe
00000090: 342c 1dbe fef0 8dbf a0ff 91bf d52a 0dbe
000000a0: 0056 9ebf b0bd 64bf 00ed 25c0 7028 3dbf
000000b0: bade 82bf 9eac 4dc0 b6fa f1bf 11fb e5bf
000000c0: cc5a 87bf c921 0dbf 7a60 f3be 82ec 61bf
000000d0: fd74 a5bf 3378 08bf 8695 cdbf a431 83be
000000e0: bf53 5dbf 2afb 71bf e355 f3be 1c04 b5bf
000000f0: 3839 a9bf b27a 563e c584 65bf afb6 dd3d

bn2.running_mean f4 [64]
0.4028323 -0.9531904 -1.6580951 -0.6545652 0.7475286 -0.415505 -0.22448508 0.1205798
-1.1095029 0.6958412 -1.6820434 -0.49225998 -0.86352503 -1.4835835 -0.17350566 -0.91663957
-2.5521195 2.3227649 1.749184 -0.26716104 -0.35571682 0.1252702 0.4431448 -2.3322613
1.4284191 -0.285289 -2.1800582 0.82350284 -2.968777 0.43435967 -1.5008154 0.2062008
0.7225645 -0.18732284 -1.49777 1.501455 -1.6441102 -1.1301091 -1.2444903 -1.7307118
-0.31036624 1.1105702 0.6331433 0.91123194 -0.6921315 0.59212416 -0.1960865 -0.89107174
-0.7338877 1.094455 -0.10238393 1.3457999 -1.0022937 -1.6959273 -0.3612024 -0.04918377
-1.0728557 -1.0464851 -1.0913646 -1.4028234 0.97240835 0.5825328 -1.2051622 -0.0059790136
00000000: 0940 ce3e 4904 74bf 763c d4bf 9691 27bf
00000010: 095e 3f3f 12bd d4be 6bdf 65be 8bf2 f63d
00000020: 3104 8ebf a622 323f 334d d7bf 8009 fcbe
00000030: fa0f 5dbf 10e6 bdbf 78ab 31be e4a8 6abf
00000040: ed55 23c0 2ea8 1440 43e5 df3f 55c9 88be
00000050: 8420 b6be d546 003e e0e3 e23e c543 15c0
00000060: 70d6 b63f 6611 92be 1386 0bc0 15d1 523f
00000070: 7100 3ec0 6464 de3e b81a c0bf 4d26 533e
00000080: fdf9 383f 8fd1 3fbe edb6 bfbf ad2f c03f
00000090: 3472 d2bf 6aa7 90bf 754b 9fbf f787 ddbf
000000a0: 53e8 9ebe 2a27 8e3f ae15 223f 7f46 693f
000000b0: 882f 31bf 7395 173f e6ca 48be 471d 64bf
000000c0: 10e0 3bbf 1a17 8c3f aaae d1bd 2c43 ac3f
000000d0: 294b 80bf 2514 d9bf 85ef b8be ec74 49bd
000000e0: 5653 89bf 39f3 85bf d6b1 8bbf b88f b3bf
000000f0: c1ef 783f df20 153f c142 9abf 9aeb c3bb

bn2.running_var f4 [64]
1.1012114 1.6765609 7.771297 5.6892457 1.6856514 1.6141903 2.2867675 4.0187864
0.82056653 2.1982152 3.4664311 1.9513193 1.5711403 3.3534942 5.778144 1.8860056
4.4301105 1.4988433 3.2401557 3.2937152 3.964564 4.7305965 2.2178352 2.668236
4.7683825 3.623909 4.1194563 1.6337143 10.329521 2.3431015 2.4353673 0.98462844
2.2008054 1.2424483 0.81544125 3.400882 2.3569624 3.5010383 2.7185135 2.2596073
2.31033 5.338654 1.5607219 1.5423295 1.5758275 1.4550855 2.3292031 2.2033672
3.4012096 3.1993961 1.7276311 6.6803994 1.3507844 1.4728457 2.5001907 2.7914248
1.9444747 8.241117 1.5090433 0.679557 1.6342379 1.8675339 1.3889477 2.2143652
00000000: 7ff4 8c3f 8c99 d63f 77ae f840 4d0e b640
00000010: 6dc3 d73f ca9d ce3f 665a 1240 e699 8040
00000020: a610 523f 8faf 0c40 02da 5d40 d5c4 f93f
00000030: 201b c93f a69f 5640 8ee6 b840 a268 f13f
00000040: 77c3 8d40 19da bf3f b65e 4f40 3bcc 5240
00000050: 6bbb 7d40 0c61 9740 03f1 0d40 61c4 2a40
00000060: 9796 9840 20ee 6740 96d2 8340 8d1d d13f
00000070: b845 2541 60f5 1540 0fdd 1b40 9c10 7c3f
00000080: ffd9 0c40 8c08 9f3f c2c0 503f 0da8 5940
00000090: 79d8 1640 0311 6040 20fc 2d40 689d 1040
000000a0: 72dc 1340 41d6 aa40 bcc5 c73f 0e6b c53f
000000b0: b7b4 c93f 3e40 ba3f aa11 1540 f803 0d40
000000c0: 6bad 5940 e8c2 4c40 0423 dd3f d5c5 d540
000000d0: 81e6 ac3f 3586 bc3f 2003 2040 b4a6 3240
000000e0: 8ce4 f83f 9ddb 0341 5528 c13f 73f7 2d3f
000000f0: b52e d13f 5a0b ef3f 0ac9 b13f 29b8 0d40

fc3.weight f4 [4, 64]
0.17696556 -0.59272933 0.7484326 -0.81496185 1.1567163 1.5166814 -1.8741938 -0.44273457
1.4135474 -0.04096205 0.4712858 0.22054878 0.2727203 0.14007446 0.92465305 -0.6833497
0.6168482 0.049987286 -0.060135234 -1.5121229 -0.06555282 0.67018443 1.80532 -1.5162239
0.7539875 0.06517203 -0.07034932 -0.039809443 -0.8713917 -0.37646186 0.7753175 0.7215241
1.2303797 0.87462926 1.3691213 0.28427678 1.1361758 -1.1221873 -0.0650557 -0.24635495
-0.5044664 1.6419333 -0.21319385 -1.0142202 -0.8633139 0.8074661 -0.1643396 -1.4901775
2.524096 0.7387763 0.5421738 0.2349809 -2.2321334 0.10950646 0.14362891 -0.50901127
-0.8081618 -0.49266326 -1.6187801 -0.11091976 -0.034421142 -0.26152694 0.3955133 0.2993848
0.74518394 0.7215739 -0.36202425 -1.6090829 -0.70908314 0.9378336 0.6252174 -0.5294592
-0.5729251 -0.13497448 0.3666758 0.064906284 -1.8514484 1.2414583 0.12802917 -1.5177213
0.30163458 1.5501214 -0.9338105 0.3385041 0.033574823 0.45570725 1.143443 0.20750915
0.48020226 0.29431847 1.1871753 0.03943665 0.17602333 -0.49861386 1.1721468 0.9902155
-0.9170206 1.8859673 0.17043188 -0.26437753 0.44798562 0.07402596 0.39503714 0.23674671
-0.67318606 -0.6819063 0.80346423 0.330769 0.23046699 -0.28222066 -0.22629221 -0.76924336
-0.12690116 -0.11959228 0.025282523 -0.076239794 -0.6669033 -1.7505934 1.2749944 -1.0430672
-1.0593477 1.6746489 -0.13009357 1.8901056 -0.06678892 -1.1144767 -0.55061287 -1.4388249
0.0615969 -0.0035746747 0.46330464 -0.0696892 -0.032457244 -0.0013910806 -0.050542325 -0.32964554
1.8226588 1.3833662 -0.04096886 -0.5292888 0.03769501 0.06883903 -0.33000106 0.006157135
-0.16599502 -0.005753434 0.35339916 0.24946912 1.0531704 0.50364923 -0.9946132 -0.060687643
0.2387113 -0.17398106 -0.14179564 0.72515744 0.3496953 0.34715796 -0.045299802 1.8309288
0.061328672 0.073519506 0.7537846 -0.78200597 -0.09869804 -0.07745461 -0.75088984 -0.4019234
-1.4137424 0.25486866 -1.0506264 -0.04333258 -0.014774242 -0.16556917 -0.59215873 0.8696451
0.057665825 -0.06280413 0.5079661 -0.24965337 0.009831444 -0.08744485 0.11292624 -0.0015237399
0.00027282076 -0.26634952 -0.12975466 0.045862366 -0.6877493 0.057149854 -0.008433646 0.059178647
1.1149434 -0.27190763 0.21536566 -0.22646457 -0.1070669 -0.028598286 0.044873893 -0.20645419
-0.5264094 0.20765443 -0.7102604 0.0641008 0.15028699 -0.23143771 0.6849951 0.12205646
0.8621223 0.005281825 -0.589109 -0.31403357 0.14569546 -1.0026561 -0.7519933 0.0067328494
0.71936756 -1.0010537 0.5075354 -0.13536596 -0.14208135 -0.15069129 0.3042962 0.6592717
-0.37446406 -1.1002136 -0.5446509 0.035894156 -0.19391896 -0.8722997 0.5167037 0.43152657
0.10661495 -0.14533189 0.480729 0.33197722 0.69753754 -2.2718499 -0.29683167 -0.6831286
0.1420421 0.61003184 -0.28970835 0.77567893 -0.40246645 0.113016136 0.26526177 0.19630699
0.43044704 -0.44157305 0.38093135 0.13466877 0.29176348 -0.5372939 -2.0970538 -0.2856549
00000000: 7636 353e 1cbd 17bf 4799 3f3f 57a1 50bf
00000010: 480f 943f 9e22 c23f 95e5 efbf 1bae e2be
00000020: 1fef b43f d3c7 27bd 5f4c f13e 8ad7 613e
00000030: ffa1 8b3e ae6f 0f3e 10b6 6c3f 02f0 2ebf
00000040: c3e9 1d3f 78bf 4c3d 5d50 76bd 3e8d c1bf
00000050: 8f40 86bd 3591 2b3f ba14 e73f a013 c2bf
00000060: 5305 413f ea78 853d 4e13 90bd 3a0f 23bd
00000070: 8713 5fbf 9cbf c0be 357b 463f ceb5 383f
00000080: 157d 9d3f b4e7 5f3f 5e3f af3f ba8c 913e
00000090: 356e 913f d5a3 8fbf ec3b 85bd 7944 7cbe
000000a0: b624 01bf df2a d23f 7d4f 5abe f8d1 81bf
000000b0: 2402 5dbf 19b6 4e3f a448 28be 23be bebf
000000c0: ca8a 2140 7220 3d3f e7cb 0a3f d59e 703e
000000d0: 46db 0ec0 ec44 e03d 7513 133e 904e 02bf
000000e0: b1e3 4ebf 5c3e fcbe 3034 cfbf e629 e3bd
000000f0: 2ffd 0cbd dce6 85be b880 ca3e f748 993e
00000100: 60c4 3e3f 11b9 383f 3e5b b9be 6ef6 cdbf
00000110: 7986 35bf dd15 703f 3f0e 203f a38a 07bf
00000120: 38ab 12bf c036 0abe eebc bb3e 96ed 843d
00000130: 43fc ecbf 1be8 9e3f 141a 033e b144 c2bf
00000140: d96f 9a3e 616a c63f 340e 6fbf 6950 ad3e
00000150: c185 093d 7652 e93e 575c 923f 477d 543e
00000160: 12dd f53e e9b0 963e 5cf5 973f 5388 213d
00000170: 763f 343e 514a ffbe e808 963f c37e 7d3f
00000180: ddc1 6abf 6067 f13f b285 2e3e 7e5c 87be
00000190: 5f5e e53e ec9a 973d 4f42 ca3e bb6d 723e
000001a0: ec55 2cbf 6991 2ebf d5af 4d3f 8e5a a93e
000001b0: 8aff 6b3e 3a7f 90be 25b9 67be 22ed 44bf
000001c0: 61f2 01be ccec f4bd 4b1d cf3c 9c23 9cbd
000001d0: 2dba 2abf 7213 e0bf 0433 a33f 3a83 85bf
000001e0: b598 87bf e55a d63f 4037 05be fbee f13f
000001f0: a1c8 88bd 2ca7 8ebf f7f4 0cbf 6a2b b8bf
00000200: 084d 7c3d 1745 6abb 4436 ed3e 36b9 8ebd
00000210: e3f1 04bd eb54 b6ba 7805 4fbd 4dc7 a8be
00000220: e24c e93f 2512 b13f f7ce 27bd 797f 07bf
00000230: 1566 1a3d 7afb 8c3d e6f5 a8be cbc1 c93b
00000240: 99fa 29be 4d87 bcbb bcf0 b43e d574 7f3e
00000250: 4ace 863f 28ef 003f f89e 7ebf 9b93 78bd
00000260: bc70 743e 1728 32be e032 11be eba3 393f
00000270: 430b b33e b0be b13e 498c 39bd e05b ea3f
00000280: c633 7b3d 6591 963d 07f8 403f 8b31 48bf
00000290: 3322 cabd 86a0 9ebd 513a 40bf e7c8 cdbe
000002a0: 83f5 b4bf 257e 823e ed7a 86bf 817d 31bd
000002b0: aa0f 72bc f78a 29be b797 17bf 10a1 5e3f
000002c0: 0033 6c3d 749f 80bd 110a 023f 22a5 7fbe
000002d0: 1114 213c 4916 b3bd df45 e73d 3ab8 c7ba
000002e0: 6209 8f39 f75e 88be 68de 04be 2dda 3b3d
000002f0: 5710 30bf f715 6a3d 462d 0abc 4f65 723d
00000300: 77b6 8e3f 7a37 8bbe d188 5c3e 54e6 67be
00000310: e445 dbbd f446 eabc b0cd 373d ba68 53be
00000320: c4c2 06bf 5da3 543e a0d3 35bf 4847 833d
00000330: d5e4 193e 02fe 6cbe d75b 2f3f bdf8 f93d
00000340: 0cb4 5c3f 2913 ad3b d9cf 16bf 02c9 a0be
00000350: 3131 153e 0957 80bf a282 40bf 3c9f dc3b
00000360: 7928 383f 8722 80bf d7ed 013f 609d 0abe
00000370: c67d 11be d14e 1abe b6cc 9b3e 08c6 283f
00000380: c1b9 bfbe cdd3 8cbf 3e6e 0bbf c005 133d
00000390: b192 46be 084f 5fbf b246 043f 0df1 dc3e
000003a0: f058 da3d e2d1 14be 1d22 f63e ebf8 a93e
000003b0: d291 323f fd65 11c0 52fa 97be 84e1 2ebf
000003c0: 7c73 113e 0c2b 1c3f a754 94be e592 463f
000003d0: 1510 cebe 0175 e73d 64d0 873e b304 493e
000003e0: 8e63 dc3e dd15 e2be 6f09 c33e 9ce6 093e
000003f0: 0662 953e 188c 09bf 2136 06c0 5c41 92be

fc3.bias f4 [4]
0.044576585 -0.06185142 -0.051504977 -0.06534465
00000000: f095 363d ea57 7dbd e2f6 52bd 6ad3 85bd
