ddpg/checkpoint_critic.pth (torch_old, 53566 bytes, 9 tensors)

bn0.weight f4 [33]
000000 1d 1c 01 3f 33 dd 89 3e c8 b2 d2 3e 99 72 5b 3d
       0.5043352 0.26926574 0.41152024 0.053576086
000010 34 26 a1 3c 64 e1 56 3d 7f b8 86 3d ac 30 de 3c
       0.019671537 0.052461043 0.065781586 0.027122818
000020 5f 17 7b 3d 04 67 75 3d c6 9f 91 3d d3 c4 ac 3d
       0.061301585 0.059912696 0.071105525 0.08435979
000030 4c 7a b3 3d 2c 8d 6a 3f 41 7d ac 3e 05 cd 6a 3f
       0.08763561 0.9162166 0.3368931 0.91719085
000040 5f fe bc 3c 77 94 3f 3d 30 09 f5 3c c9 86 40 3d
       0.023070512 0.046772446 0.029911608 0.04700354
000050 4c c6 a5 3d a2 9b 7b 3d a6 fa 69 3d 2d bb ca 3e
       0.08094463 0.06142772 0.057123803 0.3959593
000060 99 65 34 3e 4c a6 bb 3e 08 94 8e 3f 90 21 14 3d
       0.17616881 0.36650312 1.1138926 0.03616482
000070 ad a9 5b 3f 90 30 bf 3e 12 36 9c 3e 94 97 6e 3f
       0.8580578 0.37341738 0.30510002 0.9320004
000080 cd 70 93 3f
       1.1518799

bn0.bias f4 [33]
000000 35 5c b9 3d f5 bd e2 bd 78 4a e2 3c 8a 0d 97 3c
       0.0905079 -0.11071388 0.0276234 0.018439073
000010 bf cd 34 3c 0a 0f 77 bc 41 8d be 3c ce 1c 9d bc
       0.011035382 -0.015079269 0.023260714 -0.019178774
000020 13 1d 75 3c dc f7 4f 3d 5e 6c 9a 3b bb 67 2e bd
       0.014960545 0.050773486 0.0047126254 -0.042579394
000030 20 b7 0a bc d5 41 9c 3d e7 4b ca 3d c0 4c 62 3d
       -0.008466512 0.07629744 0.098777585 0.055248976
000040 64 5d 61 ba 00 d0 f4 bb 72 21 52 bb a0 09 65 bb
       -0.0008596985 -0.0074710846 -0.0032063392 -0.0034948364
000050 fb 81 93 3c 96 dc 6f 3b ba 4b b3 3c 06 3b 00 bc
       0.018006315 0.0036599985 0.021886695 -0.007826572
000060 a1 64 42 bd 1b 4b 8c bc a3 53 8c 3d 49 23 c4 bb
       -0.04745925 -0.017125657 0.0685189 -0.0059856516
000070 03 23 af 3d 72 62 84 3b 54 a6 a6 bb a6 e3 db bb
       0.085516 0.004040056 -0.005085746 -0.0067104874
000080 a1 77 0f 3d
       0.035026196

bn0.running_mean f4 [33]
000000 49 ea d0 be a0 bf 2f c0 c6 77 43 3d 37 81 64 3f
       -0.40803745 -2.7460709 0.047721647 0.89259666
000010 83 48 56 bd fb 2b 9a 3b 32 c4 6f 3b 7b c5 93 3c
       -0.052315246 0.00470495 0.0036585447 0.018038502
000020 75 ac 93 3b 5f 73 29 ba 03 8c 38 bc 0f 9c 33 3c
       0.0045066425 -0.000646403 -0.01126385 0.0109625
000030 7e 71 37 bd 9e 6b 9e be 8f 21 32 c0 bd b7 f4 3c
       -0.04478597 -0.3094148 -2.7832983 0.02987277
000040 fd eb 75 3c 41 76 8d 3b b0 28 99 3c ed 9a 79 be
       0.015009877 0.0043170755 0.01869616 -0.24375506
000050 96 bd 4a 3d f6 57 68 3c 5e ef 67 bc 07 83 9a bc
       0.04949721 0.014181128 -0.014156191 -0.018861307
000060 32 3e fd 3d 35 65 f0 bc 4f bd 2f 3e fc ff 7f bf
       0.123653784 -0.029345134 0.17162059 -0.99999976
000070 6d a6 d1 bc 00 00 00 00 fc ff 7f 3f 00 00 00 00
       -0.025592053 0.0 0.99999976 0.0
000080 1d 17 7e bb
       -0.00387711

bn0.running_var f4 [33]
000000 38 bf 84 40 bb f6 ba 3e df 0d 75 40 c9 45 1c 3d
       4.148342 0.36516365 3.8289716 0.03815249
000010 aa cc 8d 3d c5 89 13 3c 3c 37 ac 3d a8 c1 82 3e
       0.06923802 0.009005015 0.084089726 0.25538373
000020 d4 bc 54 3d 6c d1 c8 3d 18 2c f7 3f 74 a9 3f 3f
       0.051937893 0.09805569 1.9310331 0.7486794
000030 93 87 05 40 88 ef 9d 41 fb 08 bf 3f 8a 19 a0 41
       2.0863998 19.741959 1.4924616 20.01247
000040 fc 58 bf 3d d4 d2 5d 3e f0 27 8c 3d 4e 96 0f 3f
       0.09343144 0.21662456 0.06843555 0.5608872
000050 1f 5c ca 3f ec dc 1f 3f ae 76 d4 3e 09 19 ef 40
       1.5809363 0.62446475 0.41496795 7.471806
000060 bb 7d 4e 40 8a 51 f9 40 c3 6a f9 41 04 00 00 00
       3.226424 7.7912035 31.17713 6e-45
000070 78 78 03 42 04 00 00 00 04 00 00 00 04 00 00 00
       32.867645 6e-45 6e-45 6e-45
000080 a7 fa ab 3e
       0.3358967

fcs1.weight f4 [128, 33]
000000 f5 b1 00 be 85 98 fe 3e 92 fa 19 be ff fa be 3d
       -0.12567885 0.49725738 -0.15036991 0.093252175
000010 7c 43 02 bf dd ba b4 bd cc 41 49 3d de 09 1f be
       -0.50884223 -0.08824704 0.049135014 -0.15531108
000020 e9 98 97 3c 88 3c 85 3f 01 5e 3d 3f e9 d1 94 3e
       0.01850553 1.0409098 0.73971564 0.290664
000030 89 cd 14 be bf 94 f6 3d aa 59 a8 be 5c eb 4e 3e
       -0.1453153 0.1204009 -0.32880908 0.2020697
000040 6e 6d 18 3d 03 22 6d be b9 76 0b be 25 21 e0 3d
       0.037213735 -0.23157506 -0.13619508 0.10943822
000050 8b 43 ca 3e 07 f6 ad 3d 63 57 2e 3d a6 df 11 bf
       0.39504656 0.084941916 0.042563807 -0.56981885
000060 0b 85 e8 bd c2 e8 23 3e 52 a6 a9 bd 93 9c 0e be
       -0.11353501 0.16006759 -0.08283676 -0.13926916
000070 18 40 e2 3c c7 91 16 3e ad 3d c0 bd 1d 6c 03 be
       0.027618453 0.14704047 -0.09386764 -0.1283421
000080 38 35 37 3e e2 f9 62 3e 63 aa 8e be f0 1f d3 bc
       0.17891395 0.22165635 -0.2786437 -0.025772065
000090 4b eb ba bd 18 f6 5c be f1 2f 6a bd da 42 2a be
       -0.0912691 -0.21578252 -0.057174627 -0.16627064
0000a0 c2 57 de 3e bd 20 c9 3d 18 19 93 bc b9 83 07 bf
       0.4342633 0.098206975 -0.017956302 -0.5293537
0000b0 a0 76 a8 3e 23 1a 95 3e bc 91 2b bd 3f dd 14 3f
       0.32903004 0.29121503 -0.04188703 0.58150095
0000c0 95 6e e6 3e f2 97 91 3e 6e 79 be bc 40 13 8d be
       0.45006242 0.28436238 -0.023251262 -0.2755375
0000d0 e4 2f 35 bd c0 bb a5 3d a8 a5 5f be 45 6d c3 3e
       -0.044235125 0.08092451 -0.21840537 0.38169304
0000e0 6c eb ad 3d 1c da db 3e be cc 49 3e 7a e7 62 bc
       0.08492169 0.42939842 0.19707009 -0.013849134
0000f0 90 0a ad bd 16 e8 ed be 63 73 92 3d 7c 8a 49 3b
       -0.0844928 -0.4646613 0.071509145 0.003075271
000100 29 22 8e 3d 19 12 20 bd 0b 02 18 bf b7 53 d5 3e
       0.06940109 -0.03907976 -0.5937812 0.41665432
000110 d7 20 f9 3e 7e b8 a2 bd cf ff aa 3e ba 51 75 3e
       0.48657867 -0.07945345 0.3339829 0.23956957
000120 5b bb 17 3e 10 e1 e4 bc 58 f2 bf 3e 41 14 46 be
       0.14817564 -0.02793935 0.3748958 -0.19343664
000130 22 64 0f bf 66 d3 fa 3d 62 a4 36 3f 2e 66 8e 3e
       -0.56012166 0.12247352 0.7134458 0.27812332
000140 ec 31 ab bd c1 70 62 bd 4e c2 8e bd 12 c6 b3 bd
       -0.08359131 -0.05528331 -0.069706544 -0.08778013
000150 1d a8 66 3d d1 5f 87 be 63 2b 6f bc 61 99 a3 3e
       0.05631267 -0.2644029 -0.014597747 0.31952956
000160 b7 98 7f be a0 d3 cf bd 0c 0a a6 3e c1 f7 63 3e
       -0.249606 -0.10147786 0.3242954 0.2226248
000170 f0 61 72 3d c0 90 4b 3b c5 b7 2f bd 39 28 87 3d
       0.05917543 0.003106162 -0.042899866 0.06599469
000180 db fd 88 3d 81 1e 8c 3d 55 92 0a 3d 39 23 f9 3d
       0.06689044 0.06841756 0.03383096 0.12164921
000190 a9 b6 0f bd f7 5e 91 3e 8f d2 0e bd 2c 88 0d be
       -0.035086308 0.28392765 -0.034868773 -0.13821477
0001a0 4f bc a7 3e 1e 7b cc bd 98 f3 ee 3e 19 4e b4 be
       0.32760856 -0.0998442 0.46670222 -0.35215834
0001b0 f8 97 06 bf 76 5e 29 3e 65 7f f9 be c1 cd f7 3d
       -0.52575636 0.1653994 -0.48730007 0.12099791
0001c0 ed ab 79 3d c2 93 1a bd f1 68 e9 be 6f 79 c2 3e
       0.060954977 -0.03773857 -0.45587876 0.3798327
0001d0 c7 d2 a2 3d b4 6d b8 3e 29 25 cb bd fb 0b 9e 3d
       0.07950359 0.36021197 -0.09919197 0.07717129
0001e0 12 78 29 bd 35 06 4c 3e 00 87 8d 3e ed 17 3e 3e
       -0.041374274 0.19924243 0.2764206 0.18563814
0001f0 12 fb c0 be 65 74 16 3e a0 14 83 3d a9 e7 47 3f
       -0.3769155 0.14692838 0.06400418 0.7808786
000200 df e2 be bc 3c a5 8a 3d 03 55 f8 b9 8a 66 b1 3e
       -0.02330154 0.06769797 -0.00047365585 0.34648544
000210 4b 03 03 be 0d d1 c7 bd 2c fc 77 3d 03 95 05 be
       -0.12794225 -0.0975667 0.060543224 -0.13045125
000220 74 98 da be 32 c7 b2 3e 32 35 b6 3d 15 16 ec 3c
       -0.42694438 0.349176 0.08896865 0.028819123
000230 ab 06 cc 3d 99 e6 48 3d eb c3 9e 3c 76 a6 01 3e
       0.09962209 0.04904804 0.01938053 0.12661156
000240 c4 70 19 be 29 0a 73 3e c4 3f e2 bc 9a 23 5e 3d
       -0.14984423 0.23734345 -0.027618296 0.05423317
000250 59 d8 01 3e 14 1b 95 3d 8d 44 c8 bd 08 5e 6d 3e
       0.12680186 0.07280555 -0.097787 0.23180401
000260 d9 60 06 be 22 dc a5 3c 3a 15 ba bd 2b f0 a0 3d
       -0.13122882 0.020246569 -0.0908608 0.078583084
000270 9c b6 54 3d 32 c4 20 3e 28 8d 7f 3e e6 44 4f 3c
       0.051931962 0.15699843 0.2495619 0.012650704
000280 37 60 93 3e f9 f3 d7 bc bf 61 4b 3c 28 65 f8 3b
       0.28784344 -0.026361452 0.012413441 0.007580418
000290 2e d3 4c 3f aa 46 ac 3e 3c 75 3c 3d 8d 75 97 be
       0.80009735 0.33647662 0.04601024 -0.29581872
0002a0 19 7f 6b be 58 48 1f 3e 14 bd ac 3d ff 91 95 3e
       -0.22997703 0.1555494 0.08434501 0.2921295
0002b0 32 a8 b8 be 4f 75 ba 3e ba c2 a7 bd 46 ac a6 3e
       -0.36065823 0.36417624 -0.08191438 0.3255331
0002c0 4a bc 1b 3e f3 11 c7 bd c0 fc 29 be 43 af 30 3d
       0.15208545 -0.097202204 -0.16600323 0.043135893
0002d0 61 87 6c be f7 78 f9 3e 22 7e 37 3d 29 ce 10 bd
       -0.23098518 0.487251 0.044798024 -0.03535286
0002e0 e5 6d 60 3e f5 fe 24 bb 60 74 52 3f c0 53 31 3f
       0.21916921 -0.002517638 0.82208824 0.6926842
0002f0 65 1b 65 be e3 69 aa be de 94 2b be 56 16 11 bd
       -0.22373731 -0.3328391 -0.16756007 -0.03542169
000300 42 16 56 bd 31 30 aa 3e 6c 8e 1a bd d3 ec 87 3d
       -0.05226732 0.33239892 -0.03773348 0.066369675
000310 1e 5f 76 bd d1 75 5c bd a8 1a c6 be 2a 94 80 3d
       -0.060149305 -0.053823296 -0.38692212 0.0627826
000320 4c af ed bc 8a 82 3a 3d c7 09 f7 be d1 a1 41 be
       -0.029014252 0.045534648 -0.48249647 -0.18909384
000330 13 2b de 3e b6 0e 25 3d 9c 08 61 be 2b 17 ca bd
       0.43392238 0.040297233 -0.2197594 -0.098677
000340 75 9e 5a be 78 4b eb bd df bb 33 be 5a cd 13 3e
       -0.21349509 -0.11489004 -0.17552136 0.14433804
000350 bc 74 ca 3d dc 4e 43 be b4 ba 99 3d fc 76 9d be
       0.098855466 -0.19073051 0.07506314 -0.3075484
000360 b6 a3 37 3e c7 76 24 3e 07 6a 44 3e 80 eb f6 bc
       0.17933545 0.16060935 0.19181071 -0.030141592
000370 c3 c4 65 3e 10 30 22 3e 80 4e f1 bc 2f f1 0a bf
       0.2243834 0.15838647 -0.029456377 -0.54274267
000380 7e de c2 3e 3c 20 c5 bc 8a e5 15 bf 68 02 26 bc
       0.38060373 -0.024063222 -0.58553374 -0.01013241
000390 45 6e 02 bd 08 2b 16 bc 58 99 d3 3e 39 e3 6d 3e
       -0.031843442 -0.009165533 0.4132793 0.2323121
0003a0 50 b6 d1 3d f4 ca 3c be 00 b7 03 3f f6 f5 7d bd
       0.102398515 -0.18436795 0.5145111 -0.062002145
0003b0 b2 dd c9 3e dd f6 91 3d 1c e1 a5 bd 64 f8 d1 be
       0.39426953 0.071271636 -0.08099577 -0.4100982
0003c0 ef 97 ec 3c 8a 58 2b 3d 9a 67 8a be 2a 3a f4 bd
       0.028881041 0.041832484 -0.27032167 -0.119251564
0003d0 f8 b8 77 be da 44 43 3e 20 cb 1c 3e 93 fb 34 be
       -0.24191654 0.19069234 0.15311861 -0.17674093
0003e0 8a e9 9b 3e 1c ff 64 be 50 f7 82 bd e2 ec 0c 3d
       0.30451614 -0.22362942 -0.06394827 0.034405597
0003f0 11 26 2e bd 45 63 fe bd 6e d1 f4 be 90 61 47 3e
       -0.04251677 -0.12421278 -0.47816032 0.19470811

fcs1.bias f4 [128]
000000 97 5b e2 be be 47 81 be 7e 81 06 be 18 0e 8a be
       -0.44210503 -0.25250047 -0.13135335 -0.26963878
000010 39 89 d7 be 65 bf 3c be da b5 e2 be 52 8f de be
       -0.4209688 -0.18432386 -0.44279367 -0.4346872
000020 e7 80 2d bd a3 3b 32 bf 78 fa 0a bf 9f f4 8a bd
       -0.04235926 -0.6962225 -0.54288435 -0.06784939
000030 3e 1e 15 3d 63 01 c5 be b1 eb b0 be f3 f1 ec be
       0.036405794 -0.3847762 -0.34554818 -0.46278343
000040 42 3c ac 3b f6 d1 12 bf 67 2e df bd 12 e8 ec be
       0.0052562067 -0.57351625 -0.108975224 -0.46270806
000050 54 88 12 bf eb 56 f9 bd 90 c1 da bd cc 98 b2 be
       -0.5723927 -0.121747814 -0.1068145 -0.348822
000060 d6 92 83 be 2a 9e 9a be dc 02 3d be d8 90 27 bf
       -0.25697964 -0.30198795 -0.18458122 -0.6545539
000070 72 ad 21 bf 8e 60 a2 be a0 bd 07 be 0f 80 09 bf
       -0.6315528 -0.3171429 -0.1325593 -0.53711027
000080 ac da 5d be bc bb 7c be d9 14 34 be fc 44 f3 be
       -0.21665448 -0.2468099 -0.17586078 -0.47513568
000090 4d 85 6f be 6d 69 f5 be 5f 2e af bd 4d f1 b5 bd
       -0.23390694 -0.47931996 -0.085537665 -0.08883915
0000a0 41 39 d9 bd 7f c2 10 be a3 a0 27 be 62 44 ba 3d
       -0.106066234 -0.14136694 -0.16369872 0.09095074
0000b0 4e 4f 33 bf a6 6a 82 be bc 6b a4 3e 3c 88 d3 be
       -0.70042884 -0.2547199 0.32113445 -0.41314876
0000c0 54 f2 2c bf 69 1c c0 be fa c9 ba be 87 ac d8 be
       -0.67557263 -0.37521675 -0.3648222 -0.42319128
0000d0 2e 80 98 be 9f 57 1a bf d4 e7 c8 be 0a ea 44 3a
       -0.29785293 -0.6028995 -0.3923937 0.0007511681
0000e0 69 82 20 bf aa bc bd be 26 a3 d4 bd e5 e4 ee be
       -0.6269899 -0.37058002 -0.103826806 -0.46659008
0000f0 c2 47 ae be 50 18 34 bf 13 e9 3a bc 7c 0b cd be
       -0.34039122 -0.703496 -0.011408108 -0.40047824
000100 11 2a 6c bf a4 46 69 be c8 c5 37 be cf de d7 bd
       -0.9225169 -0.22780854 -0.17946541 -0.10540544
000110 6d f0 2f be 90 9a dd 3d 3d 08 f6 be 90 f2 24 be
       -0.17181559 0.10820496 -0.4805316 -0.16108155
000120 f3 4d 27 bf f1 04 fd bc 93 fb 05 bf b4 28 8b bd
       -0.65353316 -0.030886145 -0.52336997 -0.06794873
000130 33 b2 4e be 44 4e 02 be fe 38 2f be 28 04 1a bf
       -0.20185165 -0.12725168 -0.17111585 -0.6016259
000140 00 2a a3 be 35 b3 0c bf be 8b 74 be 37 00 f8 be
       -0.3186798 -0.5496095 -0.23881432 -0.48437664
000150 92 0c 9e be 77 b1 0d bf cb cb e7 be 7d ca 1b bf
       -0.30868965 -0.55348915 -0.4527267 -0.6085585
000160 5b 3b 12 bf 67 b0 d0 be 0a 84 29 bf 61 fa 9f 3c
       -0.5712182 -0.40759584 -0.662171 0.01952857
000170 41 eb 80 be 7c 8c cd be 43 df 07 3e d6 82 33 bf
       -0.25179484 -0.40146244 0.13268761 -0.70121515
000180 67 f2 1b bf a9 08 9f be 9a 03 c5 be 09 60 24 bf
       -0.6091675 -0.31061295 -0.3847931 -0.6420904
000190 81 9d 11 3e 0f 6f 2e bf d8 e3 b0 be 7d f9 18 bf
       0.14220239 -0.6813821 -0.3454883 -0.5975569
0001a0 61 a6 a0 3c 52 f0 05 3f ae 0a 1a bf d6 10 34 bd
       0.019610586 0.52319825 -0.60172546 -0.04396137
0001b0 17 2b 8a bd c0 fc 68 be 13 00 54 bc 8a fd ae be
       -0.067465 -0.22752666 -0.012939471 -0.3417781
0001c0 94 6b 07 bf f8 15 23 bf 08 4a ca be 38 ed de be
       -0.52898526 -0.63705397 -0.39509606 -0.4354036
0001d0 e8 ba 9d be 6c 31 80 bd a1 f1 d8 be 40 89 0d bf
       -0.3080666 -0.062594265 -0.42371848 -0.5528755
0001e0 30 13 a8 be 32 68 07 3f 34 ef 1f be d3 36 e4 be
       -0.3282714 0.52893364 -0.15618593 -0.44573078
0001f0 1a 2f 0b bf a1 5b d3 be b9 49 32 bf 31 49 9c be
       -0.54368746 -0.41280845 -0.6964374 -0.3052459

fc2.weight f4 [64, 132]
000000 d0 ff 6a 3d 6e 85 90 3d f8 f8 f4 bc 79 4f e3 bc
       0.057372868 0.070567 -0.029903874 -0.027747856
000010 23 50 16 be 3c d6 2a be a9 33 cf bd 1c c6 ad 3d
       -0.14679007 -0.16683286 -0.10117275 0.08485052
000020 fb 6c e2 bb ce 2f 93 3d 2b 0c f7 3d 25 18 07 be
       -0.006909964 0.071868524 0.12062868 -0.13192804
000030 a5 c6 a8 3c d2 0f 99 bd 02 3b b3 bd d7 5a b7 bd
       0.020602534 -0.074737206 -0.08751489 -0.08952873
000040 a9 ca 0c be 72 bf ba bd 03 52 01 bc 71 0e 34 bd
       -0.13749184 -0.091185465 -0.007893088 -0.043959085
000050 4e 2a a1 bd cd 58 a3 bd 63 4c 0b be b6 ef ff bd
       -0.07869397 -0.07975922 -0.13603358 -0.12496893
000060 a2 55 0b bd ac bb 03 bd 3b 14 e6 bc 1b 71 ac bd
       -0.034017213 -0.0321614 -0.028085819 -0.08420011
000070 d5 c5 1f 3c ce 90 a9 bd e5 fc b1 bd a7 3f 70 bd
       0.009751757 -0.082795724 -0.08690814 -0.058654454
000080 65 8d de bc f8 19 d5 bc 77 d0 20 be 19 ae a1 bd
       -0.027167032 -0.02601336 -0.15704523 -0.078945346
000090 9f b2 7e bd e9 08 7f bd 10 78 6d bc 8c 1c f4 bd
       -0.062182065 -0.062264357 -0.014493957 -0.119195074
0000a0 cc 8a 8d 3d d5 40 d8 bd b2 99 c0 bd 10 b0 12 bd
       0.06911239 -0.10559241 -0.09404315 -0.035812438
0000b0 6d e0 96 3a 7b 16 15 3c ca a0 f5 bb 69 c7 8d bd
       0.0011510976 0.009099598 -0.007495974 -0.069228
0000c0 53 cb dc bd 5c 61 81 bc a7 81 c5 bc 60 70 b9 bd
       -0.107809685 -0.015793495 -0.024109675 -0.09054637
0000d0 1f 9a fb 3c d3 58 7b bc 88 59 20 be 7f 99 33 bd
       0.03071314 -0.015341002 -0.15659153 -0.043847557
0000e0 f3 96 41 bd 45 a1 e4 bd e1 ab 98 bd 0a 6a b4 3a
       -0.047263097 -0.11163572 -0.07454658 0.0013764512
0000f0 90 29 06 be 07 41 17 be 34 d3 13 bd c4 1d de bd
       -0.13101792 -0.147709 -0.03609009 -0.10845521
000100 90 19 10 3d ae 6a 94 3c b8 8e 3f 3d d5 6b d9 bd
       0.03518063 0.018117275 0.046766967 -0.106162705
000110 e8 f6 57 bd af 89 be bd 79 c3 03 3d d2 0a ca bd
       -0.052725703 -0.09303605 0.03216884 -0.09865345
000120 20 30 01 3e 7e a1 9c bd 03 dd 0e bd 7c 44 ba bd
       0.12616014 -0.0764799 -0.034878742 -0.090950936
000130 d5 c4 80 3d bb 00 ab 3d cf c0 9d 3c 5c 5c 46 be
       0.06287543 0.08349749 0.019256977 -0.1937117
000140 14 08 b7 bd d8 9b 2a be e4 f7 c2 bc f9 61 18 bc
       -0.08937088 -0.16661012 -0.023799844 -0.009300702
000150 f2 9e 8b bb 4f 1f a3 bd 74 4c fb bd 07 e7 5b bd
       -0.004260891 -0.07964956 -0.12270442 -0.05368712
000160 a6 e3 19 bc 62 bb 89 3c fe c1 8e bd 14 a6 27 be
       -0.0093926545 0.016812984 -0.06970595 -0.16371948
000170 60 3b 23 be d3 6f c1 3d d5 1d 9d bd 7a 54 fa bd
       -0.15940619 0.09445157 -0.07671706 -0.12223144
000180 f4 ca de 3c ba b0 c7 bd 3a 7f f0 bd bd aa 60 bd
       0.027196385 -0.09750505 -0.117430165 -0.05485033
000190 86 1e 25 bd 38 b9 83 3c 07 1e 42 bb 7d fb de bd
       -0.040312313 0.01607953 -0.0029619948 -0.10887811
0001a0 ef 1e 63 bd 43 39 fd bc 8e 7a 05 3d f1 b6 03 be
       -0.055449422 -0.030911094 0.03258758 -0.12862755
0001b0 d4 73 5f 3d 1c 69 c3 bd b4 2d d7 bc 87 b8 31 bd
       0.05455382 -0.095415324 -0.02626691 -0.04338887
0001c0 a2 83 84 bd f3 e4 33 be ce ae 04 be 1f 39 d5 bd
       -0.064704195 -0.17567806 -0.12957308 -0.104112856
0001d0 21 e7 a5 bc 1b ed 87 3c 5f 01 6d 3d 98 c7 06 be
       -0.020251812 0.016592553 0.057862636 -0.13162076
0001e0 a8 bc a3 bd 1b 39 5a 3b 4c 30 96 bd e4 8e 4e bd
       -0.07994968 0.0033298198 -0.07333431 -0.05042924
0001f0 74 c5 29 bd 11 9f bf bd 5b fd 84 bd b8 2b 2b bd
       -0.04144807 -0.093565114 -0.06493636 -0.04178974
000200 b9 34 bc 3d 08 9a 39 3d 85 66 ec 3c 98 98 2a 3c
       0.091897435 0.04531291 0.028857479 0.010412358
000210 ef 72 43 be 62 36 47 bd e7 29 18 bd 63 40 4d bf
       -0.19086812 -0.048635848 -0.037149336 -0.8017637
000220 f6 6c 43 3e 87 f0 34 bf bb c7 6f 3d 62 06 0a bf
       0.19084534 -0.70679516 0.058540087 -0.5391599
000230 a4 a9 9c be 2e 57 39 bf c6 3f a0 be 8e e4 ec 3d
       -0.30598176 -0.7239865 -0.31298655 0.11567031
000240 08 61 bd bd 91 3a 82 be 81 a3 94 3e 8a 23 59 be
       -0.09247023 -0.25435308 0.29030994 -0.21204963
000250 6c 80 c5 3d 1f e9 da 3e a1 e6 00 3f a0 7f 17 3e
       0.09643635 0.42755982 0.5035191 0.14794779
000260 12 03 40 3e ec cd 00 3f b4 6c 64 bc 79 d2 e4 bd
       0.18751171 0.5031421 -0.0139419325 -0.11172957
000270 43 98 01 3e 67 54 77 bd a5 96 27 be fa 6a 1a be
       0.1265574 -0.060383227 -0.1636606 -0.15079871
000280 74 d6 00 3f d7 92 a9 3c 8e 6e 31 3e b5 a9 fb bd
       0.5032723 0.020699902 0.1732733 -0.122882284
000290 1c 0a a2 be a8 9c 27 bf 07 09 96 be 48 83 cd bd
       -0.31648338 -0.65473413 -0.29303762 -0.100348055
0002a0 06 87 04 3e 5b d5 35 be a1 a6 5e be da 56 09 be
       0.12942132 -0.1775717 -0.21743251 -0.13412037
0002b0 9a bd 86 3e 75 93 0e 3d 81 34 ea bc fc a3 73 3e
       0.2631653 0.034808595 -0.028589489 0.23793024
0002c0 80 5f c7 3d 01 8c 58 bf 93 e6 6a bd 32 81 ac 3d
       0.09735012 -0.8458863 -0.0573488 0.084230796
0002d0 70 aa 07 be 7f 54 8c bf 5f 39 4e 3e c8 1e 33 3e
       -0.1324861 -1.0963286 0.20139073 0.17492211
0002e0 fe 12 4c be 2a 49 87 3e 80 05 9c 3d 6d d2 fd 3d
       -0.1992912 0.26423007 0.076182365 0.12393651
0002f0 38 b1 3b 3f 18 b9 4d 3e e2 5f 97 3e c3 cf d2 be
       0.7331729 0.20090139 0.2956534 -0.41174135
000300 5b 6e 79 be 72 89 73 3e bf 16 c0 3e 6f 8a 05 3f
       -0.24358504 0.237829 0.37517354 0.5216436
000310 74 91 dd bb bb 2a b1 3e 8f ed 13 3f 8a 8c 11 3e
       -0.006761724 0.34602913 0.5778436 0.14213768
000320 e0 c1 75 be 9b f4 95 bd 98 cb 64 3f 3d 6f ad be
       -0.23999739 -0.073220454 0.8937316 -0.3387393
000330 5d 71 f2 3e fb 31 8b be a8 1d 8a 3d 2e f2 92 3e
       0.47352114 -0.2718657 0.06743938 0.28700393
000340 c1 f2 7b bd b0 d7 5e 3e d7 91 17 3d 36 c3 0f be
       -0.061510805 0.21761966 0.037004318 -0.14039311
000350 78 a8 12 3d 0f b1 bd 3e 80 08 75 3e 8f 05 23 be
       0.035805196 0.37049147 0.23929024 -0.15920089
000360 63 11 02 bf fd 05 96 bf ef 8b a7 3e 1b 4d 77 3e
       -0.5080778 -1.1720577 0.32723948 0.24150507
000370 9e f7 ed 3e 81 15 99 3e 91 00 c8 be fd b0 c1 bd
       0.4647798 0.2989922 -0.39062932 -0.09457586
000380 3a 0c 37 3e c4 88 67 be 86 76 e0 3c 03 9c 74 bb
       0.17875758 -0.22610766 0.027400266 -0.0037324436
000390 ac 25 ac 3e bf f8 85 be 40 c2 b1 be fe 28 24 3f
       0.3362249 -0.2616634 -0.34718513 0.6412505
0003a0 7f 02 74 be f4 11 fc 3d 36 6e 3b bb 72 52 8f be
       -0.23829077 0.12308112 -0.0028599626 -0.27992588
0003b0 bc 56 c2 bd 50 d7 35 be ba 67 28 3e b4 26 22 be
       -0.094891995 -0.17757916 0.16445819 -0.15835077
0003c0 63 da ba 3d 8c 6d ab 3e 03 87 79 be 30 9a da bb
       0.09123685 0.33482015 -0.24367909 -0.0066712126
0003d0 ea 8b 71 3e 5d 51 a4 3e 05 ee 56 be 06 98 b4 bd
       0.23588529 0.32093325 -0.20989235 -0.08818059
0003e0 4b f9 19 3e 68 e7 f5 3d 32 d8 be 3e 6b 91 d3 3d
       0.15036504 0.12007028 0.3727432 0.10330471
0003f0 9c 9c 26 be 47 50 54 be 37 e2 f7 3d dd 9d 17 3e
       -0.16270679 -0.20733748 0.12103694 0.14806314

fc2.bias f4 [64]
000000 e4 04 1f be 58 a8 1b 3e 42 1f 4b 3f 42 e9 a7 3e
       -0.1552921 0.15200937 0.7934457 0.3279515
000010 be bb e0 3e 6b 06 45 3e fe b9 20 3e 5b 9e ea bd
       0.43893236 0.1924073 0.1569595 -0.11455985
000020 6c c6 90 3e 3e 33 b1 3e 65 39 e2 3d f7 e1 81 3e
       0.28276384 0.34609407 0.110461034 0.2536771
000030 19 df ad 3e 36 0d 0b bd 56 46 10 3f f6 04 cd be
       0.33959273 -0.033948146 0.56357324 -0.40042847
000040 c8 c2 d3 3e f2 bf 26 3e 7e 4f d3 bd 8c a9 da be
       0.41359544 0.16284159 -0.10317896 -0.4270748
000050 2c 3d 1d be 29 2e 2e be 24 a7 5c 3d 4a 70 12 3f
       -0.15355366 -0.17009796 0.053870335 0.5720259
000060 d0 20 fd 3e 23 92 1d be 01 85 67 3e 60 04 bb bd
       0.49439096 -0.15387778 0.2260933 -0.09131694
000070 79 55 1b be 3d f5 1a be 25 a0 95 be 2e 1d 1a 3f
       -0.15169324 -0.15132613 -0.29223743 0.60200775
000080 1a 87 74 bd b3 82 63 be 59 7a 9c 3e e3 e1 97 3e
       -0.059699155 -0.22217827 0.30562094 0.29664525
000090 1d 3c 4e 3e 39 d6 01 3f 08 74 88 be a3 60 37 be
       0.20140119 0.507175 -0.26651025 -0.17907958
0000a0 4c fa 96 3e 73 11 91 3e 41 20 25 3f 73 f8 ee 3a
       0.29487836 0.28333625 0.6450234 0.0018232003
0000b0 0a 79 bb 3e 62 63 04 3f 68 0e 8f be 05 36 56 3f
       0.36615783 0.51714146 -0.2794068 0.8367618
0000c0 b5 65 8d 3f c0 82 4f 3e eb f8 f7 3e 42 42 95 bd
       1.1046664 0.20264721 0.48432097 -0.07288028
0000d0 9b 27 4a be 8c d8 4c 3e 0a 5a e6 3e e9 a0 44 3f
       -0.19741671 0.20004481 0.4499057 0.7680803
0000e0 cf 8b a1 3e 26 dd c1 be a0 f6 14 3f 33 f8 a3 be
       0.31551978 -0.37864035 0.5818882 -0.32025298
0000f0 bf e9 b3 be d1 1c cf be c3 96 2b 3f e7 01 ff bd
       -0.35139272 -0.40451673 0.6702692 -0.12451535

fc3.weight f4 [1, 64]
000000 cb f8 df 3b d4 f1 0e be e2 66 81 3d 8b d5 63 3d
       0.0068350784 -0.13959438 0.063184515 0.055623572
000010 91 f9 9f 3d 5c cc 54 3d 32 21 6a 3d e6 7f 0e bc
       0.07811273 0.051952705 0.057160564 -0.008697486
000020 ab 21 09 3e 7e 55 7d 3d 22 7e 17 3e f0 ae 06 3d
       0.1339175 0.06184911 0.1479421 0.032881677
000030 4c 86 83 3d 70 7e 36 3e 02 86 92 3d da 00 ad bd
       0.064220995 0.1782167 0.07154466 -0.08447428
000040 8e ff cb 3d f4 ef 32 3d 9e df 02 3d e0 0c 47 bd
       0.099608526 0.04368587 0.03195154 -0.048596263
000050 aa 9f 99 bd 50 19 ec 3c cc ef 3d 3d db 61 ca 3d
       -0.07501157 0.028820664 0.046371266 0.09881946
000060 e4 20 ff 3d 89 f3 65 3e 06 57 29 3d 2c 4d 45 3a
       0.12457445 0.22456183 0.041342758 0.0007526453
000070 72 5f 38 3d 2a 8c 55 3c 2f bc 2b bd a7 f6 cb 3d
       0.0450129 0.013033906 -0.041927513 0.099591546
000080 31 cc c7 3c 0a b1 6e bd eb 75 2d 3d 52 38 5e 3d
       0.024389358 -0.058274306 0.042348783 0.05425293
000090 e5 a9 48 3d 01 ab 80 3d 28 65 12 be 3c be 68 bd
       0.04899015 0.062826164 -0.142964 -0.056822047
0000a0 70 5a 69 3d f3 b8 7f 3d a8 5b ad 3d 10 d6 df 3d
       0.056971014 0.06243224 0.08464748 0.10929501
0000b0 16 ea 6d 3d 34 11 1d 3d f2 fd 4b bd 77 ed 68 3e
       0.05808457 0.038346484 -0.049802728 0.22746836
0000c0 e8 60 87 3e 12 27 6b 3d cd 75 c5 3d 64 3d 6a 3c
       0.2644112 0.057410307 0.09641609 0.014296863
0000d0 39 07 d0 bc 7c ca cb 3d 70 23 b2 3d 87 6e 02 3e
       -0.025394069 0.0995073 0.086981654 0.12737475
0000e0 b0 1d 8d 3d d4 56 1b be b3 9d d8 3d 7f 0e b2 bd
       0.06890428 -0.15169841 0.10576954 -0.08694171
0000f0 44 e9 30 be 8c 7e 06 bd 59 68 ce 3d 4d e0 c5 3d
       -0.17276484 -0.03283553 0.100784965 0.096619226
