dqn/checkpoint.pth (torch_old, 28333 bytes, 6 tensors)

fc1.weight f4 [64, 37]
00000000: 9407 08bd 2252 bb3d 9b40 243d e45f 89be
00000010: a34d e0bd 5911 92bd c1a3 3e3d 5539 b43c
00000020: c368 233e 0b6d 44be 4893 a43e f2d7 90be
00000030: fc4d 23bf 8d88 1cbf f1d0 05c0 a50d 3d3e
00000040: 3ab0 efbd 2e11 ca3d b5b2 313e cdb2 cebd
00000050: 0d3c 22be 4a5f 293e c82b 833e 60c0 5f3e
00000060: c330 c03e 77b8 15bc c6f3 70bc fe27 c33d
00000070: f255 bb3c ab7d efbb 1761 29bd 13f5 433c
00000080: b6ee 05be 31d2 623e f9b1 623d 0cac cdbd
00000090: f1dc 96bc da65 c23d c930 93bd ef3d dd3d
000000a0: 2613 4ebd 284e 00bf 9063 12be 865b c2be
000000b0: 6109 583e 0a38 7cbe 8d99 63bf f41c a1bd
000000c0: 2d2c 553c 7154 fe3c 3a58 2c3e b222 c13c
000000d0: f309 663e 0e11 f33b eec6 cdbe bcd7 543d
000000e0: efe2 2abe c7f9 5ebe 307e b1be ad57 c4bd
000000f0: a51e 023e 476b 32be eb0f 533d aac1 7b3d
00000100: cd6e e6be e735 0c3e 44d2 93be b51b 123e
00000110: 0fc1 42be 1ba7 76bc 58d8 8dbd afe5 efbe
00000120: d938 93bc 269a a2bd bc17 f83d 9729 b33d
00000130: 62d3 123e 3b14 fa3d 84cb 44bd 7e30 84bf
00000140: 9a48 153e 13f4 083f c601 683c f097 70bf
00000150: 1dca 823d 5cfd c73d 9df7 a0bd 28b4 c13d
00000160: bc47 a6bd e1c7 b7bd 8e4d 3bbd d61a 583e
00000170: 0607 433e 866b 533d 9964 07be de5d 3a3c
00000180: 8913 4b3d f330 b4bb b5c2 da3d 1fa8 c5bd
00000190: 06a1 523e 935b 5c3d a793 e33d e49e 583b
000001a0: 7315 f3bd 346c e53d 02ab 72bd e2e2 73bd
000001b0: 1acf 3f3d b3ea 623b 9645 83ba ec33 283e
000001c0: 508e 48bd 9a01 773e df8f 5dbe a836 5dbf
000001d0: f43c 0ebe 9f17 68be 50f3 003b a1e8 a73d
000001e0: 3f34 7b3e 105e 1fbc f691 383e 651f bdbe
000001f0: 545d 7abe c08d 9cbe 403d 4dbd 8e2e 94be
00000200: 59a5 3a3d 5385 cabd 5909 bebe 18c8 ab3e
00000210: c8b4 abbe 6774 bdbe 3fdf 97be 085b 233c
00000220: 7f78 e0be 00e4 88be 8a4f 833e 17f9 9f3c
00000230: 753d acbd 2b65 c23c 3141 18bf fb8c a6bd
00000240: c8e2 14bf a95a b5bf 9778 813d a527 bfbc
00000250: 0afa 86bd 3a0a 9dbd f9c6 42be 4ac2 c7bd
00000260: e9f1 50bd e353 933e 600b 70be 521a 30bf
00000270: e069 11bf 145f 05c0 6136 2cbd c9d0 813d
00000280: 76d6 e0bb ea1e 2abe 4405 68be f6c9 95bd
00000290: 1af1 893b 3f44 68bd 7122 393d 6b8e 3a3d
000002a0: c5b3 a6bd 186e 57bd 2a8e 52bd 53eb fb3d
000002b0: 3f2d 6d3e 063f e2bd 6acd 8e3d d06f d13d
000002c0: 918d 8b3e b37b 953e eae4 a0bd 73eb 813e
000002d0: 7dce 4c3d 54d5 db3d a777 223e 5b0e a73d
000002e0: f6dd 633c 2f15 ba3c fad5 c4bd c137 e93d
000002f0: f720 08bd 66b6 a7bd c9b0 333e 3324 dcbc
00000300: d4b7 1dbd e42c c7be bcdc a0bf fbd4 283d
00000310: b139 7c3d 5e1c 4ebe 1fb5 31be c173 3b3c
00000320: 357f 813d ab83 ba3c 3fa5 36be 1ea7 89bc
00000330: e561 54be 7c37 103d 2d37 373e 1e30 703d
00000340: 33f0 0b3e b8db 3ebb c953 21be 81d4 863e
00000350: 588e 69bd 13df 203e 281e 883e 3a15 913c
00000360: 8d39 c8bd cfe8 ccbb 6ff5 c9bc 8015 edbe
00000370: 74cc bd3d 0d0d 48bc 86d0 813e 2231 373c
00000380: d6b6 5bbf 735e eabe 7ddd 18c0 5eb9 05be
00000390: 777b 2dbe 4bd5 25bd 1e26 a53d 18c8 a53e
000003a0: b424 933d f77d f93d d3df 8a3d 3d2f d73d
000003b0: e442 d9bd 2f20 f1bd a81c ea3c 18bd 813d
000003c0: e3c2 e6bc b71c 8f3e 600a 68be 95b7 cebc
000003d0: 70d0 2a3e d46b d9bd 6b75 31bc 9847 1fbd
000003e0: cf13 27be c860 2bbe db0f 043e fc0d ac3d
000003f0: 1937 0f3e ddd7 0abe af6f 19be 7ad3 ab3d
-0.033210352 0.09146525 0.040100675 -0.2683097 -0.10952308 -0.07132215 0.046542887 0.021999994
0.15957932 -0.19182222 0.32143617 -0.28289753 -0.6379087 -0.6114586 -2.0908778 0.18462236
-0.117035344 0.09866558 0.17353328 -0.10092697 -0.1584322 0.16540256 0.2561934 0.21850729
0.37537202 -0.009138218 -0.014706558 0.09529112 0.02286813 -0.007308682 -0.041352358 0.011960286
-0.13079342 0.22150494 0.05534551 -0.10042581 -0.0184159 0.09492083 -0.071870394 0.108028285
-0.05031123 -0.50119257 -0.14295793 -0.37960452 0.21097328 -0.24630752 -0.88906175 -0.078668505
0.013011021 0.031046124 0.16830531 0.023576114 0.22464733 0.0074178046 -0.40190834 0.051963553
-0.16688131 -0.2177497 -0.34666586 -0.09587035 0.12707002 -0.17423736 0.051528852 0.06146399
-0.4500641 0.13692437 -0.28871357 0.14268382 -0.19018959 -0.0150544895 -0.0692603 -0.46854922
-0.017971443 -0.07939558 0.12113902 0.08748167 0.14338449 0.1221089 -0.04804565 -1.0327299
0.14578477 0.5349743 0.014160579 -0.9398184 0.06386206 0.09765121 -0.078597285 0.0945819
-0.08119151 -0.08973671 -0.04572826 0.21103987 0.19045648 0.051616214 -0.13221969 0.011374919
0.049579177 -0.0054989993 0.10681669 -0.09651207 0.20569238 0.05379827 0.11112147 0.003305369
-0.118693255 0.11202279 -0.059245117 -0.059542544 0.046828367 0.0034624755 -0.0010015245 0.16426057
-0.048963845 0.24121705 -0.21636914 -0.86411524 -0.1389044 -0.2266526 0.0019676276 0.08198667
0.24531649 -0.009727016 0.1802443 -0.36938015 -0.24449664 -0.30576897 -0.05010724 -0.28941768
0.045567844 -0.09888711 -0.37116507 0.33551097 -0.33536363 -0.3700287 -0.2966251 0.009970434
-0.4384193 -0.2673645 0.2564662 0.019527955 -0.084101595 0.023729881 -0.59474474 -0.08132359
-0.5815854 -1.4168292 0.06321829 -0.023334334 -0.0659066 -0.07667966 -0.19021215 -0.097538546
-0.051011954 0.28774938 -0.23441839 -0.6879016 -0.5680218 -2.083928 -0.042044047 0.06338651
-0.0068615032 -0.16613355 -0.22658259 -0.073139116 0.0042096497 -0.05670571 0.04519886 0.045545977
-0.08139757 -0.052595228 -0.05140511 0.12300744 0.23161791 -0.11047177 0.069727734 0.10226405
0.27256444 0.29195938 -0.07856162 0.25374946 0.05000161 0.107340485 0.15865956 0.08157035
0.0139079 0.02271518 -0.09611125 0.11387587 -0.033234563 -0.081890866 0.17547907 -0.02687273
-0.03850539 -0.38901436 -1.2567363 0.04121874 0.061578456 -0.20128009 -0.17354248 0.011441172
0.06323091 0.022767862 -0.17836474 -0.01680332 -0.20740469 0.035209164 0.17892142 0.058639638
0.13665847 -0.0029122662 -0.15754618 0.26334003 -0.057020515 0.15710096 0.26585507 0.017710317
-0.09776602 -0.006253339 -0.024653165 -0.46305466 0.09267512 -0.012210143 0.25354403 0.011181148
-0.8582586 -0.45775184 -2.3885186 -0.13058993 -0.1694163 -0.040486615 0.08063911 0.32379222
0.07184735 0.12182229 0.06780972 0.10507057 -0.106084615 -0.11773717 0.028578117 0.06334895
-0.028169101 0.27951595 -0.22660208 -0.025234023 0.16681075 -0.1061627 -0.010831217 -0.038886636
-0.1631615 -0.16736138 0.12896673 0.08401105 0.13985862 -0.13558908 -0.1498401 0.08389945

fc1.bias f4 [64]
00000000: 727d bd3d 1261 ffbd d323 4fbd a90e 02be
00000010: 755a 1f3e 3feb c7bd ed31 acba bba2 f43d
00000020: e8e2 bdbc 45d3 71be c5ab 803d 0d24 643e
00000030: b836 bb3a 7384 ba3d ef9d 5dbe 9b07 18be
00000040: 60da 87bd afa6 65bd 5f7d a5bd 9240 82be
00000050: 5ef0 04bd e60a 963d e055 45bd 48a5 95bd
00000060: 3ac5 39be eb03 323e c279 b7bd e8b8 27be
00000070: 67f5 4f3e 212e 1b3e 1cc0 9ebc 3c7c d7bd
00000080: e64c 003e 08bd a9bc 2d1e 8ebe 981c 903d
00000090: fc18 5bbd 7db3 da3c beca 98ba 6e31 88be
000000a0: ff11 74be 51ee 173e 0d8a c3bd e767 a03e
000000b0: fb08 9d3c 8cc8 0cbc 5616 bfbd 4589 82be
000000c0: 78ba 41bd fc8b 37bc 6c14 dbbd 4b8e 083c
000000d0: e1ad 1ebc 0fa2 a7bd e3a6 e2bd e03b 2fbd
000000e0: fd7e 3d3d 2c27 96bd 14f1 b13c 327c b2bd
000000f0: ba19 0cbd 90ed 043d f765 8d3c 026d 99bd
0.092524424 -0.124696866 -0.050571274 -0.12700905 0.1556185 -0.097616665 -0.0013137438 0.11945101
-0.023179486 -0.23615749 0.062827624 0.22279377 0.0014283275 0.09107294 -0.21642278 -0.14846651
-0.066334486 -0.056067165 -0.08080553 -0.25439888 -0.032455795 0.073262975 -0.0481776 -0.073069155
-0.18141642 0.17384307 -0.0895877 -0.1637913 0.20308457 0.15154316 -0.019378714 -0.10521743
0.12529334 -0.02072002 -0.27757397 0.07036704 -0.053490624 0.026696915 -0.0011657102 -0.26600212
-0.2383499 0.14837004 -0.095478155 0.3132927 0.019169321 -0.008592736 -0.09330432 -0.25495353
-0.04729697 -0.0112028085 -0.106972545 0.008334707 -0.009685011 -0.08185207 -0.11066987 -0.04278171
0.046263684 -0.0733169 0.0217214 -0.087150946 -0.034204222 0.03245312 0.017260535 -0.07491495

fc2.weight f4 [64, 64]
00000000: 7864 80bd 97ba 403e 0357 b4bd d43a bb3c
00000010: 8301 32be 2f76 f9bd 2c29 6c3e 3a8f f8bc
00000020: d10e 3c3e 6ffe 293d 1b53 9ebc 31fb ca3c
00000030: 050f 3dbd c8ec d63e 53a1 b0bc fd99 033e
00000040: 0f78 f93c 1cdd bcbd a00a e2bd aec7 673e
00000050: f6cd fcbd 38bb 4f3d d7a5 8a3c ff80 e9bd
00000060: 5487 123d 88c8 233e 900b 9bbe f0b5 7b3d
00000070: d07a acbd be90 abbd 0e75 c43e 8702 4f3e
00000080: 6eb4 51bd 0528 25bd 2fb5 d33d 94b9 da3c
00000090: 0cf6 963e f097 38bf 7e61 3ebd 5e1b 9cbe
000000a0: e54c bdbc 6095 823e f5f5 c2bd 4bbd dabd
000000b0: 0aed 98bc 0133 523d bb34 a6bd 61dd 403e
000000c0: bd79 c33d ab87 2bbe df40 e8be 26a6 4abd
000000d0: 2bf0 b93e 2986 7bbe dfd5 89bd 169a 983c
000000e0: b998 e33c aa54 733b 3b13 89be 4c96 93bd
000000f0: 157d e13d 4ae7 683f ba7d 2bbd ab73 01be
00000100: 83bd 913d 3e87 303d bcbd 91be d56d d4be
00000110: bedb 833e 60e7 ca3d e573 c6bb 8165 9c3d
00000120: 96dd 213e ef17 1a3b af10 13be 8df2 b43d
00000130: d3d8 29be 436a 023f 22a7 71bd 2bc1 8b3e
00000140: 56a4 4f3e 9837 713e 93c6 2cbc a43d e0bd
00000150: 74a4 91be 137b dbbe f640 37be 5cb3 7bbe
00000160: a227 4bbe c00e dfbc ecc6 a2bd f5ca 003e
00000170: 9936 393e 18d9 80be a395 793e ca53 333e
00000180: 518a 27bd 46c9 a63d 5344 273e e848 953e
00000190: 7873 77be 082d 03bf 6ede 423e 9d24 70bd
000001a0: 1711 e7bc f275 3d3e 34a5 d0bd b1f0 0ebe
000001b0: 8420 983e 0646 623e a64e 12bf 7292 2a3e
000001c0: f2f7 963d fca1 0c3e ebb0 1abe 3fff 003e
000001d0: bec4 013e 75e1 34bf 8635 4abd c36d ab3d
000001e0: b82e 88bd 162a 05be 448b a13e 9159 c0be
000001f0: e9a6 b0be 3124 e6be b4e3 2e3e 7667 abbd
00000200: 56b9 abbe f762 36bf 81cf 17be 3f5e e6be
00000210: c956 3ebd f318 07bf 6aeb cf3e 9c92 973d
00000220: 2346 4b3d d176 adbe 4bea 083e 5225 cebe
00000230: 5a16 38bf 6c85 ff3e e1d6 35be 4b43 45bc
00000240: bb17 6cbe 0681 2c3e ca96 1d3e 3487 203e
00000250: 04f1 ce3d 2f1e ae3e fc6f c4bd 24e7 2e3e
00000260: 6ef3 f2be 320d e7bd 0751 2e3e fcd6 7ebd
00000270: 0a99 60bd 8f4f dabd 2b34 aa3e 3672 083b
00000280: 02c7 b9be 1fe7 a83d 5386 39bf 3a5e b73d
00000290: 32aa 1b3e 1252 a4be ba1b 40be ddc6 b83c
000002a0: e0b9 8fbe 3943 603e ef2c 8dbe df1f 4fbe
000002b0: 4211 b3be 14d5 b73c fc0a 00bf 8c2e 3fbe
000002c0: 9d1c 523e 5a91 b9be b7e9 94bd 7167 10bf
000002d0: 29d2 323d f119 73bc 0988 02be 8c1d ac3d
000002e0: 1d0f cabe 51cd dc3d 2156 07be 7737 4c3e
000002f0: 2438 01bf ff12 a8be 6bbb edbd c788 653e
00000300: 2304 813e 3337 863d ce96 88bd 540f 1fbe
00000310: fed3 bbbe a26b a9bd fe53 07be 8ca1 01be
00000320: 2ba3 f73d 4eea bebe ef3d 933e 024e 35bc
00000330: 6794 4ebd 6e5a 5b3d 9f7c 9bbd df34 0d3e
00000340: a647 1b3f 4bf9 94be 5dc5 10be 4c48 71bd
00000350: 6d42 08be 51a7 35be 97e4 e03d 55f8 323e
00000360: 19ee 91bd 2d76 7e3c 6cd4 d7bb c426 923e
00000370: 2afa 7d3d f487 95be fc21 043f 5747 a93e
00000380: b8a3 d33b 860c 60bc 27bd e03d 8e13 653e
00000390: da87 b2bd 88b4 d7bc ab5f 633f 1162 c7bc
000003a0: f415 af3e ecb4 243e 9b85 c53e 6da5 a8bd
000003b0: ecd0 78bd 4375 4cbe f57d dabd 7028 2e3e
000003c0: d515 0fbf 0b11 acbe d209 1cbf d03b 97bd
000003d0: 03f6 9d3a f61f f9be 011c 20be 3827 133e
000003e0: 28c1 b33d 2b4e 8b3d 1d02 15be 8b88 d83d
000003f0: 6ec4 303d c533 37be 39cc 713d 4f81 ebbd
-0.06269163 0.18821178 -0.08805659 0.0228552 -0.17383389 -0.12180745 0.23062581 -0.030341733
0.18365027 0.041502412 -0.019326737 0.02477798 -0.046156902 0.41977525 -0.0215613 0.1285171
0.030452756 -0.09221861 -0.11037183 0.22634766 -0.123439714 0.050715655 0.016924782 -0.11401557
0.03577359 0.15994465 -0.3028226 0.061452806 -0.08421862 -0.08377217 0.38370556 0.20215808
-0.05119746 -0.04032137 0.103372924 0.026699819 0.29484594 -0.7210684 -0.046479695 -0.3048963
-0.023107955 0.2550459 -0.09519569 -0.10680636 -0.018667717 0.051318172 -0.08115526 0.1883445
0.09544704 -0.16750972 -0.45361993 -0.049474858 0.36316046 -0.24562897 -0.06730246 0.018628161
0.027782785 0.003712932 -0.26772484 -0.07206401 0.11010186 0.9097792 -0.04186795 -0.1264178
0.071162246 0.043097727 -0.28465068 -0.41490045 0.25753587 0.099074125 -0.006056296 0.07636548
0.15807185 0.00235128 -0.14361833 0.088353254 -0.16586618 0.5094339 -0.05899728 0.27295813
0.20277533 0.23556364 -0.010545391 -0.10949257 -0.2844578 -0.42867336 -0.17895874 -0.24580139
-0.19839337 -0.027228713 -0.079480976 0.12577422 0.18087234 -0.2516563 0.24373488 0.17512432
-0.040903393 0.081438586 0.16334657 0.29157186 -0.24165142 -0.5124059 0.19030163 -0.058628667
-0.028206391 0.18502024 -0.1018776 -0.13959004 0.29712307 0.22097024 -0.5715126 0.16657427
0.073715106 0.13733667 -0.15106551 0.12597369 0.12672707 -0.7065652 -0.04936745 0.08370545
-0.06649536 -0.13004336 0.31551564 -0.37568334 -0.34502342 -0.44949487 0.1707905 -0.08369343
-0.33539838 -0.7124476 -0.1482525 -0.4499378 -0.046469484 -0.52772444 0.40609294 0.074010104
0.049627434 -0.33879712 0.13370626 -0.40262848 -0.71909106 0.4990648 -0.17757751 -0.01203997
-0.23055927 0.16846094 0.15389553 0.15676576 0.10104564 0.34007403 -0.09591672 0.1708036
-0.47451347 -0.11281814 0.17023097 -0.062216744 -0.05483345 -0.10659706 0.33242926 0.0020820028
-0.36284643 0.08247208 -0.7247059 0.08953519 0.15201643 -0.32093865 -0.18760577 0.022555763
-0.280715 0.21900643 -0.27573344 -0.20227002 -0.34974104 0.02244047 -0.5001676 -0.186701
0.20518728 -0.36243707 -0.0727114 -0.5640784 0.043657456 -0.014837728 -0.12747206 0.08404073
-0.39464656 0.107813485 -0.1321645 0.19943033 -0.5047629 -0.32826993 -0.11608013 0.22415458
0.2519847 0.06553497 -0.06669389 -0.15533191 -0.36685175 -0.082724825 -0.13215634 -0.12659281
0.12091669 -0.37288135 0.2875819 -0.011065962 -0.050434496 0.053553037 -0.07592129 0.137897
0.606562 -0.29096445 -0.14137788 -0.05890684 -0.1330659 -0.17739607 0.109811 0.17477544
-0.07125492 0.015531105 -0.006586602 0.285452 0.062006153 -0.29205287 0.51614356 0.3306224
0.006458726 -0.013674861 0.10973578 0.22370741 -0.08717318 -0.026331201 0.8881785 -0.024338754
0.34196436 0.16084641 0.38578495 -0.082346775 -0.06074612 -0.19966607 -0.10668556 0.17007613
-0.5589269 -0.33606753 -0.60952485 -0.07384455 0.0012051467 -0.48657197 -0.15635683 0.1437043
0.08777076 0.06802019 -0.14551587 0.105729185 0.04315608 -0.17890842 0.059032653 -0.11499273

fc2.bias f4 [64]
00000000: 3eab 90bd 96a0 b5bc 5cbc 23be 0970 6ebc
00000010: 166a 0a3f 3435 83bd 88d3 9cbd e8e6 98be
00000020: 4196 4f3e 050e 543f 1fec d839 30fd e93e
00000030: e86e 193e 3b1d 993d 6c87 d0bc 1b02 933e
00000040: 6b29 09be 1576 1f3e 9830 bdba 6574 c03e
00000050: 27dd f83e af38 763f 51be 74be dda7 92be
00000060: 6934 a8be 0f8a 56be d29e 173e 728b 3d3a
00000070: 82b1 8b3d 9de0 323f 4959 dabd e598 903e
00000080: ead9 17be 01cf 063f c79e b13d dc8a 8d3d
00000090: 7290 fbbd 8a54 38bd 7e68 0f3f cc45 263e
000000a0: 29ad 1dbe d5de 633f f72e 383f adeb eabd
000000b0: 27bb 0e3e c4d5 22be 8553 ff3e a3c0 eb3c
000000c0: 1385 213e 71e4 163e 4733 bcbe 7a56 283f
000000d0: 9906 00bc c643 883a 01a3 3d3f e458 6abe
000000e0: eb48 c7be df39 1ebe 2e6f ffbd c8f2 16be
000000f0: 5785 0fbd a372 133f a0ac ddbc 01b2 e2bd
-0.07063912 -0.0221713 -0.15989822 -0.014553078 0.54068124 -0.06406632 -0.07657534 -0.29863667
0.20272161 0.8283389 0.00041374654 0.4570098 0.14983714 0.074762784 -0.0254552 0.28712544
-0.13394706 0.15572388 -0.0014434038 0.37588802 0.48606226 0.9618024 -0.23900725 -0.28643695
-0.32852486 -0.20951103 0.14806679 0.0007230557 0.06820966 0.6987398 -0.10661561 0.2824165
-0.14829221 0.5265961 0.086728625 0.06911251 -0.1228341 -0.045002498 0.5601882 0.16237563
-0.15398087 0.8901189 0.7194666 -0.11470733 0.1393858 -0.15901858 0.49868408 0.02877838
0.1577342 0.14735581 -0.36757872 0.6575695 -0.007814073 0.0010396175 0.7407685 -0.22885472
-0.3892282 -0.15451764 -0.12472378 -0.14741051 -0.035039272 0.57596797 -0.027059853 -0.11069108

fc3.weight f4 [4, 64]
00000000: 01c4 fe3e afba 5a3e dd61 70be aa62 263d
00000010: 1e0e 6d3e c3d2 893e 3ef4 00be 27a4 a4be
00000020: 2020 be3e 5bfb 813e 27c8 3abf 1b4e b43e
00000030: a3e0 f43c 8352 a7ba aaab 2c3d 47dd c83b
00000040: 5d07 95bd 65f4 8a3e 25ae c03e 3eda 583e
00000050: c9d5 103e b46d a03e 6f17 84be 9bcd 05be
00000060: 3b02 8fbe 5dca 2fbd 964c 73be 52a0 343e
00000070: 409d 823d 0b91 803e cb92 bdbe 5724 353d
00000080: 98b0 3ebd 9e7a a73e c678 e83d a215 a83e
00000090: 6a14 c73e ecd6 de3e 1647 4a3e baa4 1b3c
000000a0: 60c4 a43d e031 923e 4282 523e 36cd a1be
000000b0: a220 ff3d 8f7e 8cbe 3101 253e 8fb1 083f
000000c0: 3e66 093d d1c6 3a3e ddd8 90be 7a79 b23e
000000d0: fe24 b1be 58c7 a33e 2ab5 4f3e 6cf9 f6be
000000e0: 8194 92be 484f 8a3b 81ae 2c3e 385e fa3d
000000f0: d348 cfbe 7cb1 603e 0bcd 2c3e d379 b73c
00000100: 0245 173f 00c8 203e 63d3 2c3e 56bb 543e
00000110: 517b 273e 497a 5d3e c7d1 c9be c478 82be
00000120: 7015 323e cb6d 5e3e ef81 83be c55e 603e
00000130: e348 133e b36a f7bb 6700 ef3d a225 463e
00000140: 5c96 5a3e 64d0 f23d cfb6 7b3d 3b13 fa3d
00000150: 71a9 8a3e e246 c83e 487b 183e 37f9 cebd
00000160: 956a 1ebe f309 5a3e 9dd8 4b3c 864e 963e
00000170: e822 053e 0a6a 2c3e 687a 89be 8286 843e
00000180: fa8f 32bd 11b2 a43e 5213 023e fd74 653d
00000190: 992d 963e ddfe 933e a16b a03d 4c91 823d
000001a0: 76c4 c13d 6cf8 a33e 2430 263e a6de c5bd
000001b0: e013 d63d 395c 55bb 7c96 233e 1242 053e
000001c0: 5413 723e a728 ad3e 634a 80be 6e85 983e
000001d0: d61a ec3d cd88 1a3f bca5 833e e841 7bbd
000001e0: 0b52 97be c426 5dbd 0916 8b3d 84d4 edbe
000001f0: 47a3 093e 8632 7b3e b79a 2abe dad7 093e
00000200: 9791 683e 684b c93e 617e b93e 856d c73e
00000210: 296a b83e 83d5 70bd 5e04 aebe 1d96 c7bd
00000220: 3d1e b03d 6f88 633e 5d22 9d3c e845 2e3e
00000230: 457e 983e a611 d1be 8625 22be b4c4 013e
00000240: 4c28 b53e d600 4f3d ce84 1ebd 7fc4 c13d
00000250: f765 473d 4292 b93e d87e d4be 8e48 013e
00000260: 320c 9abe dede b7bd 7d83 1fbf 8836 a63e
00000270: dcd7 d03e a5bc 8e3e 0e83 9cbe 9871 48bd
00000280: 82dd 74be 3462 a83e 47a9 673e 121f 8a3e
00000290: 4622 2c3e bb5c 833e fad3 593e ee16 283e
000002a0: 61a1 823d 8ea7 8a3e 52c6 6a3e 2d28 ea3d
000002b0: fc28 d03c 4811 b5bd b42e 1f3e 7e05 a73e
000002c0: 37e1 e83e 16ae e43d fde7 c1be 1cf2 bf3e
000002d0: f229 b23d 488d 843d 0bae 413e 2518 483e
000002e0: 3080 23bd a02e c73a a03f 903e a114 d2be
000002f0: cb55 553e 1800 b13e 9496 44bf 2c00 f6be
00000300: 7499 313f be7c f43e d579 c2be 6545 d93c
00000310: ba51 9e3d 4396 b53e 3085 51be 1389 b0be
00000320: f982 833d cf96 a33e 61db a23e 9b1d 5c3d
00000330: ef5a 6f3e b8cc b1be d8f1 023f bec5 613e
00000340: eed2 f53d a00e 023e 9785 493e 0baa ec3d
00000350: 8366 a03d 7050 c23e 221f aebe dd8e a03e
00000360: 2599 9cbe 1b41 13bf d2e9 863c 4a4e d53e
00000370: 869b a63c 27aa e73d b18f 80be a86d 093e
00000380: 069a 25be 3fb5 ab3e 774b 783e ece3 3d3d
00000390: 67f9 15bf 5944 5c3e be10 623e 3f0c a23e
000003a0: dff7 a8bd cbba a13e 8811 903e 6afe a0be
000003b0: 276b 043e d6b9 0cbe 76c0 553e 73e0 6e3d
000003c0: a8dc 7bbe c07b 483e 995e a93d f6c8 963e
000003d0: 4e45 c5be 5d30 1f3f 5b63 8a3e 53cc 783d
000003e0: f784 3abe ef58 a7bd acec 64bf 81d4 e4bd
000003f0: 57ac 4cbe a4e9 0e3e 583a 20bf a675 f4bd
0.49758914 0.21360277 -0.23474832 0.040621437 0.23149917 0.2691861 -0.12593171 -0.32156488
0.37133884 0.25387082 -0.7296166 0.3521584 0.029892271 -0.0012765679 0.0421559 0.006129894
-0.07276795 0.27139583 0.37632862 0.21177003 0.14144053 0.31333697 -0.25799128 -0.13066714
-0.2793139 -0.042917598 -0.23759684 0.17639282 0.06377649 0.2511066 -0.37026057 0.04422411
-0.04655513 0.32710737 0.11351161 0.32829005 0.38882762 0.43523347 0.1975368 0.009499723
0.08045268 0.28553677 0.20557502 -0.31601876 0.12457396 -0.27440307 0.16113736 0.5339593
0.03354477 0.18239905 -0.28290454 0.34858304 -0.34598535 0.31988025 0.20283952 -0.4823717
-0.28628924 0.004220877 0.16863443 0.12225002 -0.40485248 0.21942705 0.16875093 0.022396958
0.5908967 0.15701294 0.16877513 0.20774588 0.16355635 0.2162868 -0.3941786 -0.25482762
0.1739099 0.2172157 -0.2568507 0.21911152 0.14383273 -0.0075505613 0.116699986 0.19350293
0.2134642 0.118561536 0.061453637 0.12210699 0.270824 0.3911658 0.14890778 -0.10106128
-0.15470345 0.21292858 0.012441781 0.29356784 0.13001597 0.16837326 -0.268512 0.2588387
-0.043594338 0.32167104 0.12702683 0.05601977 0.29331663 0.28905383 0.078330286 0.063753694
0.094613 0.32025468 0.16229302 -0.096616074 0.104530096 -0.003255619 0.15975374 0.13013485
0.23640186 0.33820078 -0.25056753 0.297893 0.11528556 0.6036499 0.25712383 -0.06134215
-0.2955478 -0.053992048 0.06791312 -0.464512 0.13441192 0.24530992 -0.16660582 0.13461247
0.22711788 0.39315343 0.36229232 0.38950744 0.36018494 -0.05879737 -0.33987707 -0.09745429
0.085995175 0.22220014 0.019181425 0.17018855 0.29783836 -0.40833777 -0.15834627 0.12672693
0.35382307 0.050537907 -0.03870087 0.09461307 0.048681226 0.36244398 -0.41503024 0.12625334
-0.3008743 -0.089780554 -0.6231001 0.3246348 0.40789688 0.278783 -0.30568737 -0.048936456
-0.23912624 0.32887423 0.22623168 0.2697683 0.1680995 0.25656685 0.21272269 0.16414997
0.06378437 0.2708096 0.22927216 0.11433444 0.025410168 -0.08841187 0.1554516 0.32621378
0.45484325 0.11166017 -0.37872306 0.37489402 0.08699407 0.0647226 0.18914048 0.1954046
-0.03991717 0.001519639 0.28173542 -0.41031364 0.20833509 0.34570384 -0.76792264 -0.48047006
0.69374776 0.4775142 -0.37983575 0.026522348 0.07730432 0.35466203 -0.20460963 -0.3447958
0.064214654 0.31950995 0.31807998 0.05373917 0.23374532 -0.347265 0.51150274 0.22048089
0.12003122 0.12700891 0.19679867 0.115558706 0.078320526 0.37951994 -0.34008127 0.31358996
-0.3058559 -0.5752122 0.016468916 0.41661292 0.020337831 0.11311751 -0.25109628 0.13420737
-0.16172037 0.33536717 0.24247538 0.04635994 -0.5858368 0.21510448 0.22076699 0.31649968
-0.08250403 0.31587824 0.28138375 -0.31444103 0.129315 -0.13742766 0.208742 0.05831952
-0.24595892 0.19578457 0.08269996 0.29450196 -0.38529438 0.6218317 0.27028927 0.060741734
-0.18214785 -0.081712596 -0.8942363 -0.111733444 -0.19987617 0.13956314 -0.62589025 -0.11936502

fc3.bias f4 [4]
00000000: 9529 203f 380e ed3e b366 d33e 3cdb 003f
0.6256345 0.4629991 0.4128929 0.50334525
